all_manuscript_models/sim350/phoenix/noise_0.05/best_val_model_alpha_comb.pt (torch, 113451 bytes, 1 tensors)

weight f4 [350, 80]
000000 1a 63 ae 39 d3 08 3b b8 36 3f 00 39 cd a7 79 3a
       0.00033261703 -4.4592492e-05 0.00012230579 0.00095236005
000010 ea 3d 94 3a ed 9e 57 b9 ae 00 38 b9 0e f3 35 38
       0.0011309956 -0.00020563202 -0.0001754786 4.3380125e-05
000020 80 11 6f 3a 64 51 d3 b9 08 de b1 36 48 5b cd 3a
       0.0009119734 -0.00040305697 5.300859e-06 0.0015667463
000030 f8 6e 85 b7 37 cb 17 b9 10 85 87 39 1d 35 53 37
       -1.590651e-05 -0.00014476186 0.00025848346 1.2588946e-05
000040 80 8e 62 39 e6 4b b8 38 e5 fc 2b ba 1b 0b ed 39
       0.00021606125 8.787941e-05 -0.00065608165 0.00045212437
000050 02 f4 61 b9 fd 92 c3 36 d3 6f 6a 38 82 e2 94 39
       -0.00021548572 5.8285646e-06 5.5894092e-05 0.0002839752
000060 60 be 36 38 80 ec 6d b9 ae 49 9d 39 b7 b5 6a b9
       4.3569482e-05 -0.00022690184 0.0003000027 -0.00022383673
000070 d4 ab af b9 de ab bc 39 d0 94 ec b9 f8 1c 91 39
       -0.00033506623 0.00035986205 -0.00045124302 0.0002767814
000080 99 c4 aa b8 d3 c7 63 b9 b6 37 c5 b9 7d ba 40 ba
       -8.142851e-05 -0.00021722847 -0.00037616276 -0.00073520077
000090 cc f1 59 bb 13 dd 04 b9 d8 88 92 3a d0 7c 03 3a
       -0.0033255694 -0.00012670858 0.0011179699 0.0005015852
0000a0 99 13 7b 3b 8d 9f 07 3b 4b 8d 0e 3c 9b 0b 51 3b
       0.0038311242 0.0020694465 0.008700679 0.0031897787
0000b0 f4 69 2a 39 05 ef 27 ba 17 3b bd 38 8f 8f c3 3b
       0.00016251934 -0.0006406161 9.0232286e-05 0.0059680413
0000c0 a0 33 b3 3b a4 ce 6a 3b ab 9a bb 3b 8c 93 f1 3a
       0.0054688007 0.0035828734 0.005725225 0.0018430813
0000d0 f1 a2 38 3d 6d 22 60 3b 21 19 0e 3b c1 37 06 3b
       0.045077268 0.0034200207 0.0021682458 0.002048001
0000e0 5c 6a 95 3a 41 bc 84 3b f1 85 da 3b 51 96 77 3b
       0.0011399495 0.004050762 0.006668799 0.0037778805
0000f0 10 c1 a9 bb 8a 04 aa 3b 5d be 6a 3b bd 35 a4 3b
       -0.0051804855 0.0051885294 0.0035819032 0.005011289
000100 17 bd bb 3b 8f 4e 67 3b 9f e7 34 3a 2f 6d 9a 3b
       0.0057293284 0.0035294627 0.00069009693 0.0047127227
000110 63 d9 99 3b 8d 21 ab 3b 31 7a b0 3a d9 22 88 3a
       0.004695104 0.0052225054 0.001346415 0.0010386362
000120 e0 3a 3a bd 61 7e a6 b8 c6 7b a2 3b 2c 3a 15 39
       -0.045466304 -7.939037e-05 0.0049586026 0.00014231418
000130 28 73 0d ba c7 47 28 3b c0 af d6 3b 9d ed dd 3b
       -0.0005395883 0.0025677548 0.0065517128 0.0067727105
000140 4c a3 82 3c 39 7a 7a bc 3a d9 91 3d a8 7d 86 b9
       0.015947007 -0.015287929 0.07121511 -0.00025652093
000150 f6 3b d5 bd fd 19 a0 bc 3e 3b ef 3b 42 ba 88 bb
       -0.10411827 -0.019543642 0.0073007634 -0.0041725943
000160 8b 51 89 3d dd a0 8d bc e7 ef a7 3b d0 c4 0e 3d
       0.06705006 -0.01728862 0.005125034 0.034855664
000170 b3 e7 54 bb 2e d5 59 3c 92 c2 a0 3d 95 0f a0 bc
       -0.0032486736 0.013295455 0.07849611 -0.01953868
000180 d7 f4 d1 bc 7a c4 ea bc 6e 66 13 ba 5c 2e d5 bc
       -0.025629444 -0.02865814 -0.0005622868 -0.026023082
000190 73 83 5c 3c 9d 37 44 3c 80 e8 26 bb d8 27 b7 bc
       0.013459074 0.01197615 -0.002546817 -0.022357866
0001a0 00 fc d3 3c 01 86 96 bb fd 08 78 bc 1c b7 b1 bb
       0.025876999 -0.004593611 -0.015138862 -0.0054234397
0001b0 01 fa e8 bc 3c d9 cf 3c 1a 6b 14 bd 52 74 0a 3c
       -0.028439524 0.02537214 -0.036234953 0.0084505845
0001c0 a0 43 12 3d c4 5f 40 3b b4 0f a3 3c 90 aa 30 bd
       0.035709023 0.0029353956 0.019904949 -0.04313141
0001d0 90 47 c7 bd a8 03 94 ba dd 3e bf bc 30 d4 1b bc
       -0.09730446 -0.0011292594 -0.023345405 -0.009511039
0001e0 c5 9b 3a 3c 2a 28 ea 3c 40 ce 85 3d 7f af ed 3c
       0.011389677 0.028583605 0.0653348 0.029014347
0001f0 52 0b c4 3c 04 80 80 3c 3d 1f c4 3c 48 aa 4b 3d
       0.02393118 0.015686043 0.023940677 0.04972294
000200 d2 c1 58 3d 9f 65 9a 3b b4 64 5b 3d c4 f5 66 3c
       0.052919216 0.004711821 0.053562835 0.014096681
000210 87 a6 09 3d d9 df ef 3c 4b 07 32 3d f6 28 ad 3c
       0.03360608 0.029281544 0.043463986 0.021137696
000220 52 42 d1 3c b0 d5 a1 3c b0 e6 a1 3d 8e f3 86 3d
       0.02554432 0.019755214 0.07905328 0.06589423
000230 c0 c8 1e 3c 4d fd 17 3d 60 83 fa 3c 6e 25 aa 3a
       0.009691417 0.0371068 0.030580223 0.0012981126
000240 96 4f e9 3b bb 55 f6 3c b0 95 15 3d 3d 7b 64 3d
       0.007120083 0.030070176 0.036519706 0.05578159
000250 ee 76 ef 3c b9 58 f3 3c d3 a5 93 3c 06 b7 2c 3d
       0.029231515 0.029705392 0.018023407 0.042166732
000260 07 d6 d0 3c 66 33 da 3c 3e 17 45 3d 28 de 0a 3d
       0.025492681 0.026635837 0.04811787 0.03390327
000270 b7 98 05 3c a8 8f 5b 3d 49 e4 c7 3c 69 18 5e 3d
       0.008154086 0.0536038 0.024400847 0.054222498
000280 86 63 76 bd f0 d8 b5 3c 97 db 99 3c 3f 3c 45 bd
       -0.060153507 0.02219817 0.018781466 -0.04815316
000290 0e 7d 85 bd 2f f8 da 3b d9 b6 ab 3d e8 08 4d 3c
       -0.06517993 0.006682418 0.08384485 0.01251433
0002a0 02 1b 35 bc 0c 1d e2 3c 7f d9 63 bd d0 eb 42 bc
       -0.011053802 0.027601741 -0.055627342 -0.011897042
0002b0 87 65 b0 bd 4a 56 80 3c e4 ac 17 3d 9d cf 76 3c
       -0.08613115 0.015666146 0.037030116 0.015064147
0002c0 d1 31 25 bd 2a 67 36 bc 89 96 db 3c 7a 38 31 3c
       -0.04033071 -0.011132995 0.02680518 0.010816688
0002d0 28 9e 46 bd 08 10 6d 3d 39 ce 38 3d cd fe 12 ba
       -0.048490673 0.057876617 0.045118544 -0.0005607426
0002e0 c5 cd f9 3c dd a5 cb bb 13 5c a7 3c 0a 02 ff 3c
       0.030493626 -0.006214841 0.020429647 0.031128902
0002f0 b1 21 8f bd d1 96 8b 3d 1b 4f e5 3d f8 dc f9 3d
       -0.06988848 0.06815875 0.11196729 0.122003496
000300 4b 55 02 bc ef cd 2b 3d 4c 3f 1a bd 26 64 bd 3b
       -0.007954906 0.04194444 -0.03765802 0.005779761
000310 21 1c 45 bd a6 35 b8 bd d4 64 19 bc 0b fe 78 3d
       -0.04812253 -0.089946076 -0.009362418 0.06078915
000320 04 c8 c4 3a 0a d3 22 3d 4d bb 37 3b 56 c6 31 bd
       0.0015013223 0.039752044 0.0028035224 -0.04340204
000330 76 20 e3 3c 1e c3 a6 bb cc e9 c9 3c a4 3e 68 3c
       0.02772544 -0.0050891778 0.024647616 0.014175091
000340 22 fc 88 3c 87 9d 66 3c d2 ca 62 3d f3 1c 0f 3d
       0.016721789 0.014075643 0.055369206 0.034939718
000350 17 27 a3 3c d0 1c 09 3d 45 7f 2c 3d a3 f7 ad 3c
       0.0199161 0.033474743 0.04211356 0.021236246
000360 fd f3 ff 3c 9e 99 a8 3c 7d d2 73 3c cc 71 00 3d
       0.031244272 0.020581063 0.014881727 0.031358525
000370 7e 4b f2 3c 76 09 51 ba 60 7b 43 3c a2 a7 c1 bd
       0.029577013 -0.0007974127 0.01193127 -0.094558015
000380 7e 4a 0c 3c 8f cd c9 3c 0a 9b 3a 3c c4 7f df 3b
       0.008562682 0.02463415 0.011389503 0.006820651
000390 9d c4 73 3c 11 4a 0b 3d 57 a5 c0 3c 4a b8 06 3d
       0.014878419 0.034006182 0.02351634 0.032890595
0003a0 6d b0 dc 3b 69 06 02 bb 3b 8c 10 3c 77 83 ba 3b
       0.006734899 -0.0019840247 0.008822496 0.0056919414
0003b0 e4 4b 9a bc f3 d9 b8 3c f9 a9 cc 3c 1f af 64 3c
       -0.018835016 0.022564864 0.024983393 0.013957768
0003c0 49 e7 97 3c eb f7 c1 bd cc ba 11 3d 49 5f a9 38
       0.018542903 -0.09471115 0.035578534 8.076296e-05
0003d0 01 83 f9 bd a3 96 c2 bc 30 2a 5a bd 3e 93 d3 3c
       -0.1218319 -0.02375347 -0.05326289 0.025827046
0003e0 02 a4 9a 3d 56 12 00 bd 0b 0f 11 3d 8a 89 72 3c
       0.07550813 -0.031267487 0.035414737 0.0148033
0003f0 55 b7 39 bc d4 ca ea ba 7c 17 9f 3c 17 77 ab 3c
       -0.011335214 -0.0017913231 0.019420378 0.02093081
