all_manuscript_models/sim350/phoenix/noise_0/best_val_model_prods.pt (torch, 57895 bytes, 2 tensors)

weight f4 [40, 350]
0	0x3df1489e	0.11781429
1	0x3dbafe67	0.09130555
2	0xbc18ddd1	-0.009330229
3	0xbdbddcfa	-0.092706636
4	0x3d5900f3	0.05297942
5	0xbd03470e	-0.032050185
6	0x3cf3beea	0.02975412
7	0xbd43aee0	-0.047774196
8	0xbda52fec	-0.08065781
9	0xbca6bc83	-0.020353561
10	0x3b0f6213	0.0021878525
11	0x3d0c945a	0.034321167
12	0x3dba0f00	0.09084892
13	0xbc85eaad	-0.016347254
14	0x3dcce1de	0.10004018
15	0x3cbfe9c8	0.023426905
16	0x3db55549	0.088541575
17	0xbdcc6bd3	-0.09981503
18	0xbcf2691f	-0.029591141
19	0x3cd038bb	0.025417676
20	0x3d5cbca4	0.05389084
21	0x3d2be796	0.041968904
22	0xbace7aca	-0.0015753147
23	0x3d968de5	0.07351283
24	0x3b00b22c	0.0019637449
25	0x3d060069	0.032715235
26	0xbbc901cd	-0.006134248
27	0x3d18fc40	0.03734994
28	0x3cd5fc51	0.02612129
29	0xbce4ebe6	-0.027944516
30	0x3c7efe9c	0.015563633
31	0xbe24acd2	-0.1608155
32	0x3dd3ead7	0.103475265
33	0x3bf88e80	0.0075853467
34	0xbc600fea	-0.013675669
35	0x3c96da1d	0.018414551
36	0x3cb96b31	0.02263412
37	0xbd809fd1	-0.062804826
38	0xbd70d723	-0.05879892
39	0xbb608fa6	-0.0034265309
40	0x3d299a71	0.041407052
41	0x3ce9d82a	0.028545458
42	0xbbb1ac97	-0.0054221856
43	0xbd4c0e2e	-0.04981821
44	0xbd320864	-0.043465033
45	0x3c1f1a62	0.00971088
46	0x3d6fdc4d	0.058559705
47	0xbd25b7da	-0.040458538
48	0xbdf72e43	-0.120693706
49	0x3d236148	0.039887697
50	0x3d8de36f	0.06928145
51	0x3db18e93	0.08669772
52	0xbd704d53	-0.058667492
53	0x3d509710	0.050925314
54	0xbbdad2f0	-0.0066779777
55	0x3acffa0a	0.0015867364
56	0xbc84af50	-0.016196877
57	0xbf86cd46	-1.0531394
58	0xbdbdec97	-0.092736416
59	0x3ca0ef17	0.019645257
60	0xbce711d9	-0.028206753
61	0xbb474c67	-0.003041053
62	0xbca60199	-0.020264434
63	0x3c024a72	0.007952319
64	0x3e04bc0c	0.12962359
65	0x3b301521	0.0026868063
66	0x3d345a5d	0.04403149
67	0x3d18a0cd	0.037262727
68	0x3ba7ec69	0.005124618
69	0xbcbac174	-0.022797324
70	0x3c570955	0.0131247835
71	0xbaacecac	-0.0013193092
72	0xbcd2076b	-0.025638303
73	0xbd828ffc	-0.06375119
74	0xbd85a0be	-0.065248
75	0xbdc66326	-0.0968688
76	0x3d873e45	0.06603674
77	0xbd431796	-0.047629915
78	0x3c0ba9aa	0.008524338
79	0xbcfd066e	-0.030886855
80	0xbd8110f1	-0.063020594
81	0x3bc608e7	0.0060435417
82	0x3d2d65cd	0.042333413
83	0xbc5cdaa4	-0.013479862
84	0x3d842b2c	0.06453547
85	0x3d6ff206	0.05858042
86	0x3c165dbe	0.009177623
87	0x3bc2d59a	0.0059458734
88	0xbd00f0ea	-0.031479754
89	0x3c7377f3	0.014860141
90	0x3d76e417	0.060276117
91	0x3d821cb4	0.06353131
92	0xbdec3289	-0.11533076
93	0x3d2651c9	0.04060534
94	0x3caefa83	0.021359688
95	0xbc46f95c	-0.012144413
96	0x3ce14787	0.027499927
97	0xbc69558b	-0.014241586
98	0x3bcdd32a	0.0062812762
99	0x3c45b30e	0.012066616
100	0xbc01d70d	-0.007924807
101	0xba985412	-0.0011621735
102	0xbb925f44	-0.004466923
103	0xb9fdc202	-0.00048400467
104	0xbbfa9cbc	-0.0076480787
105	0xbb8639e9	-0.004096259
106	0x3b8626c5	0.004093977
107	0xbc4d7245	-0.012539451
108	0x3bd72487	0.0065656337
109	0xbbee432e	-0.007271192
110	0xb90ac94d	-0.00013235696
111	0x3bc66747	0.006054792
112	0x3ae898b2	0.0017745702
113	0xbc17f378	-0.009274356
114	0xbba7079c	-0.0050973427
115	0xbc535861	-0.012899489
116	0xbb8db693	-0.004324743
117	0x3b648df0	0.003487464
118	0xbc1330f8	-0.008983843
119	0xbc42f9dd	-0.011900392
120	0xba9b8838	-0.0011866158
121	0x3bea7392	0.0071548903
122	0x3c25615f	0.010094016
123	0xbc403251	-0.011730746
124	0xbcacbe12	-0.021086726
125	0xba569535	-0.0008185686
126	0xbcd54ba8	-0.026037052
127	0xbc5debc5	-0.013544981
128	0xbba79c34	-0.0051150564
129	0x3a993958	0.0011690063
130	0x3cb4ab9e	0.02205449
131	0x3bf242b2	0.0073932046
132	0xbadc06de	-0.0016786715
133	0xbb37c5f2	-0.0028041569
134	0xbca1cad3	-0.019750034
135	0xbc54ecf9	-0.012995952
136	0xbc7699f7	-0.0150513565
137	0xbc029c9e	-0.007971911
138	0xbc73bf1a	-0.014877105
139	0xb9ca881f	-0.0003862986
140	0xbb2cdc24	-0.0026376331
141	0xbcd500ce	-0.02600136
142	0xbc1c57cd	-0.009542418
143	0xbc33dd7f	-0.010978102
144	0xbafc346c	-0.0019241697
145	0xbbef3c5f	-0.007300898
146	0x3bf15ded	0.007365933
147	0xbbbdf72b	-0.005797287
148	0xbb059a64	-0.0020386213
149	0xb9ce7eba	-0.000393858
150	0xbc001cd8	-0.007819377
151	0xbb19e766	-0.0023483871
152	0xbb4dfefb	-0.0031432498
153	0xbc09f222	-0.008419545
154	0xbcad0f96	-0.021125596
155	0xbba1be79	-0.004936036
156	0xbc56ae00	-0.013103008
157	0xbc147eb7	-0.009063414
158	0xbc444915	-0.011980315
159	0xbcd12017	-0.025527997
160	0xbc438865	-0.011934374
161	0x3b85b59b	0.004080487
162	0xbb957297	-0.0045607793
163	0xbc3e495c	-0.01161417
164	0x3c340785	0.010988121
165	0xbbea523e	-0.0071509173
166	0x3a33ae02	0.0006854237
167	0xbb139d45	-0.002252416
168	0xbbc0a2c0	-0.0058787763
169	0xbb9a79bf	-0.0047142203
170	0xbb618bc2	-0.0034415578
171	0xbc2207f2	-0.00988959
172	0xbc12ee56	-0.0089679565
173	0xbc2737c1	-0.010206164
174	0xbc26a9b9	-0.010172301
175	0xbc416d9a	-0.011805916
176	0xbc659039	-0.014011436
177	0xb9a88c16	-0.0003214783
178	0xbbe8b5a9	-0.0071017337
179	0x3b246fb2	0.002509099
180	0x3ad3a301	0.0016146601
181	0x3ba128a5	0.0049181753
182	0x3bf876bc	0.0075825136
183	0xbc566995	-0.013086696
184	0xbca590ee	-0.02021071
185	0xbc0359b7	-0.008016995
186	0xbb5b7d09	-0.0033491275
187	0xbae86404	-0.0017730002
188	0xbc9ce2dc	-0.019151144
189	0xbc6b48f6	-0.014360657
190	0xbc48e7ef	-0.0122623285
191	0xbc85c6d3	-0.016330158
192	0xbc848846	-0.016178261
193	0xbc607b14	-0.013701219
194	0xbc35bd0a	-0.011092434
195	0xbc823191	-0.015892776
196	0xbc1ecac5	-0.009691899
197	0xbc57b2b0	-0.013165161
198	0x3bc7e418	0.006100189
199	0x3bb2fa9f	0.0054620053
200	0xb9d78e42	-0.00041113986
201	0xbbbfd759	-0.005854529
202	0xbbf97083	-0.0076122894
203	0xbaae8539	-0.001331485
204	0xbaee208d	-0.001816766
205	0xb9fe5afe	-0.0004851445
206	0xbbd0ea36	-0.0063755764
207	0xbc16adb6	-0.009196689
208	0x3a8c6e2f	0.001071399
209	0xbb9fcb7b	-0.0048765517
210	0xbc125cd5	-0.008933266
211	0xbc4dd731	-0.012563513
212	0xbc2881ad	-0.010284823
213	0xbc7f2e90	-0.015575066
214	0xbb99df0a	-0.004695778
215	0x3bd01c25	0.0063510113
216	0xbb546c53	-0.00324132
217	0xbcc50091	-0.024048122
218	0xbb5bf065	-0.0033560034
219	0xbc8ccd3b	-0.017187705
220	0xbcbbdb9b	-0.022931864
221	0xbc927ac4	-0.017880805
222	0xbc86ae87	-0.016440643
223	0xbc6efda4	-0.01458684
224	0xbcd7d4cd	-0.026346589
225	0xbc659a3c	-0.014013823
226	0xbc1b3536	-0.009473136
227	0xbc629be3	-0.013831112
228	0xbc246fd3	-0.010036427
229	0x3c400850	0.011720732
230	0xbbf0e6bd	-0.007351725
231	0xbb5a9de4	-0.003335827
232	0xbb60226f	-0.0034200212
233	0x3bb71cf3	0.005588168
234	0xbb9f3a37	-0.0048592347
235	0xbb20d2c9	-0.00245397
236	0xbbf6ec64	-0.007535504
237	0xbb81a653	-0.003956595
238	0x3ae0f8ef	0.0017164032
239	0xbc3bcf2b	-0.011462967
240	0x3a30e665	0.00067481986
241	0xbb8dc830	-0.0043268427
242	0xb921b830	-0.00015422772
243	0xbb261052	-0.0025339318
244	0xbc364b1c	-0.011126306
245	0xbc475c77	-0.012168041
246	0xbbe1fd29	-0.006896634
247	0xbc2afbdc	-0.0104360245
248	0x3bac9dfe	0.0052678576
249	0xbbb8904e	-0.005632437
250	0xbc95a43d	-0.018266791
251	0xbbe96272	-0.0071223313
252	0xbc2763e5	-0.010216688
253	0xbb870b5e	-0.004121228
254	0xb8266095	-3.9667433e-05
255	0xbb911410	-0.0044274405

bias f4 [40]
0	0xbd9dde20	-0.077083826
1	0xbdb5d296	-0.08878057
2	0x3aedead0	0.0018151645
3	0xbd802a1d	-0.062580325
4	0xbe05232b	-0.13001697
5	0xbd2db9ec	-0.042413637
6	0xbd8dda4f	-0.06926405
7	0xbec8b152	-0.39197785
8	0xbe2bb65a	-0.1676878
9	0xbdfe0ec0	-0.12405157
10	0xbe207624	-0.15670067
11	0xbdaeb7d2	-0.08531155
12	0xbdb1c87a	-0.08680816
13	0xbd8844c5	-0.06653742
14	0xbdfff2f7	-0.12497514
15	0xbe28dd1b	-0.16490595
16	0xbec3e6e2	-0.38262087
17	0xbdc825b7	-0.097728185
18	0xbe1c7b48	-0.15281403
19	0xbdc1b33c	-0.09458014
20	0xbda1436e	-0.07874189
21	0xbe06102a	-0.13092104
22	0xbe0b2916	-0.13589892
23	0xbe0797c5	-0.13241489
24	0xbd6dcee1	-0.058058623
25	0xbd8896e7	-0.06669407
26	0xbdd74191	-0.10510553
27	0xbde79d23	-0.11309268
28	0xbe01b074	-0.12664968
29	0xbe705948	-0.23471558
30	0xbcded85c	-0.027202778
31	0xbdbf273c	-0.09333655
32	0xbdb51adf	-0.08843016
33	0xbdec88fd	-0.11549566
34	0xbdece6f7	-0.115674905
35	0xbe9b608a	-0.3034709
36	0xbe28f6dd	-0.16500421
37	0xbdb67cc8	-0.08910519
38	0xbd72f92a	-0.059319653
39	0xbe2c0971	-0.16800477
