all_manuscript_models/sim690/phoenix/noise_0/best_val_model_alpha_comb.pt (torch, 277419 bytes, 1 tensors)

weight f4 [690, 100]
00000000: c3f9 5c38 f0fa 1939 afa0 1d38 df6d 9e37
00000010: 6a03 33b9 e9e8 13b8 0fa9 0bb8 6b5b 7338
00000020: 68f1 9c38 0427 1e38 d084 beb8 017d b238
00000030: 3e94 8139 4eb9 a2b7 e9aa df38 a8b8 bbb8
00000040: 667f b4b7 ebc3 c637 6100 0638 8029 7eb9
00000050: ecd0 0038 aceb 1d38 2510 9738 929a 1939
00000060: a05a 1339 8a41 6839 9300 42b8 b740 92b8
00000070: 13a9 a1b7 4314 d5b8 319e c138 e550 14b8
00000080: e246 3e37 a3bb b636 e5cf 7eb8 85fe 20b9
00000090: 14dd bf37 02fa 5c38 985c 8db8 631f eab8
000000a0: fc26 1138 767e 0f38 ab00 6338 f14e d738
000000b0: 5fa4 7437 eaaf f838 9a1d 0639 47a0 0637
000000c0: 7e79 c738 cbc1 2539 88de 1db8 5f04 a5b8
000000d0: 9d46 e4b8 32f3 39b8 2474 36b8 481e be3a
000000e0: a707 e23b 423a 4eb8 1f80 a63b 2cd3 3cb8
000000f0: 3c28 f738 d2b1 3339 1597 4bb8 630c 243b
00000100: 9ebd 33ba 9edf 1ebb 3c9b 68b8 59d6 f6b9
00000110: e896 283c 3036 7336 b6b0 7cb7 04e3 04bb
00000120: 4b4b c6b9 56f5 e8b9 f5af 51ba 3fab f738
00000130: 339d 8a3b 4378 4d38 a4ee 763a 8caf 083c
00000140: f928 e8b7 2138 893b d44a 59b9 3be9 be3b
00000150: bb14 75ba fe7f 10b9 b1e3 c037 9612 34b7
00000160: fead cf3b 2e3a bb3b 0f04 ac3b 074f 81b8
00000170: fdaa 9b3b 2b30 cf3a 67a1 1bb7 cae3 dc36
00000180: 90c3 51b8 bf86 73b9 f51a fd3b 4167 943b
00000190: 5c71 1938 e86c 1137 fe70 c438 241b 8638
000001a0: 3500 b136 a5fa d837 0a1d e2b7 a046 6e38
000001b0: b15f 50b7 6d28 09b7 f633 c0b6 40d2 87b7
000001c0: 52d4 39b8 dbe6 f236 ab64 c937 c3c8 21b8
000001d0: 58d9 bf37 5462 5538 d020 c7b7 eef7 a5b8
000001e0: 4343 b3b7 014c 4135 0da5 1838 e34b dd37
000001f0: 8f5a 64b8 d536 9a37 7647 d0b7 2952 9c37
00000200: f273 1538 5694 3838 4cf8 0e38 e99f 62b8
00000210: df4a 1db7 5d64 4fb8 d9b9 4e37 6160 cdb6
00000220: 9f08 ba38 d8aa b738 9618 0638 90bc 1438
00000230: db04 b538 435a 0b38 373e a037 a91d 6337
00000240: 66cf 60b8 cee1 b2b6 9af3 98b8 67dc 5c37
00000250: e1d7 4638 d031 3637 36f0 b838 2631 8938
00000260: 7fc7 58b8 3f03 e7b8 2863 b837 71f8 fbb9
00000270: 9bbb e43a 7885 f337 2632 e33c f216 b9b7
00000280: 2bc4 c1b7 e1f5 2d38 d55a 62b8 b286 0ebb
00000290: f39b 7138 17d7 75ba 7223 d838 3fab 6aba
000002a0: 7465 123b dc69 f5b7 cdc0 d237 a319 80ba
000002b0: 19bb 9eb9 0b26 f638 d1e2 70ba c9ed 1038
000002c0: 8bb8 faba cd1e 6a38 55af feb9 6cad 0a3b
000002d0: f321 b9b9 a1a1 8a3a 46f9 e6b8 7b1b 643b
000002e0: 1b9e 20bb 350f 11b7 7162 d536 3e36 bfb7
000002f0: 10bf 64ba 5664 863a a9ea 03ba 191b 8cb8
00000300: 6dad 8dba 9abc deba e67a 8eba 891e 2c37
00000310: 4726 86b8 00da b238 6c86 173b 8483 8e39
00000320: e605 b6b6 83ae 54b6 874f 80b5 13ed 28b5
00000330: 15a3 5eb6 0f49 0335 ca41 2cb6 39f6 e734
00000340: 0d92 8835 35cb cd36 ccb2 b836 6156 8c36
00000350: d7cf a236 efe3 38b5 c0f9 35b5 7cd0 6f36
00000360: 4f70 7e36 562c e734 9ca3 b336 c766 b7b6
00000370: 038c a436 1453 b135 9dba b934 7fe9 4036
00000380: a43a ad36 1c11 9434 87cc 8ab6 96ff c634
00000390: 48ac 68b5 4881 c0b6 3bc1 3635 2c93 bcb6
000003a0: 8911 21b6 dc39 eb35 2bcb c435 fa6b 37b6
000003b0: 1a4c f931 85bf c4b6 39c9 0936 0742 e0b3
000003c0: 05e8 b235 3b2b 45b5 017f b6b5 52dd 5d34
000003d0: d5da a135 a5f3 6736 9024 8636 cf54 e634
000003e0: 979e 1e36 be97 17b5 2f2e d3b6 0756 0fb6
000003f0: a843 48b6 83ae 1db6 1641 0836 41cf d938
5.2684696e-05 0.00014684699 3.7581365e-05 1.888623e-05 -0.00017072042 -3.5264446e-05 -3.329763e-05 5.8020854e-05
7.483625e-05 3.770647e-05 -9.084644e-05 8.510985e-05 0.00024715246 -1.9398194e-05 0.00010665303 -8.95125e-05
-2.1516997e-05 2.369467e-05 3.1948442e-05 -0.00024238788 3.071215e-05 3.7651203e-05 7.203248e-05 0.00014648799
0.00014052773 0.0002214966 -4.625374e-05 -6.9738766e-05 -1.9271427e-05 -0.000101604055 9.2324226e-05 -3.536129e-05
1.1341386e-05 5.4458665e-06 -6.0751936e-05 -0.00015353605 2.2871922e-05 5.2684925e-05 -6.740651e-05 -0.00011163836
3.4607e-05 3.4211633e-05 5.412164e-05 0.00010266703 1.4581804e-05 0.00011858328 0.00012790263 8.02434e-06
9.511689e-05 0.0001580782 -3.7638965e-05 -7.868627e-05 -0.0001088504 -4.433393e-05 -4.3500346e-05 0.0014504874
0.006897885 -4.9168484e-05 0.005081191 -4.5019362e-05 0.00011785372 0.00017137013 -4.8539678e-05 0.0025031797
-0.0006856563 -0.0024242173 -5.5457684e-05 -0.00047080478 0.010289885 3.6241363e-06 -1.5061514e-05 -0.0020276913
-0.000378216 -0.00044433278 -0.0007998937 0.00011809775 0.0042301654 4.898781e-05 0.00094197155 0.008342635
-2.7675635e-05 0.0041875993 -0.00020722608 0.005826143 -0.00093490974 -0.00013780591 2.299421e-05 -1.0733163e-05
0.00633788 0.0057137227 0.0052495073 -6.165919e-05 0.004750608 0.0015807202 -9.276299e-06 6.583029e-06
-5.0011615e-05 -0.00023224483 0.007724161 0.0045289104 3.6583617e-05 8.66803e-06 9.367055e-05 6.394673e-05
5.275035e-06 2.5865922e-05 -2.6954822e-05 5.6809396e-05 -1.2420046e-05 -8.175249e-06 -5.728095e-06 -1.619116e-05
-4.4305176e-05 7.239037e-06 2.4007944e-05 -3.8572365e-05 2.2870183e-05 5.0874733e-05 -2.3737928e-05 -7.9139936e-05
-2.1369784e-05 7.2008703e-07 3.639334e-05 2.638059e-05 -5.4443775e-05 1.8383764e-05 -2.4828809e-05 1.8634908e-05
3.563235e-05 4.4007167e-05 3.4086683e-05 -5.4031527e-05 -9.3753615e-06 -4.9446116e-05 1.2321828e-05 -6.120696e-06
8.870777e-05 8.757942e-05 3.1970987e-05 3.5461562e-05 8.631657e-05 3.3224245e-05 1.9102457e-05 1.353716e-05
-5.3598917e-05 -5.3311005e-06 -7.293299e-05 1.3164338e-05 4.740793e-05 1.0859643e-05 8.8185465e-05 6.541824e-05
-5.168421e-05 -0.00011015543 2.1980683e-05 -0.00048059554 0.001745093 2.9030009e-05 0.027733874 -2.2064403e-05
-2.309874e-05 4.1475407e-05 -5.3967193e-05 -0.0021747765 5.7604117e-05 -0.0009378059 0.00010306285 -0.0008951909
0.0022338303 -2.925557e-05 2.512373e-05 -0.0009773265 -0.00030275507 0.0001173728 -0.0009189072 3.455373e-05
-0.0019128484 5.5818633e-05 -0.00048577288 0.0021160496 -0.00035311244 0.0010576734 -0.000110136854 0.0034806419
-0.00245083 -8.646214e-06 6.3593548e-06 -2.2794233e-05 -0.00087259803 0.0010253291 -0.00050322205 -6.6807675e-05
-0.0010809131 -0.0016993464 -0.0010870367 1.0259108e-05 -6.3967476e-05 8.528307e-05 0.0023120893 0.00027182337
-5.4247093e-06 -3.169204e-06 -9.559889e-07 -6.2929865e-07 -3.3175504e-06 4.8907617e-07 -2.5668292e-06 4.3206254e-07
1.0175296e-06 6.1331325e-06 5.504442e-06 4.182381e-06 4.852172e-06 -6.887703e-07 -6.779119e-07 3.573513e-06
3.7914322e-06 4.3059362e-07 5.3536623e-06 -5.46579e-06 4.9038804e-06 1.3211707e-06 3.4594714e-07 2.8746142e-06
5.1626284e-06 2.7579597e-07 -4.1365306e-06 3.7066337e-07 -8.6677437e-07 -5.737096e-06 6.808147e-07 -5.6199697e-06
-2.4001076e-06 1.7525704e-06 1.4662268e-06 -2.7331976e-06 7.2555055e-09 -5.863551e-06 2.0531718e-06 -1.0442823e-07
1.332956e-06 -7.345113e-07 -1.359702e-06 2.0662745e-07 1.2059123e-06 3.4563502e-06 3.9977676e-06 4.2902545e-07
2.3636146e-06 -5.64727e-07 -6.2936665e-06 -2.1358735e-06 -2.9841704e-06 -2.3496402e-06 2.0303464e-06 0.000103859704
