all_manuscript_models/sim350/phoenix/_first_submission/noise_0.025_new/best_val_model_prods.pt (torch, 57895 bytes, 2 tensors)

weight f4 [40, 350]
00000000: 0e7c 94bc 63c4 75bc 0a18 7cbc d103 42bd
00000010: 8bd7 35bd 73fd 3cbd 012a 60bd afa1 163c
00000020: 4f88 523d 84fe 183d 395f 7dbc 290e 8bbb
00000030: 3296 c0bc 00aa d2bc 8ccb 1e3c ed5b febc
00000040: 2ddf 6a3c b47f 25bc 82e0 92bd 5241 f33c
00000050: 1f55 93bb 888a 35bb ff8b 54be 71c8 6cbc
00000060: ef7f 01bd 3fcd 96bd 56eb 22bd e307 9bbc
00000070: a6f7 543d 8a0d 12bd 822a 363d 297f 1abd
00000080: e92b 7a3c 3b4f 9dbc 0821 87bd 90c9 c03a
00000090: d0ab 103d 0674 f6bb 6a99 fabd 552e 87bc
000000a0: f991 cdbc f937 a6bd d4c0 be3c 4253 5dbd
000000b0: cf2f aabd f342 12bd ab73 3bbd 03f9 45bc
000000c0: 155c 00bc 20ef 40bd e603 eabc 8289 79bd
000000d0: 7fab 7ebd 1408 0ebd 8d12 ed3b 0c1d 263b
000000e0: e8b6 f03c 694c dcbc 5c04 ccbb 25f3 12bd
000000f0: 6d78 27bd 8e77 93bc 5fad 853b 01f7 dbbd
00000100: 73bf cd3c 7758 8fbd c9eb 8dbd 44a1 1fbc
00000110: 49a9 833d ef56 babb dabb 313d 8ea8 003c
00000120: d841 f23b 01f4 5a3c 8e3d 18bb cb0f c53b
00000130: da7c c53b b52d bfbc 1100 a1bb 3eac 81bd
00000140: 676a 593c 8312 edbc 49ed 28bd 4c29 c0bd
00000150: 512f 0abd f90a 27bc 63f3 24bc d29d 5cbc
00000160: c416 fd3c 11a9 4cbd c28c 2fbc 2fd2 4ebd
00000170: a3c6 bdbc 2186 5abd cb7a 0dbd ee2c 8b3c
00000180: fe02 8bbd 2dd9 66bc 327f ccbc bdb7 e53a
00000190: 3472 61bc 79c4 2cbc 77bc 45bc a887 9cba
000001a0: ef76 51bc 32b3 89bc 6b96 67bc f595 8dbc
000001b0: 127a 163b 81bc a3bc 97e0 49bb 74e6 85bb
000001c0: 53d7 dabb 5754 27bc ea16 87bb 88c4 babc
000001d0: 0139 fcbc 3bd9 f2bb bc6a b4bc a35a c3bc
000001e0: 8a54 0ebc 27f8 ebbb 669f fabb 0e1c 9abc
000001f0: 4b81 abbc db5d 47bc de84 4bbc da3e bfbc
00000200: aa01 ebbb 3ed7 aabc 09bd 15bb 7509 d0bb
00000210: 6748 4bbc f55d 14bc 554c e0bc b8ac 56bc
00000220: 2897 90bc db3e 76bc 0353 debc 68c7 d1bb
00000230: 45e8 5ebc 6866 53bc 898c 53bb bd71 aabc
00000240: 23f0 a5bc 4a74 9ebc eae4 acbc 773d 30bc
00000250: caee 2ebc 3d9a d2bb 20ce 28bc 630b 7cbc
00000260: 12b1 9ebb 8e32 8bbc 6541 25bc 1397 803a
00000270: 7f1d 76bc 7898 4fbb 1ebd a8bc e0a4 9dbc
00000280: 7d6b a0bc f9e9 22ba 9f96 b8bc 3c13 72bc
00000290: e646 9cbb 1c4e 8fbc 93b6 57bc 865a f0bb
000002a0: 48f1 9ebc 8c4c 01bc b7ff b6ba 28cc 87bc
000002b0: d141 89bc ec5b 38bc 96fe 4bbc b21b 30bc
000002c0: cbd5 36bc fbb6 8aba 8c63 49bc 9090 d3bb
000002d0: 7290 6dbc 0754 5fbb 8707 2fbc 444d 9cbc
000002e0: 2775 99bc 89d7 14bc d136 02bc cb20 12bc
000002f0: c253 c8bc 8114 3dbc 03f9 e43b cb08 9dbc
00000300: 408e a4bc 08e2 8cbc 0017 61bc b515 d1bc
00000310: bc4b adbc 07d2 32bc 28eb 1fbb 0c2c 43bc
00000320: 06a2 46bc a612 d0bc 22b0 62bc 10cd adbc
00000330: 280f cdbc fc6e b7bc f251 96bc b774 cfbc
00000340: 1f37 32bc dd71 9abc d716 82bc 8618 83bc
00000350: 2b0a a5bc f34b 0fbd 2873 e1bb 185b 01bc
00000360: 5b4c 7abb 090c dbbc 392c eabc b311 d0bc
00000370: 2b02 bbbc 6c69 aebc e990 bdbc 9508 bfbc
00000380: 8fc4 9bbc aaa3 b0bc aa19 eebc ec4e 93bc
00000390: 961c a1bc 06ec 14bc 2fb9 70bc f018 2fbc
000003a0: bb7a a3bc c8e8 69bc 059f e0bb c5e3 89bc
000003b0: c478 b9bc 9927 1abc 67e9 41bc a2e9 92bc
000003c0: 0d01 32bd 95f9 3fbc 824f 83bc eac7 7dbc
000003d0: 2cc7 bcbc aa0a c7bc f9a3 5fbc 4b9b 70bc
000003e0: 8798 82bc 1d21 17bc 0e5f 81bc 924e e0bc
000003f0: bb39 bdbc c21f b2bc a056 e739 5516 85bc
-0.01812556 -0.0150004355 -0.015386591 -0.04736692 -0.04439501 -0.046140146 -0.054727558 0.009193822
0.051399525 0.0373521 -0.015464597 -0.0042436314 -0.023509119 -0.025715828 0.009692084 -0.031049693
0.014335436 -0.010101248 -0.07171728 0.029694233 -0.004496231 -0.002770098 -0.2075653 -0.014452086
-0.031616148 -0.07363366 -0.039775215 -0.01892466 0.05199399 -0.035657443 0.044474132 -0.037718926
0.015269258 -0.01920282 -0.06598097 0.0014708508 0.035320103 -0.0075211553 -0.12236293 -0.016501585
-0.02509402 -0.08116145 0.023285307 -0.05403448 -0.083099 -0.03570838 -0.045764606 -0.012083295
-0.007834454 -0.047103047 -0.028566312 -0.060922153 -0.06217527 -0.034675673 0.0072348774 0.0025346903
0.029384091 -0.026891904 -0.0062261056 -0.035876412 -0.04088633 -0.018001344 0.0040795053 -0.10740472
0.025115704 -0.06999295 -0.06929738 -0.009743039 0.06428773 -0.005686633 0.04339204 0.007852687
0.007393103 0.013363839 -0.0023230049 0.0060138456 0.0060268464 -0.023337224 -0.004913338 -0.06331681
0.013269997 -0.028939491 -0.041241918 -0.09382877 -0.03373653 -0.010195487 -0.010067794 -0.013465362
0.030894645 -0.04996592 -0.010714712 -0.050493415 -0.023166006 -0.05335057 -0.034540933 0.016989198
-0.0678768 -0.014089865 -0.024962995 0.0017526072 -0.013760138 -0.01054489 -0.012068859 -0.0011942284
-0.012784704 -0.01680908 -0.0141349835 -0.01728342 0.0022960943 -0.019987347 -0.0030804032 -0.00408631
-0.0066785007 -0.010212979 -0.0041226046 -0.022798792 -0.0307889 -0.00741115 -0.022023551 -0.02384693
-0.008687148 -0.007201213 -0.0076483963 -0.018812206 -0.020935675 -0.012168373 -0.012421815 -0.0233454
-0.007171829 -0.020854589 -0.002284827 -0.0063487836 -0.012407399 -0.009055604 -0.027380148 -0.013102703
-0.017650202 -0.015029634 -0.027139192 -0.006401945 -0.013605182 -0.0129028335 -0.003227981 -0.020806188
-0.020256108 -0.01934256 -0.021105248 -0.010756842 -0.010677049 -0.006427078 -0.01030305 -0.015383574
-0.004842886 -0.01699188 -0.010086392 0.0009810649 -0.015021681 -0.0031676572 -0.02059799 -0.019243658
-0.019582504 -0.0006214674 -0.02253276 -0.014775094 -0.004769194 -0.0174933 -0.013166088 -0.00733501
-0.019402161 -0.007891785 -0.0013961707 -0.016576841 -0.016755017 -0.011252385 -0.012450835 -0.010748791
-0.011159371 -0.0010583097 -0.0122918 -0.006456442 -0.0144997705 -0.0034077184 -0.010682947 -0.019079812
-0.01873262 -0.009084591 -0.00794764 -0.008918951 -0.024454001 -0.011540533 0.0069876923 -0.019169232
-0.020087361 -0.017197624 -0.013738394 -0.025523046 -0.021154277 -0.010914332 -0.0024401639 -0.011912357
-0.01212359 -0.025399517 -0.013835939 -0.021215945 -0.025031641 -0.022391789 -0.018349621 -0.025324209
-0.0108774 -0.018853122 -0.015880032 -0.016002905 -0.02014645 -0.03498454 -0.006880183 -0.007895254
-0.0038192484 -0.026739137 -0.02858554 -0.025399065 -0.022828182 -0.021290503 -0.023140388 -0.023319522
-0.019014625 -0.021562416 -0.029064972 -0.017981969 -0.019666951 -0.0090894755 -0.014692589 -0.010687098
-0.019955983 -0.014276691 -0.006854894 -0.016832242 -0.022640593 -0.009408855 -0.011835433 -0.01793367
-0.043458033 -0.01171722 -0.016029123 -0.015489558 -0.023044191 -0.024297077 -0.013649934 -0.014685462
-0.015941871 -0.009224203 -0.015792396 -0.027381215 -0.023098817 -0.021743659 0.00044124294 -0.016246

bias f4 [40]
00000000: e046 9dbd f5a6 093b b663 d3bd 4349 ccbd
00000010: 9663 443d 6e94 2bbd ada7 dfbb c1b1 54bd
00000020: 5c46 f3bc 20d8 02be ad8f 99bd b3b3 03bc
00000030: c907 19bc 2c59 6a3d 278b 103d 3f13 aabd
00000040: 5e5a b7bc eac8 2e3c 3aef 0bbd fe87 b13c
00000050: 93c3 533c 538e 06bd 3017 0cbd a3b7 27bd
00000060: 6f57 03bd de1a 6abd f248 f6bd 98d2 e9bd
00000070: 415d 91bd 4b33 bdbc 9f0c 0d3d 8f55 29bb
00000080: c522 033d d08a 27bd 8489 1a3e 6530 21bc
00000090: 2571 61bc 9d3a 89bd 3e81 b2bd 14dc 8c3d
-0.07679534 0.0021004055 -0.10321753 -0.09974911 0.047946535 -0.0418896 -0.0068254084 -0.05192733
-0.029696636 -0.12777758 -0.07498107 -0.008038449 -0.009340235 0.057213947 0.035288956 -0.08304452
-0.022381958 0.010668019 -0.03416369 0.021671291 0.0129250465 -0.032850575 -0.0342018 -0.040946614
-0.032065805 -0.05715453 -0.12025632 -0.11417121 -0.07097865 -0.023095747 0.034435865 -0.002583835
0.03201558 -0.040903866 0.1509152 -0.009838198 -0.013759886 -0.06700633 -0.08716057 0.06877914
