all_manuscript_models/sim350/phoenix_noprior/noise_0.4/best_val_model_alpha_comb.pt (torch, 113451 bytes, 1 tensors)

weight f4 [350, 80]
-0.0045799855 0.03418386 0.001347719 -0.0074616773 0.033144068 -0.0028464198 -0.011293486 -0.0018525162
0.04330898 -0.02437061 -0.00042520178 -0.01964679 -0.030698469 -0.010984348 -0.013571204 -0.0035732803
0.016889395 -0.006897909 0.06029762 -0.01824402 -0.0010275147 -0.010834422 0.0017306624 0.012265582
-0.036207024 0.005600279 -0.0126067875 0.010218197 -0.019415973 0.0052066767 0.01870461 -0.0015106631
0.023531836 -0.008267442 0.00405694 0.00077038596 0.013871581 -0.027589893 -0.045492608 0.035973605
0.013714555 0.009924165 0.0101478305 0.009104576 0.012275737 0.01584919 0.015204254 0.018938042
0.011933611 0.013260181 0.005735872 0.005498959 0.0101576075 -0.06732531 0.009197419 0.0066503654
0.016336365 0.016258217 0.010767339 0.016131245 0.019326927 0.008682977 0.013782859 0.015705295
0.010546827 0.0073845387 0.0140443295 0.013239825 0.019606648 0.011930229 0.017206969 0.0147090545
0.011724948 0.009120081 0.015888903 0.0119307535 0.004921033 0.014131434 0.014510427 0.0090462575
-0.0066690985 0.037671182 0.008734855 -0.028575733 0.0029803023 0.011919982 0.06630131 -0.014452696
-0.011304337 0.021474073 0.019788915 -0.034794692 -0.019362474 -0.0038329551 0.009180806 -0.010930576
-0.00096017745 -0.03928947 -0.043795094 0.0127895195 -0.011724794 -0.020427225 0.023011215 0.009581152
0.015028317 0.011360807 -0.019618077 0.03478505 -0.007735088 0.018020937 0.006955728 -0.0004324626
0.021666586 -0.021151634 -0.023811158 0.0011599209 -0.0023291828 0.00906926 -0.019920744 -0.03987426
0.014290498 0.014592021 0.018451873 0.013622409 0.012839673 0.010991354 0.014137234 0.016078297
0.018685473 0.014866412 0.014053171 0.008927515 0.015442835 0.013514963 0.01393841 0.0137029765
0.013749302 0.014566184 0.015192758 0.016462948 0.013660389 0.009832225 0.008663296 0.016994722
0.012198034 0.007069557 0.017006606 0.0100339735 0.020164255 0.015213765 0.021148352 0.012879472
-0.14012593 0.017704468 0.0155547615 0.013164405 0.015222598 0.015836334 0.0116991745 0.010492626
0.006258558 -0.025908055 -0.0007264972 -0.02781731 -0.026965452 0.044321463 -0.0051250616 -0.024550766
-0.015149348 0.011779323 0.0032744708 0.0030312892 0.039747566 -0.03438523 -0.006776213 -0.011594085
0.0040605776 -0.07235312 0.062837854 0.003204582 0.014113144 -0.01305007 0.0145637365 0.0051200544
-0.02620942 0.018528473 -0.01244158 0.029455142 0.004415558 0.024723785 -0.010502264 0.022890616
-0.009664541 0.004019708 0.016027305 0.013201199 0.009018659 -0.013968941 -0.020852897 -0.010338248
0.0064334115 0.007420459 0.006254857 0.013908735 0.010169981 0.0108571015 0.012861805 0.009392204
0.015275654 0.017912569 0.011474417 0.0131286075 0.017715402 0.0028219686 0.0136421025 0.0045323675
0.014477488 0.0062337294 0.011002857 0.0076451693 0.014011701 0.015836755 0.009889588 0.007821555
0.020346906 0.0081650745 0.010889722 -0.10886366 0.0014094973 -0.017737301 0.009296712 0.013478259
0.0049537434 0.008768429 -0.0011387761 0.005373861 0.00814603 0.007056688 0.007309636 0.0019253806
0.06959589 0.025795076 -0.014879582 -0.03425686 0.011726827 -0.020519637 0.048446383 -0.015283686
0.022803284 0.049776413 0.017137675 0.025373805 -0.041386172 0.013356302 0.010835675 -0.018556535
00000000: b413 96bb 6004 0c3d f2a5 b03a 1681 f4bb
00000010: 13c2 073d 008b 3abb 5008 39bc 21d0 f2ba
00000020: c264 313d e0a4 c7bc 9eed deb9 4ef2 a0bc
00000030: 5b7b fbbc b2f7 33bc c159 5ebc b22d 6abb
00000040: a15b 8a3c db07 e2bb a3fa 763d 7c74 95bc
00000050: acad 86ba dc82 31bc 65d7 e23a 94f5 483c
00000060: d14d 14bd 8c82 b73b b38c 4ebc 396a 273c
00000070: 3f0e 9fbc c59c aa3b 693a 993c 7101 c6ba
00000080: d6c5 c03c 2a74 07bc 14f0 843b baf3 493a
00000090: a145 633c 3304 e2bc 7556 3abd 0f59 133d
000000a0: 03b3 603c f798 223c 1643 263c 5c2b 153c
000000b0: 2c20 493c 29d6 813c 431b 793c f423 9b3c
000000c0: 3185 433c 3b41 593c fbf3 bb3b 9d30 b43b
000000d0: 186c 263c dae1 89bd c5b0 163c 4feb d93b
000000e0: d7d3 853c f42f 853c 7e69 303c ac25 843c
000000f0: 8153 9e3c 0c43 0e3c 80d1 613c 64a8 803c
00000100: 99cc 2c3c 00fa f13b 301a 663c daeb 583c
00000110: 1f9e a03c 0277 433c a1f5 8c3c 3ffe 703c
00000120: ff19 403c 646c 153c 7229 823c 3579 433c
00000130: 9e40 a13b 8887 673c 24bd 6d3c c136 143c
00000140: 7488 dabb 194d 1a3d a31c 0f3c a817 eabc
00000150: 2d51 433b 074c 433c fbc8 873d 00cb 6cbc
00000160: d335 39bc 65ea af3c 5d1c a23c e184 0ebd
00000170: 0d9e 9ebc 5132 7bbb 176b 163c 2916 33bc
00000180: 6bb4 7bba ffed 20bd 7c62 33bd 228b 513c
00000190: 5a19 40bc ff56 a7bc 0482 bc3c 44fa 1c3c
000001a0: 5539 763c ae22 3a3c 17b6 a0bc c57a 0e3d
000001b0: 9f76 fdbb a5a0 933c e0ec e33b 26bc e2b9
000001c0: 207e b13c 3146 adbc 9e0f c3bc 7d08 983a
000001d0: 34a5 18bb 3c97 143c d430 a3bc 3153 23bd
000001e0: b122 6a3c 5f13 6f3c 6228 973c 8630 5f3c
000001f0: 7e5d 523c 1415 343c db9f 673c a2b6 833c
00000200: 4712 993c 4092 733c 453f 663c b644 123c
00000210: f203 7d3c dd6d 5d3c ee5d 643c 7382 603c
00000220: c144 613c 01a7 6e3c 0ceb 783c 4edd 863c
00000230: d3cf 5f3c 5717 213c 7ff0 0d3c 8438 8b3c
00000240: 43da 473c bea7 e73b 7051 8b3c 8965 243c
00000250: 822f a53c 2843 793c 4f3f ad3c 6c04 533c
00000260: 2c7d 0fbe f608 913c 66d9 7e3c 84af 573c
00000270: 3468 793c 33bb 813c e5ad 3f3c 43e9 2b3c
00000280: 9714 cd3b 213d d4bc 6772 3eba 21e1 e3bc
00000290: a7e6 dcbc 6c8a 353d 22f0 a7bb b01e c9bc
000002a0: f934 78bc 10fe 403c 8198 563b 98a8 463b
000002b0: 58ce 223d 87d7 0cbd ff0a debb 1ef5 3dbc
000002c0: 980e 853b df2d 94bd 22b1 803d f703 523b
000002d0: d13a 673c f6cf 55bc bd9c 6e3c 21c6 a73b
000002e0: 23b5 d6bc 06c9 973c c5d7 4bbc e94b f13c
000002f0: 63b0 903b 8989 ca3c b011 2cbc 1a85 bb3c
00000300: 0658 1ebc c1b7 833b b24b 833c d749 583c
00000310: ffc2 133c fcdd 64bc b2d3 aabc c161 29bc
00000320: 5ecf d23b 5227 f33b 8bf5 cc3b 76e1 633c
00000330: fe9f 263c fce1 313c 52ba 523c c2e1 193c
00000340: bd46 7a3c 61bd 923c 31ff 3b3c 5f19 573c
00000350: e41f 913c c7f0 383b 2083 5f3c 4184 943b
00000360: fc32 6d3c 5044 cc3b 5445 343c 5484 fa3b
00000370: 5591 653c 15bc 813c f007 223c fb25 003c
00000380: 8eae a63c cec6 053c ce6a 323c e9f3 debd
00000390: e2be b83a d14d 91bc 3d51 183c ead3 5c3c
000003a0: 0353 a23b 75a9 0f3c fc42 95ba 3717 b03b
000003b0: ed76 053c ca3b e73b ac85 ef3b 0d5d fc3a
000003c0: 4a88 8e3d 3250 d33c 7ec9 73bc ec50 0cbd
000003d0: e121 403c cc18 a8bc b76f 463d 6d68 7abc
000003e0: f4cd ba3c 5ae2 4b3d 4f64 8c3c badc cf3c
000003f0: 8c84 29bd 64d4 5a3c 1d88 313c e003 98bc
