all_manuscript_models/sim690/phoenix/noise_0.5/best_val_model_sums.pt (torch, 140007 bytes, 2 tensors)

weight f4 [50, 690]
000000 51 1e 7e bc 4d 41 c4 3d 70 6e bc bc 5b 67 9b ba
       -0.015510158 0.09582768 -0.02300188 -0.0011856364
000010 fc 22 87 bc 77 e6 b7 3c 53 ce 9a bd 50 04 e4 bb
       -0.016496174 0.022448761 -0.075588845 -0.006958522
000020 71 e6 9b 3d 78 d9 94 3c fc b9 cb 3c cd 9e 36 3d
       0.076123126 0.018170103 0.024868958 0.044585038
000030 50 38 bd bb 15 17 0a 3d 27 da ad bd b2 de 45 bd
       -0.0057745352 0.03371342 -0.08488875 -0.048308082
000040 fa cf b0 3d b3 1e 2e 3b 90 63 2d bb 67 e7 d0 bc
       0.086334184 0.002656859 -0.002645705 -0.025500966
000050 0c b2 c8 bc 45 1e da bc 7b 00 3d bd 8a ba f1 b9
       -0.024498962 -0.026625762 -0.046143036 -0.00046106084
000060 41 d8 d3 3c 78 35 ba 3c b7 19 56 bd 97 a5 a6 bc
       0.025859954 0.022730574 -0.052270617 -0.020342631
000070 63 0b 69 3d 61 6a b7 3d 9c 4f 28 3c 05 c0 d9 bb
       0.056895625 0.08955837 0.010272887 -0.006645205
000080 7a af 1d bb 72 28 4a bd 27 6c ef 3b 69 6e 4e bc
       -0.002406089 -0.049354978 0.007306594 -0.012599566
000090 d4 9c e0 3c 2d 22 20 3c 68 59 bc 3d 68 00 be bb
       0.027418531 0.009773773 0.091967404 -0.0057983883
0000a0 ec 15 1e bd 02 ee 4e 3d 67 de 93 bd 30 8c 4c bd
       -0.038595125 0.05051995 -0.07220154 -0.04993838
0000b0 fd b2 f6 3c 2c 56 cc 3c 10 db 76 bd d3 8f 2f 3b
       0.030114645 0.024943434 -0.060267508 0.0026788607
0000c0 76 f6 9b 3d 76 4d 94 3b 92 56 f5 3c 74 dd 83 3d
       0.07615368 0.0045258356 0.029948507 0.06438723
0000d0 f2 f9 08 3d 8d e0 f4 3b 42 7e 86 bd 0c f6 ac 3c
       0.03344149 0.0074730576 -0.065670505 0.021113418
0000e0 41 e3 18 bb 30 e5 5e 3d 45 fd ac 3b 73 2d 88 3d
       -0.0023328813 0.05441779 0.0052792155 0.06649294
0000f0 5b 0a c0 3d ea 99 68 3d db f3 15 3d 1c 01 82 3b
       0.09376975 0.05678741 0.03660951 0.0039674174
000100 39 3f 48 bd d5 6d fe 3d 4a dc 42 bc f4 f2 0b bd
       -0.04888842 0.124232925 -0.011893341 -0.034167245
000110 13 7a 9c 3d 9f 74 39 3d 41 c6 09 bd 8d bf 01 be
       0.07640471 0.045277234 -0.033636335 -0.12670727
000120 d5 9b 8b bc fd e4 9c 3d 68 15 2a bd 3c 18 f5 ba
       -0.01704208 0.076608635 -0.04152432 -0.0018699239
000130 cd a3 cd bd 80 47 8f 3c 95 50 7a bc 70 6f 12 bd
       -0.10041008 0.017490149 -0.015278001 -0.035750806
000140 2b 0f a9 ba d3 b0 00 bd 1f 13 55 3c 2f c9 cd 3c
       -0.0012898197 -0.031418633 0.013005047 0.025120346
000150 e2 e2 4b 3c 06 41 1c bc 0a cf ba bd da a5 84 bd
       0.01244423 -0.009536987 -0.09121521 -0.06476946
000160 67 f7 23 bc 05 11 16 3c c2 e4 e3 3c 23 5d 73 bb
       -0.010007716 0.009159331 0.027819041 -0.0037134371
000170 95 d0 83 bb a4 8b 6a 3d 71 38 98 bc f5 14 71 3c
       -0.0040226677 0.057262078 -0.0185816 0.014714469
000180 1e 43 f6 3b 0f c6 16 bc cb 19 f3 bb d6 41 54 3c
       0.007515325 -0.009202494 -0.0074188462 0.01295515
000190 9c b3 2a bc 9b e3 6b 3b d9 1d d9 3d aa 4b 76 3b
       -0.010418799 0.0035993818 0.10601396 0.003758172
0001a0 11 00 aa 3d e5 d0 83 3d d8 49 96 bc 83 5b 3b 3d
       0.08300794 0.06436328 -0.018345758 0.04574157
0001b0 e8 37 2f 3d 27 8f 04 bc 2d 45 3a 3c 81 43 c6 bc
       0.042777926 -0.008090771 0.011369032 -0.02420211
0001c0 a6 57 50 bd 9f 5b 29 3d 68 99 4c bb 55 b0 23 bd
       -0.050864838 0.041347142 -0.0031219367 -0.039963085
0001d0 90 4a aa 3c a3 8a 28 3d 55 2c 10 3d 59 51 a9 3a
       0.020787507 0.04114784 0.03519853 0.001291792
0001e0 ce 6c 0a bb ec d3 d2 3b 40 97 8d bc e2 c3 ef 3d
       -0.0021121982 0.0064339545 -0.017284036 0.117072836
0001f0 d4 c5 29 bc 33 2a 8c 3d d3 e3 1a 3d a7 38 4c bb
       -0.010362107 0.06843986 0.037814926 -0.0031161697
000200 d7 7b a3 bd bc 28 7c ba 74 6a 00 3c 2b 1e a7 bc
       -0.07982605 -0.0009619107 0.00783788 -0.020400127
000210 ba 21 98 3c ba 91 a0 3d 72 5f b7 bc ba a1 54 3c
       0.01857077 0.07840295 -0.022384379 0.012978012
000220 94 0c 0e bd 31 89 35 3c e1 96 61 3c f7 21 29 bd
       -0.034679964 0.011080072 0.0137688825 -0.041292157
000230 d8 d1 4a 3d 7d 70 26 3d 60 24 b1 3d 23 6d f8 3c
       0.04951653 0.04063462 0.08649516 0.030325478
000240 e1 e7 45 3d 00 6a fc bb 8a 35 1d 3d 55 f4 13 bc
       0.04831684 -0.007703066 0.038381137 -0.009030421
000250 f6 5c 00 bc 84 61 52 3c 22 f7 12 3c e8 4f 98 ba
       -0.007834664 0.012840632 0.008970054 -0.0011620494
000260 e9 cb 24 bd 4f b9 b2 bc 38 fd 56 bc ae b4 ca bc
       -0.040233526 -0.021816878 -0.0131218955 -0.024744358
000270 aa 34 a8 3c ae b5 2e 3b a6 3f a0 3d 6d 8d b0 bc
       0.020532925 0.0026658583 0.0782464 -0.021551812
000280 ed 25 90 3c a2 7b 3a 3d 85 21 43 3c a5 6f eb bb
       0.01759621 0.04552806 0.011909847 -0.00718494
000290 33 04 86 3d a2 a4 0b be 0c 7c 8e bd 91 ee 4e 3c
       0.0654377 -0.13637021 -0.06957254 0.012630121
0002a0 68 8b b4 bc e9 6c 22 bd 55 f5 b2 bb 31 4a c7 3c
       -0.02203913 -0.039654646 -0.0054613748 0.02432737
0002b0 f3 91 97 3c 80 b5 c4 3c f4 84 40 3c 11 07 44 bc
       0.018502211 0.024012327 0.0117504485 -0.011964575
0002c0 9d 4c 70 3c 3e ec 5f 3c f6 bb 33 bd 78 be c5 3d
       0.0146667035 0.013667164 -0.043880425 0.0965547
0002d0 44 22 9b 3d 91 db 4b b9 e4 fe 8c 3d bf 57 84 3c
       0.07574895 -0.00019441383 0.06884554 0.016155122
0002e0 f1 7e db 3c 2a 01 c4 3d c0 97 26 bd 80 d0 a9 3c
       0.026793929 0.095705345 -0.040672064 0.020729303
0002f0 7e 63 10 bd 2a b9 82 bc 77 16 ae bb 30 5e 93 bc
       -0.035251133 -0.015957434 -0.0053127366 -0.017989248
000300 77 cf d3 bc 6a 6d e1 3c f9 11 f0 3c 25 f4 40 bc
       -0.025855763 0.027517993 0.029305445 -0.011776959
000310 1d 91 53 3c b6 ff 89 3d a2 29 31 bd aa 35 09 bd
       0.012913016 0.06738226 -0.043252595 -0.033498444
000320 f9 5b fd bc fb a8 43 bc 82 14 2b 3c 46 6f 4d 3c
       -0.030927645 -0.011942144 0.010441901 0.012538737
000330 22 d8 84 bc a5 90 4f 3d a0 23 45 3c 46 aa 56 bc
       -0.016216341 0.050675053 0.012032419 -0.01310212
000340 78 e5 9e bb f2 ce cb 3a b9 00 eb bc c9 4b 22 3d
       -0.004849132 0.0015549345 -0.028686868 0.039623056
000350 19 5d 20 bc 12 b4 ae bc 5c 7c 90 bb ed d6 b4 3c
       -0.009787821 -0.021326099 -0.004409356 0.02207514
000360 6a 9a 0c bc f7 67 09 bd e0 98 ea 3c 2e 48 52 bd
       -0.008581737 -0.033546414 0.02863735 -0.051338367
000370 bf 70 02 3c c3 14 a4 3d 75 ef b1 3c 83 7d a7 3a
       0.007961451 0.080117725 0.021720627 0.0012778494
000380 5d 5f 18 3c 47 a6 00 3c 5d 46 21 3c 83 c8 d6 bb
       0.00930008 0.007852144 0.009843436 -0.0065546646
000390 38 f5 78 3d 84 cd b0 3d 9a ea 21 3c ac 9b 7a ba
       0.060780734 0.08632949 0.0098825935 -0.000955994
0003a0 24 d9 c3 bc 62 2e d5 bc ce f8 7a 3c f8 dc a7 3c
       -0.023907252 -0.026023094 0.015318109 0.020491108
0003b0 c3 40 fa 3c 8e a5 d8 3b ba b4 89 bd c3 33 f8 bc
       0.030548459 0.0066115325 -0.06723924 -0.03029812
0003c0 56 f4 1e bd 41 46 e2 3b 7c a5 9b 3c 47 a4 a0 3c
       -0.038807236 0.0069053476 0.018999808 0.019609584
0003d0 dd 55 43 3d 7e 6b a5 ba cc 1d 84 bc 1a c0 aa 3c
       0.047689307 -0.0012620536 -0.01612749 0.020843554
0003e0 aa db f5 3b ff 20 88 3c 87 ed 41 bc 1d 02 b3 3c
       0.0075029926 0.016617296 -0.011836416 0.021851594
0003f0 f1 b0 d6 bb f7 2a ee bb 45 28 59 3d 45 ba 2d 3d
       -0.006551855 -0.0072683054 0.05301692 0.04241397

bias f4 [50]
000000 a1 89 24 3d ea 6c 18 bd 28 80 d3 3b 3a 3c 03 bd
       0.040170316 -0.037213244 0.0064544864 -0.03203986
000010 1c 2a a1 bc b2 01 89 bc bc 45 ee bc b5 21 cd 3c
       -0.0196734 -0.016724441 -0.029085986 0.025040487
000020 81 5e e4 bb d0 31 f9 bc 5b 76 19 3d 52 5a 08 3d
       -0.0069692736 -0.03041926 0.03746639 0.03328926
000030 15 ad c4 bc e3 5e d8 bc 18 4e 06 bc c7 1a 8d 3c
       -0.024008313 -0.026412433 -0.00819733 0.017224682
000040 15 71 26 bc 05 9d 87 bc 9a 18 46 3c 8a 4e b9 bc
       -0.010158797 -0.016554365 0.012090826 -0.022620458
000050 37 58 a4 bc 76 86 00 bd ac d2 2c bc 43 92 93 bc
       -0.020061595 -0.031378232 -0.010548275 -0.018014079
000060 28 0b 0e 3d 01 62 02 3d 2c 77 09 bd 30 3a 5d 3c
       0.03467861 0.031831745 -0.033560917 0.0135026425
000070 b0 f8 ab 3c cf 4e 4f 3b c1 6f b8 bc d6 37 b9 b9
       0.020992607 0.0031632667 -0.022514226 -0.0003532755
000080 0b 52 bb bc 9b 9f 5a bc ea 44 06 bc 76 00 42 3b
       -0.02286627 -0.013343717 -0.008195141 0.0029602326
000090 b4 22 00 bd 2a 54 dc bb 1f c4 6b bc 75 43 1d 3c
       -0.031283095 -0.0067239003 -0.014390021 0.009598603
0000a0 f0 da 05 bd 03 05 ae 3c 83 7d 24 3a d2 54 fb 3c
       -0.0326795 0.021242624 0.0006274806 0.030680094
0000b0 13 d2 69 bb 84 f6 16 bd 59 24 19 bd 82 46 67 bc
       -0.0035678193 -0.03685619 -0.03738818 -0.0141159315
0000c0 2c af ee 3b 9e b8 d8 3b
       0.0072840657 0.006613805
