all_manuscript_models/sim690/phoenix/noise_0.5/best_val_model_prods.pt (torch, 140007 bytes, 2 tensors)

weight f4 [50, 690]
0	0x3d13f248	0.03611973
1	0xbd02f135	-0.031968314
2	0xbca3cab2	-0.019994114
3	0x3d1cbd3c	0.038266405
4	0x3cfa3057	0.030540628
5	0xbb6acd76	-0.003582803
6	0x3d1c130f	0.038104113
7	0xbd0ed645	-0.034872312
8	0xbc7b5ef9	-0.015342467
9	0x3dde9a26	0.10869245
10	0x3b84ea2e	0.0040562367
11	0xbd57fae1	-0.05272949
12	0xbc43ffe4	-0.011962865
13	0x3c6a4354	0.014298279
14	0xbd67ce6c	-0.056593344
15	0xbb8333d5	-0.0040039816
16	0x3d91a72e	0.07111965
17	0xbd217f1d	-0.039427865
18	0xbb87d2b1	-0.0041449894
19	0xbd78e603	-0.06076623
20	0x3c4267dc	0.011865582
21	0x3d0a4a67	0.03376236
22	0x3ca77b6d	0.020444596
23	0xbc0e64fc	-0.008691069
24	0xbc90e24b	-0.01768603
25	0xbce28dc2	-0.027655486
26	0xbc85fd3b	-0.016356101
27	0x3cb6af77	0.022300465
28	0x3c7b64fe	0.015343903
29	0xbb88bd95	-0.0041729906
30	0x3c5fd2b3	0.013661074
31	0x3dcb2210	0.09918606
32	0xbbfee726	-0.00777902
33	0xbd912853	-0.07087769
34	0xbdfa864a	-0.12232645
35	0xbc509f7c	-0.012733337
36	0x3c94dece	0.018172648
37	0x3cd615bf	0.026133416
38	0xbd0e51ca	-0.03474597
39	0x3c4ebed4	0.012618739
40	0xbd6f8f3e	-0.058486216
41	0x3bfb0f2e	0.0076617217
42	0xbc7ff969	-0.015623429
43	0xbc6b2d53	-0.014354068
44	0x3969186d	0.00022229711
45	0x3c277576	0.010220876
46	0xbd5572b1	-0.05211133
47	0xbd2b43f6	-0.04181286
48	0x3c07aa85	0.008280401
49	0x3d4cae65	0.049971003
50	0x3d5a9479	0.05336425
51	0xbc6e97ac	-0.014562529
52	0x3ba9223d	0.005161552
53	0x3bddd77d	0.006770073
54	0xbcfe4fa5	-0.031043837
55	0xbbfb5407	-0.007669929
56	0x3d312675	0.043249566
57	0x3d044e02	0.032300957
58	0x3d450773	0.048102807
59	0xbb483da8	-0.0030554328
60	0x3ba28afe	0.004960417
61	0x3a8763dc	0.0010329443
62	0xbc9d08a3	-0.019169157
63	0x3d6fe25e	0.05856549
64	0xbc9ab906	-0.018887054
65	0x3d32fadb	0.043696266
66	0xbc1f8502	-0.009736301
67	0x3c03bf2c	0.008041184
68	0x3d41fe85	0.04736187
69	0x3bf1c375	0.0073780366
70	0x3d916d0d	0.07100878
71	0xbca26343	-0.019822722
72	0xbb95c02e	-0.0045700287
73	0x3b0a1f59	0.0021075814
74	0x3c8c9cb3	0.017164564
75	0x3d489a21	0.048975114
76	0xbc6e1df5	-0.0145335095
77	0x3c93272a	0.01796301
78	0x3cd1c60d	0.025607133
79	0x3d70ecef	0.058819707
80	0xbd64b942	-0.055840738
81	0xbcaed237	-0.021340473
82	0x3b45d7ab	0.0030188363
83	0xbbde5d72	-0.006786042
84	0x3d946944	0.0724664
85	0xbc955f2c	-0.018233858
86	0x3cab02f9	0.02087544
87	0xbd533042	-0.051559694
88	0xbd88e9d9	-0.06685228
89	0xbd00e2e9	-0.0314664
90	0xbd19741a	-0.03746424
91	0xbc6903b6	-0.014222076
92	0xbd787421	-0.060657624
93	0x3cd7f194	0.02636031
94	0xbd1168b2	-0.035500236
95	0xbd123417	-0.035694208
96	0x3d077ebf	0.03307986
97	0xbc1a3c83	-0.009413841
98	0xbc9107bd	-0.017703885
99	0x3d12e854	0.035866097
100	0x3a36bda7	0.00069710094
101	0x3d514bbc	0.051097617
102	0x3b47cad4	0.0030485885
103	0xbc807f56	-0.015685719
104	0xbd946c59	-0.07247228
105	0x3cd5625c	0.026047878
106	0x3ca6fc37	0.020383937
107	0x3cb42217	0.021988912
108	0x390ea4fc	0.00013603637
109	0x3d9f9fb6	0.07794134
110	0x3d1a6a81	0.037699226
111	0xbd27b235	-0.040941436
112	0x3b406ac7	0.002936052
113	0xbbd29ef9	-0.0064276424
114	0xbd3d7674	-0.046255544
115	0xb95b51cf	-0.00020915944
116	0xbc920773	-0.017825818
117	0x3d1b91ff	0.03798103
118	0xbd18264b	-0.037145894
119	0xbc94c977	-0.018162472
120	0x3cb1b73d	0.02169382
121	0xbd3c1ed1	-0.045927826
122	0x3b899411	0.004198559
123	0x3ab49a88	0.0013778964
124	0xbc8ea3c2	-0.01741207
125	0xbc51b340	-0.012799084
126	0x3b145088	0.0022631008
127	0x3d047252	0.032335587
128	0x3d3fda89	0.04683927
129	0xbd2f7d5f	-0.042844173
130	0xbd24223a	-0.040071703
131	0xbc9331de	-0.017968114
132	0xbc99d138	-0.018776521
133	0xbbe6d953	-0.00704495
134	0xbae45a76	-0.0017421979
135	0xbc351130	-0.011051461
136	0x3c3aecad	0.011408967
137	0xbbc96800	-0.006146431
138	0xbb99e402	-0.00469637
139	0xbb621bf9	-0.0034501536
140	0xbb8c394c	-0.0042792913
141	0x3ca1b9ee	0.019741978
142	0x3d43f85a	0.04784427
143	0xbcdc1ba3	-0.026868647
144	0xbceebe97	-0.029143615
145	0x3d23f94b	0.040032666
146	0x3c1a9b08	0.009436376
147	0x3af23228	0.0018478082
148	0xbcc30e03	-0.023810392
149	0x3b5f9ccf	0.0034120565
150	0xbcc945a6	-0.024569344
151	0xbc8164b7	-0.015795095
152	0xbc19fc05	-0.009398465
153	0xbceffbae	-0.029294815
154	0x3cc9eb65	0.024648378
155	0xbc78fc39	-0.015196853
156	0xbb5e789c	-0.00339464
157	0x3b400cfa	0.002930461
158	0xbd90ef61	-0.07076908
159	0x3b3ab861	0.0028491246
160	0xbc039ed5	-0.008033474
161	0x3d06d153	0.03291447
162	0x3d5ef925	0.05443682
163	0xbcea8bf0	-0.02863118
164	0xbb070c2a	-0.0020606616
165	0xbd5e33db	-0.054248672
166	0x3d137ccb	0.036007684
167	0x3bb6ca1d	0.005578293
168	0xbccbdef4	-0.024886586
169	0x3d28d307	0.041216876
170	0x3d1d0b42	0.038340814
171	0x3cf30ddf	0.0296697
172	0x3c8e61b2	0.01738057
173	0xbbf3732c	-0.007429501
174	0xbc9fe069	-0.019516187
175	0xbc39dbef	-0.01134394
176	0xbd0b6deb	-0.034040373
177	0x3bff3882	0.0077887187
178	0x3c8c6726	0.017139029
179	0x3ba340fe	0.004982113
180	0xbdffb47b	-0.12485596
181	0x3ce3e786	0.02782036
182	0xbcc985da	-0.024599958
183	0xbcfb4169	-0.030670838
184	0xbca9944e	-0.0207006
185	0xbc0baa4f	-0.008524491
186	0xbd064486	-0.032780193
187	0x3c3cb3f8	0.011517517
188	0xbc093b3c	-0.008375939
189	0x3d93562c	0.0719417
190	0xbc0e526c	-0.008686643
191	0xbcb981e5	-0.022644946
192	0xbbd6abd9	-0.0065512476
193	0x3c9685d0	0.018374354
194	0xbb7289a2	-0.0037008305
195	0xbcc3676a	-0.023853023
196	0xbba4594c	-0.005015528
197	0x3d219da7	0.03945699
198	0xbd2b6fde	-0.04185473
199	0xbcc2af25	-0.023765156
200	0xbb871e38	-0.0041234754
201	0xbd1b5798	-0.037925333
202	0xbce8dc51	-0.028425368
203	0x3d4b4711	0.04962832
204	0x3c5da8fd	0.0135290595
205	0xbd62ed2a	-0.05540196
206	0x3c8ecda6	0.017432045
207	0xbba883df	-0.0051426734
208	0xbbea9cc0	-0.0071597993
209	0xbc6d3f7c	-0.014480468
210	0xbd4443c0	-0.047916174
211	0x3b4f8ee8	0.0031670872
212	0xbcb21332	-0.021737669
213	0xbc6f7619	-0.014615559
214	0x3d2bce0a	0.04194454
215	0x3c82488b	0.015903732
216	0x3bad2986	0.005284491
217	0x3c44ce48	0.012012072
218	0xbb568c16	-0.0032737306
219	0x3b3ae25f	0.0028516275
220	0x3cff5eb9	0.031173097
221	0xbb9997dd	-0.004687293
222	0xbbaf744e	-0.005354441
223	0x3c734506	0.014847999
224	0x3af04edd	0.001833405
225	0x3c082b1e	0.008311061
226	0x3c18c2e6	0.009323811
227	0xbd581604	-0.05275537
228	0xbcc87d17	-0.02447371
229	0x3c26766f	0.010160073
230	0x3c815798	0.015788838
231	0x3d15c006	0.03656008
232	0x3daeb9f1	0.08531559
233	0xbc8a2c91	-0.016866954
234	0x3d3337c9	0.043754373
235	0x3c935fe5	0.017990062
236	0xbb57f4ed	-0.0032952384
237	0x3d6af1cc	0.0573595
238	0xbc90b49c	-0.017664246
239	0xbc471ba6	-0.012152588
240	0x3d9abbd3	0.07555356
241	0x3c74cb89	0.014941105
242	0x3d817685	0.06321434
243	0x3bd4e9fc	0.0064976197
244	0x3d2ba57b	0.04190586
245	0x3a11fde7	0.00055691454
246	0x3c4849c4	0.012224618
247	0x3d1d69ef	0.038431104
248	0xb9a6beb8	-0.00031804084
249	0xbd10c4b9	-0.03534386
250	0x3c9d80e9	0.019226508
251	0x3c543243	0.012951436
252	0x3d46cc92	0.048534937
253	0xbc79c918	-0.015245698
254	0xbd57dfad	-0.05270355
255	0xbca441f7	-0.020050986

bias f4 [50]
0	0x3d41e86e	0.047340803
1	0x3c450ed4	0.012027461
2	0x3d217393	0.03941686
3	0x3d5cf933	0.053948592
4	0x3d1e36b2	0.03862638
5	0xbbac49e2	-0.005257831
6	0x3d2ad824	0.041710034
7	0x3ce80e0e	0.028327014
8	0xbc3a4235	-0.011368324
9	0x3d47da38	0.048792094
10	0x3d527252	0.051378556
11	0x3d249830	0.0401842
12	0x3bd58f90	0.006517358
13	0x3cb08b20	0.021550715
14	0x3adb9433	0.0016752541
15	0xbc80f89c	-0.015743546
16	0x3cd10b98	0.025518224
17	0x3c61a6ff	0.013772725
18	0x3d76fd4f	0.060300168
19	0xbc03ec04	-0.008051876
20	0xbb5577c8	-0.0032572616
21	0x3ce2d623	0.027689999
22	0x3beae4d3	0.0071683913
23	0x3d0fd247	0.035112645
24	0x38c5cc71	9.431772e-05
25	0x3c001539	0.00781756
26	0x3af2f444	0.0018535932
27	0xba23bec8	-0.0006246385
28	0x3d21ea6f	0.039530214
29	0x3d41ea40	0.04734254
30	0x3cffe05d	0.031234914
31	0xbc8beb1b	-0.01707988
32	0x3c8eb785	0.017421493
33	0x39693bfe	0.0002224296
34	0xbc401b15	-0.011725207
35	0x3be0ddf6	0.0068623973
36	0x3c8cb14a	0.017174382
37	0x3cdec051	0.027191313
38	0x3d509e52	0.050932236
39	0x3c995608	0.01871778
40	0x3c6b13a3	0.0143479435
41	0x3cd0de74	0.025496699
42	0x3d5becae	0.053692512
43	0x3cdd33ba	0.027002204
44	0x3cdb70cc	0.026787184
45	0x3d06f489	0.03294805
46	0x3d57f610	0.052724898
47	0x3b9a2524	0.0047041345
48	0xbc0e5121	-0.008686335
49	0x3d575cda	0.052578785
