all_manuscript_models/sim690/phoenix/noise_0.2/best_val_model_alpha_comb.pt (torch, 277419 bytes, 1 tensors)

weight f4 [690, 100]
0	0x3c31be01	0.010848523
1	0xbd5e22c7	-0.054232385
2	0x3cf623d9	0.03004639
3	0x3cec3bda	0.028837133
4	0x3c4233f6	0.011853209
5	0x3d00a21c	0.0314046
6	0xbbe6fe8e	-0.0070493883
7	0x3c47f446	0.012204235
8	0xbcd3e793	-0.02586726
9	0xba6b6a50	-0.00089803804
10	0xbcd5886b	-0.026066026
11	0x3cc9827f	0.024598358
12	0x3bb26d42	0.0054451535
13	0x3a8441c8	0.0010090405
14	0xbd05963d	-0.03261398
15	0xbd340420	-0.043949246
16	0x3d46eb3c	0.04856418
17	0xbd8f454b	-0.069956385
18	0xbcabd1e1	-0.020974101
19	0x3d0ae91c	0.033913717
20	0x3d034f1b	0.032057863
21	0xbcced551	-0.025248202
22	0xbd257a3a	-0.040399767
23	0xbd22968d	-0.039694358
24	0xbcd710ac	-0.026253067
25	0xbc314d01	-0.010821582
26	0x3c863211	0.016381295
27	0xbe0ab6d2	-0.13546303
28	0xbbf0d792	-0.0073499167
29	0xbcffe594	-0.031237401
30	0xbd7af7e7	-0.061271574
31	0xbcaeb133	-0.02132473
32	0xbcc0587f	-0.023479698
33	0xbc8ed084	-0.017433412
34	0xbc0dc2ab	-0.0086523695
35	0x3c8b39f2	0.016995404
36	0x3d1022df	0.035189506
37	0x3c696803	0.01424599
38	0x3c0a2364	0.008431289
39	0x3c913ae2	0.017728273
40	0x3cb456e1	0.022014083
41	0xbd39e800	-0.045387268
42	0xbd2bfaa0	-0.04198706
43	0xbc7a57e0	-0.01527974
44	0xbcd73544	-0.026270516
45	0xbce36df0	-0.027762383
46	0x3bb9fa03	0.0056755557
47	0x3c5dfe88	0.0135494545
48	0xb9aa9fde	-0.00032544037
49	0xbd09ab35	-0.03361054
50	0x3ccea48e	0.02522495
51	0x3d6866e7	0.05673876
52	0x3ce1d239	0.027566062
53	0x3cd1e9f6	0.025624257
54	0x3ced59c4	0.028973468
55	0x3cd5f35e	0.026117023
56	0x3cd1b2b2	0.025597904
57	0x3cd30b6e	0.025762286
58	0x3cd09701	0.02546263
59	0x3d737dd7	0.059446182
60	0x3ceeb5a5	0.02913935
61	0x3ce240f6	0.027618866
62	0x3cebf9b3	0.02880559
63	0x3d04dff5	0.032440145
64	0x3cd40d4d	0.025885249
65	0x3cdbfadc	0.026853018
66	0x3cfa6d5a	0.030569721
67	0x3cd9da2f	0.026593296
68	0x3cf35441	0.029703261
69	0x3cd8aa4b	0.02644839
70	0x3cca96f3	0.024730181
71	0x3cd4b1f0	0.025963753
72	0x3cd0f682	0.02550817
73	0x3cc9a3b6	0.024614196
74	0x3ce68c0d	0.028142953
75	0x3cf09cba	0.029371608
76	0x3cd42a0f	0.025898961
77	0x3ced4910	0.028965503
78	0x3d904c62	0.07045819
79	0x3ce58bf5	0.028020838
80	0x3cef8633	0.029238796
81	0x3cedc15d	0.029022867
82	0x3cda3bc8	0.026639834
83	0x3cb97dff	0.022643087
84	0x3cdf9df9	0.027297007
85	0x3c55434d	0.013016534
86	0x3cde583a	0.02714168
87	0x3d030b0c	0.031992957
88	0x3cc4c636	0.024020296
89	0x3ce11ff2	0.027481053
90	0x3ce1e568	0.02757521
91	0x3cca397e	0.024685618
92	0x3cdca0c9	0.026932137
93	0x3ce76947	0.028248442
94	0x3ce90f76	0.028449755
95	0x3d076925	0.033059258
96	0x3cd853fc	0.026407234
97	0xbd29ff08	-0.041502982
98	0x3ce6e413	0.028184926
99	0x3cd05cab	0.025434813
100	0x3ca28bac	0.019841991
101	0xbd0385e6	-0.032110117
102	0x3c2c56c7	0.010518736
103	0x3c98176b	0.018565854
104	0x3d564a44	0.05231692
105	0x3db5afd9	0.08871431
106	0xbc4ab225	-0.0123715745
107	0x3b070991	0.0020605067
108	0x3d4ab78e	0.049491458
109	0x3c361b7b	0.01111495
110	0xbdc38221	-0.095463045
111	0x3d2eb4f4	0.04265304
112	0x3cf16a7b	0.02946972
113	0x3cf79525	0.030222485
114	0xbc6ac7d0	-0.014329866
115	0x3cee58a8	0.029095009
116	0xbc0ab99f	-0.008467107
117	0x3d22e229	0.039766464
118	0x3cac194f	0.021008162
119	0x3d1ea27d	0.03872918
120	0x3d17aa03	0.03702737
121	0xbca49f7d	-0.020095581
122	0xbcc3b048	-0.023887768
123	0xbd91863e	-0.07105683
124	0xbc14f59d	-0.009091762
125	0xbd87445e	-0.06604837
126	0xbc3e4363	-0.011612746
127	0x3d32936d	0.043597627
128	0xbceb2fc3	-0.028709298
129	0xbced18a4	-0.028942414
130	0xbccfd9ab	-0.025372347
131	0xb6cd2a28	-6.1143837e-06
132	0x3c32f8f8	0.010923617
133	0x3cc2012c	0.0236822
134	0x3d03a975	0.03214403
135	0x3cd6b539	0.02620946
136	0xbd010cf7	-0.031506505
137	0xbd44d412	-0.04805381
138	0xbc9fcdbe	-0.019507285
139	0x3cc649dd	0.024205143
140	0x3b7e08c0	0.003876254
141	0xbd1088ce	-0.035286717
142	0xbbc2c0b5	-0.0059433826
143	0xbb876330	-0.004131697
144	0xbc9c3492	-0.019068036
145	0x3c07d63c	0.008290824
146	0x3cd9f87d	0.026607746
147	0x3d0c186e	0.034202985
148	0x3cecc051	0.028900297
149	0xbc3198f8	-0.010839693
150	0x3cca1046	0.024665963
151	0x3e0ea590	0.13930345
152	0xb962c438	-0.00021626137
153	0x3cc70662	0.024295036
154	0x3cacbfb0	0.021087497
155	0x3cc253ed	0.02372166
156	0x3cc63a62	0.024197761
157	0x3cceb9dc	0.025235109
158	0x3cadb12f	0.021202652
159	0x3cb79601	0.022410395
160	0x3ca5ac78	0.020223841
161	0x3cc66313	0.024217164
162	0x3ccb1e45	0.024794707
163	0x3cc75fe6	0.02433772
164	0x3cb976ec	0.022639714
165	0x3cbe407b	0.023224106
166	0x3cc6e46d	0.024278844
167	0x3cb692f0	0.022286862
168	0x3cc406b4	0.023928978
169	0x3cca5b44	0.024701722
170	0x3cd08515	0.025454083
171	0x3caf6317	0.021409554
172	0x3cb41840	0.02198422
173	0x3cb1f93a	0.021725286
174	0x3cd1a2bb	0.025590291
175	0x3cdbc2fe	0.026826378
176	0x3cb61d8d	0.022230888
177	0x3cd245e3	0.02566809
178	0x3ccc879c	0.024967007
179	0x3cc799bf	0.024365304
180	0x3ce1bc3c	0.027555577
181	0x3cc4391e	0.023953017
182	0x3cb22c41	0.021749618
183	0x3cd130c5	0.02553595
184	0x3c99e833	0.018787479
185	0x3cc6368f	0.024195937
186	0x3cb746ed	0.022372687
187	0x3ccc16b0	0.024913162
188	0x3cba7d83	0.022764927
189	0x3cb93ff9	0.022613512
190	0x3cc911f3	0.024544692
191	0x3cc8d49a	0.024515439
192	0x3cbcb4de	0.023035463
193	0x3cc11c19	0.023572968
194	0x3ce4d9f3	0.027935958
195	0x3cc0fc29	0.02355774
196	0x3ccec57f	0.025240658
197	0x3cc63454	0.024194874
198	0x3cd8d8b5	0.026470521
199	0x3ca99a47	0.020703448
200	0x3cddd7a3	0.027080363
201	0x3c82c3fc	0.015962593
202	0x3db632af	0.08896386
203	0x3ba6e27c	0.005092917
204	0xbca5f963	-0.020260518
205	0x3c1dcbe4	0.009631131
206	0xbc6fe3bf	-0.014641701
207	0x3cad4ffa	0.0211563
208	0x3cafdb8a	0.02146699
209	0xbcd740f3	-0.026276087
210	0xbca56c01	-0.020193102
211	0x3c65019f	0.013977437
212	0x3c108e4c	0.008822989
213	0x3d0640ca	0.03277663
214	0x3d040748	0.032233506
215	0x3c0ad4dc	0.008473601
216	0xbc034517	-0.008012078
217	0xba992c64	-0.0011686203
218	0x3c65ad38	0.014018349
219	0x3d0b8ac4	0.034067884
220	0x3c9de108	0.019272342
221	0xbc7ef3f0	-0.015561089
222	0xbc736e2f	-0.014857813
223	0xbc99b5a8	-0.018763378
224	0xbd1453f5	-0.03621288
225	0x3d88b85a	0.06675787
226	0xbbacb05b	-0.0052700466
227	0x3cecb40c	0.028894447
228	0xbd0d5e4a	-0.03451375
229	0xbc2d0b0a	-0.010561714
230	0xbc93c16b	-0.018036565
231	0xbb831cb7	-0.004001226
232	0xbc661a06	-0.01404429
233	0x3b953d65	0.004554438
234	0x3c07c17d	0.008285877
235	0x3d229e4a	0.039701737
236	0x3d271820	0.04079449
237	0xbcb11ff4	-0.021621682
238	0x3c56ace0	0.01310274
239	0x3bcabb6b	0.0061868927
240	0x3c857537	0.016291244
241	0x3b584286	0.0032998635
242	0xbc46b023	-0.012126955
243	0xbaf59202	-0.001873553
244	0xbc5fab4a	-0.013651678
245	0xbd1c56e2	-0.038168795
246	0xbcb31e10	-0.02186492
247	0x3be3436d	0.006935528
248	0xbabfb000	-0.0014624596
249	0xbc090315	-0.008362551
250	0x3c67dca3	0.014151725
251	0x3c876434	0.016527273
252	0x3c72ccd7	0.014819345
253	0x3c28869f	0.010286002
254	0x3c3c07a0	0.011476427
255	0x3c4ea2cd	0.012612057
