all_manuscript_models/sim690/phoenix/_first_submission/noise_0.05/best_val_model_alpha_comb.pt (torch_old, 282206 bytes, 1 tensors)

weight f4 [690, 100]
000000 c2 3f 8d 39 be 63 62 39 9e f0 bf b9 9c 74 c9 b8
       0.0002694112 0.00021590196 -0.00036609633 -9.606147e-05
000010 a9 03 e4 b9 74 b9 0b ba f6 0f 01 37 2b f9 b4 39
       -0.00043490276 -0.0005330064 7.692715e-06 0.0003451792
000020 e5 c3 b8 39 be 30 e0 39 b3 31 9f b9 f8 b7 4b b7
       0.00035241168 0.00042760925 -0.00030363872 -1.2142576e-05
000030 3b 84 30 b9 d5 e8 ee b9 80 26 99 39 f2 b6 de b9
       -0.00016833928 -0.0004556837 0.0002921112 -0.00042479445
000040 f2 b3 a4 39 60 c6 0b ba cf 05 d8 39 24 59 c5 b9
       0.00031414587 -0.00053319894 0.00041203058 -0.00037641183
000050 fd a2 00 ba 1c f0 95 b9 69 af 04 39 3c f2 92 b9
       -0.00049070996 -0.0002859839 0.00012653846 -0.0002802777
000060 90 46 b2 b8 8a 56 ae b9 57 83 9a 39 71 b0 4d 38
       -8.500845e-05 -0.00033252343 0.00029471025 4.9040133e-05
000070 fb ee d9 39 1c c2 76 39 9a 86 b6 39 be a4 2e 3a
       0.0004156752 0.000235327 0.0003481403 0.0006662122
000080 1c be a3 39 37 69 3c b9 5b b2 a0 b9 df 47 2e b8
       0.00031231425 -0.00017968273 -0.00030650463 -4.1551768e-05
000090 79 67 b1 39 ac d6 d0 39 7e d7 b3 39 56 54 a3 39
       0.00033837164 0.00039832795 0.00034302095 0.00031152618
0000a0 4b 02 4a 39 69 e8 92 b9 28 b9 f4 b9 be 62 d6 39
       0.00019265075 -0.0002802045 -0.0004667726 0.0004089083
0000b0 38 1b a9 b9 37 4e d3 b9 6a 37 ae b9 25 1f a7 b8
       -0.0003225447 -0.0004030333 -0.00033229153 -7.968982e-05
0000c0 95 1e f4 39 a6 c0 20 3a 55 e7 6e b6 6d 79 4b b9
       0.00046562092 0.00061322225 -3.5599417e-06 -0.00019404823
0000d0 c2 6a ca 37 2f e5 40 38 12 8e 9b 37 1d 5a 6e 39
       2.412999e-05 4.598981e-05 1.8543597e-05 0.00022731019
0000e0 60 0a ab 37 f6 2d fa b7 c3 a5 16 39 aa a9 d2 38
       2.038962e-05 -2.9823725e-05 0.00014366866 0.00010045183
0000f0 2d de 9f 39 4a 5c 2f 39 16 29 f7 b7 46 06 0a b9
       0.00030492377 0.00016723681 -2.9463827e-05 -0.00013163043
000100 50 9d 94 b7 f0 82 3f 39 0f 0d 07 b9 fb 06 3a b9
       -1.771623e-05 0.00018263957 -0.00012879468 -0.00017740943
000110 94 1c 27 37 5c 52 4a 39 94 94 52 39 da 73 45 39
       9.9606295e-06 0.00019294902 0.0002008251 0.00018830542
000120 74 38 af 39 6e 02 1f 38 3c a1 c7 b9 09 44 89 b8
       0.00033420662 3.7910817e-05 -0.00038076367 -6.5453416e-05
000130 5c a1 6c b7 6b 35 94 38 a5 c6 63 39 16 2d ec b7
       -1.4104266e-05 7.06714e-05 0.00021722408 -2.8154387e-05
000140 d8 0b 8d b8 19 d5 2c 38 c1 dd 50 38 65 52 85 39
       -6.72561e-05 4.120646e-05 4.979759e-05 0.00025429126
000150 5d c3 9e 38 cc 8a 49 b9 72 3b b9 38 1b 50 cb 38
       7.570416e-05 -0.0001922056 8.83256e-05 9.694715e-05
000160 95 d8 34 39 19 50 99 b9 d9 32 c1 39 b9 4a ef b8
       0.00017246821 -0.00029242111 0.00036849713 -0.00011410326
000170 db 5f b1 38 c7 fe 6f 38 2d 0c f5 38 31 59 8b 38
       8.457872e-05 5.721932e-05 0.00011684778 6.64465e-05
000180 45 37 b7 b8 d4 d6 c8 37 aa b6 e6 38 69 71 1a 38
       -8.736415e-05 2.3941895e-05 0.000110012785 3.6822083e-05
000190 44 2b 14 3d 4f ff 63 3c bb f2 51 bd 5c bb 65 bb
       0.036174074 0.013915851 -0.051256876 -0.0035054302
0001a0 85 c9 00 bd ce ad b5 bd f9 8e e5 3c 34 3f 47 3d
       -0.031442184 -0.08871041 0.028022276 0.04864426
0001b0 2d a3 b2 3d 2d ea 3a 3d 02 f2 e9 bc 79 e2 85 bc
       0.087225296 0.045633484 -0.028557781 -0.016343342
0001c0 a4 b0 40 bd 46 2e 4a bd ad 98 5d 3c 76 c9 4c bd
       -0.047043458 -0.049360536 0.01352517 -0.049996816
0001d0 95 d2 16 3d 24 ac 37 bd ab 1e 44 3d b3 2b f2 bc
       0.03682192 -0.0448419 0.04788081 -0.029561853
0001e0 d0 b0 54 bd b0 a9 28 bd f3 05 b8 bb 3c 6d ce bc
       -0.051926434 -0.04117745 -0.0056159436 -0.025198571
0001f0 c3 9c 02 bd 25 fe 5f bd c8 13 0a 3d 0b 06 b6 ba
       -0.03188778 -0.05468573 0.03371027 -0.0013887299
000200 d4 77 f8 3c d4 50 c1 3c 84 d1 91 3d fa 87 7a 3d
       0.030330576 0.023598112 0.0712004 0.061164834
000210 15 f3 24 3d f8 24 f1 bc 57 38 f0 bc ba 48 b5 bb
       0.040270884 -0.029436573 -0.02932374 -0.0055323513
000220 01 18 99 3d 57 d5 1f 3d 7e 5a f9 3c fc 49 7c 3d
       0.074752815 0.039021816 0.030438658 0.061593994
000230 de ab 54 3c 0d fa 3a bd 13 bb 34 bd 6d 55 92 3d
       0.012980429 -0.045648623 -0.04412372 0.071452
000240 d6 97 62 bd 1a 77 55 bd be 44 35 bd e4 69 18 bd
       -0.055320583 -0.052115537 -0.04425501 -0.03721036
000250 d2 93 8f 3d d1 b2 a3 3d 08 26 9b bc 89 22 8a bc
       0.07010616 0.07993091 -0.018939033 -0.01686217
000260 df 06 40 3c 90 82 1d bb 3e 6d 0a bc 50 99 82 3c
       0.011720388 -0.002403412 -0.008448897 0.015942246
000270 94 de 82 3c 9e 7c 36 bc 3a 08 03 3c 21 82 86 3b
       0.015975274 -0.0111381095 0.007997567 0.004104868
000280 e2 64 08 3d 23 1b bf 3c c7 18 89 3a c0 4c 8e bc
       0.033299334 0.02332837 0.0010459655 -0.017370582
000290 91 1b 44 bb 09 49 14 3d c0 05 48 bc d7 6e bc bc
       -0.0029923657 0.036202464 -0.012208402 -0.023002071
0002a0 98 d5 3a bc 81 1a cd 3c 41 9b a3 3c ce 73 5f 3c
       -0.011403464 0.025037052 0.019971492 0.01363845
0002b0 ed ee 0f 3d b0 35 2c 3c 0e 51 38 bd 2a 34 db 3b
       0.035139967 0.010510847 -0.044999175 0.006689568
0002c0 79 82 2f bc 0b db 1c 3a ab cc dd 3c a2 ef b1 3b
       -0.010712259 0.00059835677 0.027075132 0.005430178
0002d0 23 fa 00 bc f5 e1 24 3c 55 48 1d bc 70 41 10 3d
       -0.007872137 0.010063638 -0.009599765 0.035218656
0002e0 c9 5a 94 39 b6 fc ae bc df 6e 8b 3c 5d ea a0 3c
       0.000282964 -0.021360736 0.01702064 0.019643003
0002f0 e4 74 5e 3d 55 84 2e bd f7 db 83 3d fd fb 0b bc
       0.054310694 -0.04260667 0.06438439 -0.008543965
000300 a3 7b a4 3b db 26 23 3c 4e f1 23 3c be 6d ef 3b
       0.0050196215 0.009957994 0.010006262 0.0073067835
000310 87 bd 05 bc 92 4f 7c 3b 44 c3 d3 3c ec 99 30 3c
       -0.008162863 0.0038499576 0.025849946 0.010778885
000320 b7 6b 88 bc 9c 5a cd bb 3e f1 8d bb d9 ad a2 3a
       -0.016652925 -0.006266905 -0.004331737 0.001241143
000330 cb 4a 69 3b 86 8c 60 bd 06 68 b7 3c 94 d0 be 3c
       0.0035597559 -0.054821514 0.02238847 0.023292817
000340 9a 7b 00 3d 48 cd a1 3b bd 30 bf bc e7 c6 c5 bc
       0.031367876 0.0049378015 -0.02333867 -0.024142696
000350 ca 1a 28 3c 5d c3 72 bd 3d 4f b8 3c ca 4f 7a 3c
       0.010260293 -0.059268344 0.022498721 0.015277812
000360 d3 49 46 3d 6f 30 39 bd d7 f6 03 3d 0f e8 68 bd
       0.048410248 -0.045212205 0.032217827 -0.056861933
000370 a7 2e f7 bc 21 a2 99 bc 29 f7 50 3c 22 6d eb bc
       -0.030173613 -0.018754067 0.01275424 -0.028738562
000380 df 92 dc bc 29 fb 49 bc 78 e9 ae 3b b0 e9 8d 3c
       -0.026925502 -0.012327948 0.0053378902 0.017323345
000390 9d 28 8a 3c cc 31 22 ba 18 f3 14 3d 9f 94 4b 3d
       0.016865069 -0.000618723 0.036364645 0.049702283
0003a0 56 bd 5f 3c cf 6a c1 bc b7 68 95 bc e9 66 01 3d
       0.013655981 -0.0236105 -0.018238408 0.031592283
0003b0 d6 8f 9e bb eb 85 4e 3d c8 95 7c 3c ae fa 46 3c
       -0.004838924 0.050420683 0.01541657 0.012144728
0003c0 42 b8 ab 3c 04 56 44 bd fe 4c 10 bd f4 d1 35 3d
       0.020961884 -0.047933593 -0.035229675 0.04438968
0003d0 28 3f 2f bd 25 7d 3e bd 0c 9c 76 bc cb 1e 9a bd
       -0.04278484 -0.046506066 -0.015051853 -0.075254045
0003e0 16 47 53 3d a8 11 91 3c 6c f9 76 bb 58 1f f3 3a
       0.051581465 0.017708614 -0.0037685288 0.001854877
0003f0 94 4a 53 3b 00 35 28 b9 25 f9 44 bc 9c 66 c4 bc
       0.0032240497 -0.00016041473 -0.012022291 -0.02397471
