all_manuscript_models/sim350/phoenix_noprior/noise_0.025/best_val_model_prods.pt (torch, 57895 bytes, 2 tensors)

weight f4 [40, 350]
0	0xbd9c8ead	-0.07644401
1	0xbcf2bbf8	-0.029630646
2	0x3d97c01f	0.07409691
3	0x3ded744d	0.11594448
4	0xbca8d756	-0.020610493
5	0xbcf9c2fe	-0.030488487
6	0xbd0aaaa7	-0.033854153
7	0x3cc593ee	0.02411839
8	0xbd07a2f0	-0.033114374
9	0x3d3c6e3c	0.046003565
10	0x3d5263a7	0.051364567
11	0x3e266316	0.16248736
12	0x3d5f09b9	0.05445263
13	0x3e18d504	0.14925009
14	0x3d594db7	0.05305263
15	0x3d30ef32	0.043196864
16	0xbd0ae217	-0.033907022
17	0x3d60fcce	0.054928593
18	0x3d9ebce2	0.0775087
19	0x3e0ecd9e	0.13945624
20	0x3e5b2154	0.21399432
21	0xbd934997	-0.071917705
22	0x3e30270a	0.17202392
23	0xbd86a04c	-0.06573543
24	0xbeba8dbe	-0.36436266
25	0x3e02330f	0.1271479
26	0x3d9c7f0b	0.07641419
27	0xbe103545	-0.1408282
28	0x3d8bf619	0.06834049
29	0x3e686767	0.22695695
30	0x3d966d99	0.07345123
31	0xbe35e081	-0.17761423
32	0x3d80ed99	0.06295318
33	0xbd9c378a	-0.07627781
34	0xbd29f898	-0.041496843
35	0xbd01cb32	-0.031687923
36	0x3e22cd12	0.1589854
37	0xbcb22652	-0.021746788
38	0x3dae03bf	0.08496808
39	0xbe60589c	-0.21908802
40	0xbdf1fbe6	-0.11815624
41	0xbd396a20	-0.045267224
42	0x3dcb1e8e	0.09917937
43	0x3e206fc1	0.1566763
44	0xbc62bb9b	-0.013838674
45	0xbdd91847	-0.10600334
46	0x3d0a74ae	0.03380268
47	0x3e0b61b4	0.1361149
48	0x3d0a8fea	0.033828653
49	0xbda0c7b9	-0.07850594
50	0x3c3e21c8	0.011604734
51	0x3e21ae6c	0.15789193
52	0x3edf9812	0.43670708
53	0xbd98d6e1	-0.0746286
54	0x3dde68e2	0.108598486
55	0x3e48b894	0.19601661
56	0x3d650a58	0.055918068
57	0xbdfda4eb	-0.12384971
58	0x3e362fe9	0.17791714
59	0x3dce2520	0.10065675
60	0x3e15694f	0.14590953
61	0xbd4b8c6c	-0.049694464
62	0x3ea97867	0.33099672
63	0xbe461a89	-0.1934606
64	0xbcf59f55	-0.029983202
65	0xbd9d6706	-0.07685666
66	0xbe1591e5	-0.14606436
67	0x3d988369	0.074469395
68	0x3d15b0ac	0.03654544
69	0xbdd6cff6	-0.10488884
70	0xbedafb0f	-0.42769668
71	0xbe2c8af9	-0.16849889
72	0xbde3ba83	-0.11119559
73	0xbd3dfb64	-0.046382323
74	0x3d9bf827	0.07615691
75	0xbd961284	-0.0732775
76	0x3cd32fef	0.025779692
77	0xbdb04554	-0.08606973
78	0xbd485f90	-0.04891926
79	0x3dc8453e	0.09778832
80	0x3d141d90	0.036161005
81	0xbdce1ec6	-0.10064463
82	0xbd9d7356	-0.07688014
83	0x3b9265de	0.00446771
84	0xbd343f20	-0.044005513
85	0xbd9ccfee	-0.07656847
86	0x3cfcccad	0.030859316
87	0x3c26d543	0.0101826815
88	0xbdbeddd3	-0.09319653
89	0xbe646144	-0.22302729
90	0x3e04ed56	0.12981161
91	0xbcbbe7d1	-0.022937687
92	0x3c7ae08c	0.015312325
93	0x3da5270f	0.080640905
94	0x3d5290bf	0.051407572
95	0x3b80d9b2	0.0039322013
96	0x3c70d2fb	0.014698739
97	0xbd6e0bce	-0.058116727
98	0xbc078a5e	-0.008272735
99	0x3ccda505	0.025103102
100	0x3d5ac14a	0.05340699
101	0xbe47cc03	-0.19511418
102	0xbddc9e08	-0.107723296
103	0xb98ce1cf	-0.0002687112
104	0x3dbd5f4f	0.09246694
105	0x3d5f527c	0.054522023
106	0xbdc8c536	-0.0980324
107	0x3b29d191	0.0025912265
108	0xbc0c70fc	-0.008571859
109	0xbd4d3a65	-0.050104517
110	0x3ce9deb8	0.028548583
111	0x3d12c8cf	0.035836037
112	0x3c89290f	0.016743211
113	0x3d9245b4	0.07142201
114	0x3cf9ac96	0.030477803
115	0xbdd119a7	-0.10209971
116	0xbd2fa951	-0.042886082
117	0x3d227cb0	0.039669693
118	0xbd0b209d	-0.03396665
119	0x3dd4adda	0.10384722
120	0xba0e67f2	-0.0005432359
121	0x3d2ed915	0.042687494
122	0x3d446712	0.047949858
123	0x3c691467	0.014226056
124	0xbd841d6b	-0.064509235
125	0xbdbd5bd8	-0.092460334
126	0xbd236d48	-0.03989914
127	0x3d4036c0	0.046927214
128	0x3d8a3d16	0.067499325
129	0x3d01498f	0.03156429
130	0x3d1037f0	0.035209596
131	0x3c988372	0.018617366
132	0x3c54faab	0.012999217
133	0x3cd46393	0.025926387
134	0xbdd5617a	-0.10418983
135	0x3ba2dd70	0.004970245
136	0x3c6bd198	0.014393233
137	0x3c8dee81	0.017325642
138	0xbdc93f5d	-0.09826539
139	0x3d8f9cd7	0.07012337
140	0xbda00473	-0.078133486
141	0x3ca5ac0b	0.020223638
142	0x3d02082d	0.03174608
143	0x3d0defbd	0.03465246
144	0x3b49c9fb	0.0030790556
145	0x3d67383c	0.056450114
146	0x3c3f2647	0.011666841
147	0xbd2794cd	-0.04091339
148	0x3dffeec5	0.124967135
149	0x3d6626f1	0.05618948
150	0xbc36a326	-0.011147296
151	0x3d94160b	0.07230767
152	0x3d7e565c	0.062094077
153	0x3d562ec4	0.052290693
154	0x3d869047	0.065704875
155	0x3dbac971	0.09120453
156	0xbc04e57f	-0.008111357
157	0x3d4dc9a0	0.050241113
158	0x3cff55d0	0.031168848
159	0x3c9ae7c5	0.018909344
160	0x3cb75f46	0.022384297
161	0x3d9037cc	0.070418924
162	0xbce11108	-0.027473941
163	0x3d9719bc	0.07377955
164	0x3cea269d	0.028582865
165	0xbcb1d775	-0.021709183
166	0x3d85317b	0.06503578
167	0x3ceaaec5	0.02864779
168	0xbdad9d57	-0.08477276
169	0x3ccd7376	0.02507947
170	0x3d036a03	0.032083523
171	0xbddccd90	-0.107813954
172	0xbe0a8538	-0.13527381
173	0x3d9938e2	0.07481553
174	0xbb811a15	-0.003939877
175	0xbd1389ce	-0.036020093
176	0xbdf7017c	-0.1206083
177	0x3d790a36	0.060800754
178	0xbb44f104	-0.0030050883
179	0xbbe96430	-0.007122539
180	0xbc7131bf	-0.014721333
181	0x3ca371db	0.019951751
182	0xbc73d4fe	-0.014882324
183	0xbc08a659	-0.008340442
184	0xbd471b7c	-0.048610196
185	0xbcbf1c46	-0.023328912
186	0x3d8891b7	0.06668418
187	0x3cacf833	0.021114444
188	0xbd562894	-0.052284792
189	0x3da18d7e	0.078883156
190	0xbbecbd2a	-0.0072246986
191	0x3d1c02c9	0.038088594
192	0xbd726f6d	-0.059188295
193	0x3d039c14	0.03213127
194	0x3db2945a	0.08719702
195	0x3ced7e87	0.028990997
196	0x3cc3e3a1	0.023912253
197	0x3da20df0	0.079128146
198	0x3c3a8b0b	0.0113856895
199	0x3d84d022	0.06485011
200	0x3e0d6850	0.13809323
201	0xbdb991ad	-0.090609886
202	0x3cdbe149	0.026840823
203	0xbd0bdb86	-0.0341449
204	0xbd03989f	-0.032127973
205	0xbda26b00	-0.07930565
206	0xbdbcb335	-0.092138685
207	0x3cd8bdfa	0.026457775
208	0x3bba074b	0.005677139
209	0xbe7d19a6	-0.24716815
210	0xbcd6c368	-0.026216224
211	0x3db4caac	0.08827719
212	0x3e36bf32	0.17846373
213	0xbcd46a3b	-0.02592956
214	0x3d605e60	0.054777503
215	0x3d559419	0.05214319
216	0x3c766aca	0.015040109
217	0xbdc00518	-0.093759716
218	0xbdc714e5	-0.09720782
219	0xbd9084c2	-0.070565715
220	0xbd82295c	-0.06355545
221	0xbd170143	-0.036866438
222	0x3d54bafd	0.05193614
223	0xbdb6a4cb	-0.089181505
224	0xbc5e782f	-0.013578459
225	0xbd7ff978	-0.06249377
226	0xbcb845e3	-0.022494262
227	0xbca3af87	-0.019981159
228	0xbbcd009c	-0.006256176
229	0x3cd1fcd6	0.025633257
230	0xbd2daaf2	-0.042399354
231	0x3d7e7c09	0.062130008
232	0xbd35b13a	-0.04435847
233	0xbb5f6848	-0.0034089256
234	0x3c1dc25f	0.009628861
235	0x3cd054b3	0.025431013
236	0x3dd5a9a6	0.104327485
237	0x3cf3195a	0.029675175
238	0x3d9eca51	0.077534325
239	0x3e199221	0.1499715
240	0xbd31114b	-0.043229382
241	0xbcabf622	-0.020991389
242	0x3da0a724	0.078443795
243	0x3d952905	0.072832145
244	0x3d05e6d9	0.032690857
245	0xbcead61a	-0.028666545
246	0x3e312623	0.17299704
247	0xbcadef12	-0.021232162
248	0x3deb253e	0.11481713
249	0x3d650c6c	0.05592005
250	0xbdf25b78	-0.118338525
251	0xbdbeab97	-0.09310072
252	0xbe5b8734	-0.21438295
253	0xbde07d60	-0.109614134
254	0x3c0bdbe7	0.0085363155
255	0xbc57757a	-0.013150567

bias f4 [40]
0	0xbd6b4d8f	-0.057447013
1	0xbdb89a5f	-0.09013819
2	0xbdabb895	-0.083848156
3	0xbcae9bfd	-0.021314615
4	0xbd5203e8	-0.051273257
5	0xbd3322fd	-0.04373454
6	0xbcf75538	-0.030192003
7	0xbd3907b3	-0.04517336
8	0xbd94aa4e	-0.072590455
9	0xbd2b21ad	-0.041780163
10	0x3ca14b62	0.019689266
11	0xbdea3dd4	-0.11437574
12	0xbbb2c307	-0.005455378
13	0xbd045522	-0.03230775
14	0xbd9cffbb	-0.07665964
15	0xbc27f7f2	-0.010251986
16	0xbda55c7b	-0.0807428
17	0x3c7bb9b6	0.015364101
18	0xbd4c02c7	-0.049807336
19	0xbca52801	-0.020160677
20	0xb970c51e	-0.00022961615
21	0xbdaf2c28	-0.08553344
22	0xbc6e2b43	-0.014536682
23	0xbdc341ed	-0.09534059
24	0x3a8e3181	0.0010848494
25	0xbc8903d6	-0.016725462
26	0x3c00bfa8	0.007858194
27	0xbd73fc76	-0.059566937
28	0xbd5b4e17	-0.05354127
29	0xbddc08b0	-0.107438445
30	0xbd54f02c	-0.05198686
31	0x3cac01ee	0.020997014
32	0xbcac7c36	-0.021055322
33	0xbd258f1f	-0.040419694
34	0xbcc5d2ff	-0.024148462
35	0xbb07cca7	-0.0020721348
36	0xbd6a439b	-0.05719338
37	0xbc8efe9f	-0.017455397
38	0x3ca4e090	0.020126611
39	0xbcd002e3	-0.025392001
