ode_net/code/output/2022-8-2(6;14)_G690genes_150samples_200epochs/interm_models/best_val_model_epoch_80_sums.pt (torch, 140007 bytes, 2 tensors)

weight f4 [50, 690]
-0.18321343 0.10236923 -0.24241628 0.29842848 -0.12840351 0.034504253 0.095067054 0.3182215
-0.05539632 -0.17869575 -0.09675433 0.02702084 0.14334184 0.3497393 -0.21005441 0.12147127
0.096236445 -0.076986186 -0.11176522 -0.03212492 -0.082103 0.18404594 -0.11944579 0.057051398
0.14206208 0.18264602 0.43503174 -0.017985087 0.023895597 0.13182561 0.018274426 0.02411566
0.0078061456 -0.085350215 -0.24317247 -0.01584043 -0.5496726 0.21107203 0.30419153 0.25623074
-0.049539443 0.062657535 0.018260183 0.038697224 0.031060455 -0.06796667 0.5092514 0.03923444
0.06660096 -0.08279924 0.2064613 0.014302058 0.2786557 0.05458265 0.055306613 -0.027217556
0.08417842 0.17338665 0.033505674 -0.26848745 0.29141113 0.034222703 0.025809787 0.015359555
0.08728952 -0.05328357 0.8574811 0.050431203 -0.14936884 -0.10270524 -0.33976397 0.326727
0.26991454 -0.09603404 -0.09017492 -0.10033272 -0.10204217 0.18369345 -0.6426224 0.034780186
0.087111264 0.02546912 -0.023979325 0.11620849 0.05940137 -0.34763148 0.12469622 0.25189355
-0.9010501 0.16608591 0.17056996 -0.3541655 -0.2900832 0.15763555 0.35783198 -0.11660908
-0.2624795 -0.10173965 -0.03986629 0.0046757786 -0.046099935 -0.15552151 0.0035765178 -0.29426464
0.15382715 -0.20059778 -0.40885276 -0.021436786 -0.013582561 -0.072255455 0.1582124 0.1614113
-0.57164335 -0.36700758 -0.04512128 0.19208334 -0.06989085 0.018589877 0.10792824 0.28936693
-0.08831057 0.27119845 0.20211293 -0.01764684 -0.30692568 0.3484479 0.20011568 -0.41070387
-0.006510297 -0.76340485 0.0027127967 -0.09362114 -0.08117939 -0.0050788387 0.021472758 0.044803318
-0.027767522 0.032282576 0.014174164 -0.008164989 0.028577179 0.05023725 0.005151248 0.022186019
0.029528627 0.024792006 -0.015043985 -0.010245838 0.0020821984 -0.0069017946 0.002077091 0.012194153
0.0066165514 0.04019654 0.010249874 -0.00856628 -0.007977852 0.018440943 -0.036946874 -0.027656183
0.020948417 0.0027490766 0.012977711 0.014782763 0.009943943 -0.000346584 -0.012290617 0.018343406
0.0028295817 -0.012782122 0.0115617 0.009468647 -0.013054885 -0.0041626776 -0.042112008 -0.004003936
0.0033736997 0.019314906 -0.015584966 -0.0129390545 -0.018405166 -0.035396565 -0.0069757244 -0.057599287
-0.03822957 -0.050033208 0.018517917 0.015390878 0.034783144 -0.00032719475 -0.007599868 0.004167225
-0.0011052336 0.025365692 -0.00400957 -0.011066044 -0.003727831 -0.013243742 -0.014330305 -0.013798039
0.011999374 0.0055329218 0.0105774505 0.020502064 0.012811997 0.0030638012 -0.013917773 -0.028476728
0.02008429 -0.005713798 0.016002547 0.00872871 0.05359108 0.024385551 0.047126688 0.020253476
0.022959819 0.030196024 0.011816811 0.010027404 0.016267525 0.0090372935 0.02880433 0.038641673
-0.0033961746 0.0042513665 0.0034333034 0.009971984 0.01760286 -0.030656805 0.010515827 -0.018243602
0.013737029 -0.0015284132 0.0008989956 -0.02323824 0.00059077045 0.010965084 0.0014746108 0.024729826
-0.0020304779 -0.00948347 0.005743123 0.015062454 0.011584769 -0.0070151016 0.0065258187 -0.0060646287
0.032079358 0.0057470812 -0.0070511075 0.015411447 -0.0017331633 -0.009366256 0.016701551 0.04537126
00000000: 4d9c 3bbe f5a6 d13d f93b 78be 9ecb 983e
00000010: 367c 03be 5554 0d3d 84b2 c23d eeed a23e
00000020: 40e7 62bd 05fc 36be 2227 c6bd cf5a dd3c
00000030: 34c8 123e 0811 b33e 8118 57be eec5 f83d
00000040: 9d17 c53d efaa 9dbd 2ae5 e4bd 6c95 03bd
00000050: 9e25 a8bd 8a76 3c3e ff9f f4bd baae 693d
00000060: b978 113e 8f07 3b3e 7bbc de3e 7655 93bc
00000070: b3c0 c33c 4bfd 063e 40b4 953c 348e c53c
00000080: b2ca ff3b 18cc aebd 3402 79be cac3 81bc
00000090: 58b7 0cbf 4423 583e febe 9b3e ad30 833e
000000a0: dfe9 4abd 9852 803d 6196 953c fb80 1e3d
000000b0: 7f72 fe3c 1c32 8bbd 4d5e 023f 4bb4 203d
000000c0: 1666 883d a692 a9bd 976a 533e 2e53 6a3c
000000d0: f6ab 8e3e 0f92 5f3d 3089 623d 5af7 debc
000000e0: bc65 ac3d 458c 313e 3f3d 093d 3077 89be
000000f0: d733 953e 1b2d 0c3d 0c6f d33c a5a6 7b3c
00000100: d9c4 b23d df3f 5abd e283 5b3f f390 4e3d
00000110: 25f4 18be 2057 d2bd 8bf5 adbe c348 a73e
00000120: 3d32 8a3e 7fad c4bd a1ad b8bd 3e7b cdbd
00000130: 7cfb d0bd 231a 3c3e e782 24bf ab75 0e3d
00000140: 6467 b23d 9ea4 d03c 4a70 c4bc b8fe ed3d
00000150: da4e 733d c1fc b1be bb60 ff3d 31f8 803e
00000160: 38ab 66bf 6d12 2a3e e4a9 2e3e 2e55 b5be
00000170: c985 94be 376b 213e c135 b73e bed0 eebd
00000180: b763 86be e15c d0bd d64a 23bd 4637 993b
00000190: 49d3 3cbd 0841 1fbe 0364 6a3b dba9 96be
000001a0: dd84 1d3e 8169 4dbe 2655 d1be 339c afbc
000001b0: 6489 5ebc abfa 93bd 6e02 223e 0149 253e
000001c0: 3857 12bf 6be8 bbbe 17d1 38bd 7fb1 443e
000001d0: ef22 8fbd cc49 983c 7b09 dd3d e727 943e
000001e0: 2cdc b4bd 86da 8a3e b1f6 4e3e 1b90 90bc
000001f0: 5d25 9dbe c367 b23e 20eb 4c3e c747 d2be
00000200: 5454 d5bb 806e 43bf 2dc9 313b 71bc bfbd
00000210: 6141 a6bd 636c a6bb a3e7 af3c af83 373d
00000220: b778 e3bc bc3a 043d c13a 683c 72c6 05bc
00000230: b01a ea3c 93c5 4d3d cdcb a83b 74bf b53c
00000240: 05e6 f13c 9b18 cb3c 0c7b 76bc 29de 27bc
00000250: 7e75 083b 7328 e2bb ce1f 083b fcc9 473c
00000260: a8cf d83b 21a5 243d 16ef 273c 9559 0cbc
00000270: 89b5 02bc 7611 973c 9b55 17bd 388f e2bc
00000280: 049c ab3c da29 343b 77a0 543c 6733 723c
00000290: ebeb 223c b8b5 b5b9 965e 49bc e944 963c
000002a0: 8170 393b 1b6c 51bc 496d 3d3c 6222 1b3c
000002b0: 28e4 55bc 1267 88bb a47d 2cbd 7333 83bb
000002c0: 4a19 5d3b 4b3a 9e3c 1658 7fbc 54fe 53bc
000002d0: 6ec6 96bc fdfb 10bd 9e94 e4bb 3bed 6bbd
000002e0: 9c96 1cbd 9fef 4cbd e3b2 973c 052a 7c3c
000002f0: c578 0e3d 568b abb9 5008 f9bb 388d 883b
00000300: 7cdd 90ba b6cb cf3c b662 83bb 5a4e 35bc
00000310: a04e 74bb 48fc 58bc a8c9 6abc 2c11 62bc
00000320: 0699 443c 834d b53b 0b4d 2d3c f2f3 a73c
00000330: 69e9 513c 0eca 483b 5f07 64bc 0748 e9bc
00000340: cf87 a43c d03a bbbb c617 833c dd02 0f3c
00000350: 5282 5b3d 35c4 c73c ea07 413d 9eea a53c
00000360: 3b16 bc3c a75d f73c 4c9b 413c fb49 243c
00000370: 7943 853c 2811 143c 0ff7 eb3c bb46 1e3d
00000380: 5b92 5ebb 0c4f 8b3b 4601 613b 8861 233c
00000390: e033 903c fb23 fbbc 934a 2c3c 9b73 95bc
000003a0: 4711 613c 0955 c8ba 93aa 6b3a 1f5e bebc
000003b0: efdd 1a3a e5a6 333c ba47 c13a 3496 ca3c
000003c0: c411 05bb 8e60 1bbc cf30 bc3b 83c8 763c
000003d0: 0bce 3d3c f0de e5bb 89d6 d53b cbb9 c6bb
000003e0: a565 033d 0352 bc3b fa0c e7bb 4b80 7c3c
000003f0: 4f2b e3ba ed74 19bc b1d1 883c 37d7 393d

bias f4 [50]
0.09748485 -0.026655555 -0.016131373 -0.010653386 0.0014321571 -0.059844866 -0.06976008 -0.031100513
-0.0631938 -0.018447142 -0.0149221625 0.019487044 0.07281668 0.015582808 0.027510855 0.05181109
-0.084836945 0.04266555 0.04003519 0.0595668 0.016961087 0.01059853 0.0073287617 0.0571952
-0.07162731 0.041267987 0.08457999 0.051916704 0.0017396735 -0.019242495 -0.043577272 0.021568688
-0.059556175 -0.09658349 -0.016829217 0.037175618 -0.039455764 -0.04228683 -0.07650734 -0.088946335
-0.052736834 0.016830936 -0.008418522 -0.032597654 0.047644705 0.0018235684 0.019717654 0.053951997
-0.09623714 0.08034518
00000000: 23a6 c73d c05c dabc f125 84bc 8a8b 2ebc
00000010: 38b7 bb3a e41f 75bd 5fde 8ebd 81c6 febc
00000020: c06b 81bd 761e 97bc 167c 74bc 4ba3 9f3c
00000030: e920 953d 094f 7f3c 725e e13c de37 543d
00000040: febe adbd 12c2 2e3d f0fb 233d 51fc 733d
00000050: faf1 8a3c 75a5 2d3c 1c26 f03b 8445 6a3d
00000060: 57b1 92bd 9f08 293d 4638 ad3d 9ca6 543d
00000070: c205 e43a 70a2 9dbc 157e 32bd d1b0 b03c
00000080: 2df1 73bd 91cd c5bd 6ddd 89bc 7645 183d
00000090: 5e9c 21bd f434 2dbd e1af 9cbd 7f29 b6bd
000000a0: 9402 58bd 08e1 893c d7ed 09bc 1e85 05bd
000000b0: 1827 433d cd04 ef3a eb86 a13c c5fc 5c3d
000000c0: fa17 c5bd 048c a43d
