ode_net/code/output/2022-8-2(6;14)_G690genes_150samples_200epochs/interm_models/best_val_model_epoch_1_sums.pt (torch, 140007 bytes, 2 tensors)

weight f4 [50, 690]
00000000: fc4d 7fbc e95d 8b3b efca 503b c0ed 60bb
00000010: 23c2 e9bc 92a2 123c b5bd c83b 61ea d73b
00000020: a00c 9ebb 57ac ae3b 0bc4 893a dbc5 a43b
00000030: d1e4 9d3b 33d2 033c dab2 743b fad2 e0ba
00000040: b731 62bb ae59 d0bc e909 44ba ba01 0b3b
00000050: 8b8f 07bd ac60 0bbd b6f9 9bbc e3f4 523c
00000060: 88bd 553c d5a9 0bbb c979 18ba bd12 dc3b
00000070: 1f90 d83b d577 1d3b c4f0 79bc 700b 13bc
00000080: 5952 433b bc22 2538 8f48 63bc ce97 5ebc
00000090: c4fd 4fbd 5f4e be3c 0621 4d3c fc17 9d3b
000000a0: 943e af3b 3f4d 1dbc 7fa1 56bd bdda a73b
000000b0: da01 1c3d f394 25bd 0a38 103c 7c01 1b3c
000000c0: 8c51 543b 14e3 b5bc 1dc5 fabc a73e 673b
000000d0: dfee 543b 35d7 07bc 9be8 233c 6495 e1bb
000000e0: abb8 7d3b 8dea 6c3c a258 503a 62d2 103c
000000f0: f5be 22bc 0855 df3b 5428 a0b9 03b0 683c
00000100: 2ac6 cd3b b5b5 f63b 6843 55b9 2ce1 843b
00000110: 8943 c2bb 543b 243b 6c48 2fbd 4bb8 1abc
00000120: 10f9 44bc 2200 0cbc c663 02bd 7b16 05bd
00000130: e6b6 9239 9235 b7bc 8a9e 85bd b470 dabc
00000140: f22e 3b39 7af4 a53c aed0 4fb9 97a0 35bd
00000150: f003 883b 1a33 f8bc d402 1cbc 7696 b03c
00000160: 04e1 7ebd 0f59 9cba ebe4 35bb ed59 0f3c
00000170: 4565 f9ba 2b6c 743c 600f 79bb ae71 e1b8
00000180: 2e70 a5bc cf91 e63b 302a 5e3c 95f5 d6bb
00000190: 7e10 fd3b d213 4a3c d9c7 3d3c 9448 963b
000001a0: ff20 f43b 61ac 95bb 83ac 743b 9914 8c3b
000001b0: 2484 68bc 8d09 36bb 3bd0 e03a 9955 bb3b
000001c0: df6c 67bd 2cda 90ba 4b3f b33b 5e04 873c
000001d0: fcf6 c83b 368b d73b b9b4 873b 2f61 f239
000001e0: fb98 95bb 4266 70bc 28e1 bfbb 4de9 333c
000001f0: b8d4 e73b dc21 25bc c0cf 143c ab54 0b3b
00000200: dc75 ff3b f076 e8bb 3f2f cfbc 58ec 043c
00000210: dae6 3ebb f1f4 073b 676e 9cbb 35a2 de3b
00000220: 1eb7 d1bb f849 1a3a cd7d c1bc 550e 9f3a
00000230: df24 2e3c 7ff1 313d e81e 943b f9a2 b53a
00000240: 3701 253b b30a 4abc 69e1 d23b e879 6bbc
00000250: 2ed9 d33b 6c3e 023c 6c09 c13b 4cd6 5c3a
00000260: d9d4 1c3c 0611 c137 b267 a8bc beb2 4a3b
00000270: 352c 093c beeb e73c 6a30 d5bc c222 2cbc
00000280: 6d0f 813b 5946 c7bc d029 aabb d383 f53b
00000290: 3892 c4bc 5866 2a3c 8a6c 893b a983 283c
000002a0: c265 a6bc 5b17 d13b 1b51 b439 46e4 78bc
000002b0: 8d4b db3a b77f a83a 1e1d c53b 71f4 cb3b
000002c0: cb1d de3b 5be5 383c d53c e93b 0129 c63b
000002d0: 40c8 8f3b 9d13 ef3a ab39 ea39 150a 503b
000002e0: ed44 9a39 5903 bb3b 0ade 71bd 7222 d43b
000002f0: e03c 73bb e3e6 c03b e826 e03b 3eb0 fdbc
00000300: 3ff3 403c 1e5a d43b 375b 333b c884 e03a
00000310: be32 563b 2fb0 d83b 18d7 8837 85e4 673b
00000320: d4b7 5e3b d74a b53b c54a 4d3b db64 f73a
00000330: 3d92 1cbb ea21 9c3b bb03 ba3b 6bd5 7b3c
00000340: 7745 ae3a 5214 a83b a830 f23b 32c3 cb3b
00000350: 464e 3f3a 8e1e 383c 2545 53bb f822 693b
00000360: 18d4 6c3b 2163 96bc f657 593c bb22 4fbc
00000370: 0f83 ecbb 72f8 9f3d 0e71 fab9 4344 db3b
00000380: 27f9 883b 67f0 923a 8901 e23b 3c1e 363b
00000390: b19c 133b da1c 753b dc8c 153c ce47 4f3b
000003a0: a84d 5ebc d9c4 a83a 75df 89bc fb3f fd3a
000003b0: 1ee8 073c 1c62 abbc dc56 4a3c 5c96 e63b
000003c0: e52c 483c fba0 97bc 9c81 38bb d3c5 c03b
000003d0: d394 89ba 525a 243c c0ee 003c c2da 593c
000003e0: cddb f23b 99f9 ac3a a4a0 663d c845 3d3a
000003f0: 8d9a 7e3b f3ba 83bc c1bf d73a 9696 a13b
-0.015582558 0.0042531383 0.003185924 -0.0034321398 -0.028534954 0.008949893 0.0061261305 0.0065892194
-0.0048232824 0.005330603 0.0010510696 0.005028469 0.004818537 0.008045721 0.003733805 -0.001715272
-0.0034514496 -0.025433388 -0.00074782834 0.0021210746 -0.033095878 -0.03402774 -0.01903997 0.012875768
0.013045676 -0.0021310945 -0.0005816487 0.006716101 0.0066089774 0.0024027724 -0.015255157 -0.008974895
0.0029803722 3.9371414e-05 -0.01387228 -0.013585998 -0.05077912 0.02323073 0.01252008 0.004794119
0.005348036 -0.009600936 -0.05240011 0.005122511 0.038087703 -0.040425252 0.008802423 0.009460803
0.0032397239 -0.022203006 -0.030611569 0.0035285146 0.003249101 -0.008291055 0.010004188 -0.006884264
0.0038714807 0.014460218 0.00079477776 0.008839222 -0.009933223 0.0068155564 -0.00030547625 0.014202121
0.0062797265 0.0075289854 -0.00020338374 0.004055163 -0.005928461 0.0025059776 -0.042793676 -0.009443353
-0.012022272 -0.008544954 -0.031833433 -0.032492142 0.0002798356 -0.022364412 -0.065243796 -0.02666507
0.00017851198 0.020258177 -0.00019818798 -0.044342604 0.00415086 -0.030297805 -0.009522159 0.02155612
-0.06222631 -0.0011928397 -0.0027754854 0.008749467 -0.0019027373 0.014918367 -0.003800355 -0.000107500106
-0.020195093 0.0070364247 0.013559863 -0.0065600374 0.0077229133 0.012333827 0.011583292 0.0045862887
0.0074502225 -0.0045676683 0.003733427 0.0042749164 -0.014191661 -0.0027776689 0.0017151901 0.005716991
-0.056500312 -0.0011051348 0.0054701916 0.016481575 0.0061329585 0.0065778745 0.004141417 0.00046230244
-0.004565356 -0.014672818 -0.005855698 0.010980916 0.0070749186 -0.0100788735 0.009082735 0.0021260183
0.0077960324 -0.0070942566 -0.025291083 0.008112989 -0.0029129297 0.0020745362 -0.004773903 0.006794239
-0.006400003 0.0005885656 -0.023619557 0.0012135009 0.010628908 0.0434432 0.004520286 0.0013857774
0.0025177726 -0.012331652 0.0064355624 -0.014372326 0.006465099 0.007949453 0.0058910158 0.00084242667
0.009572231 2.301532e-05 -0.020557258 0.0030929293 0.008372356 0.028310653 -0.026024062 -0.010506334
0.0039386065 -0.024325537 -0.0051929727 0.0074925213 -0.023995504 0.010400377 0.004193847 0.0102852965
-0.020312194 0.006380958 0.00034392704 -0.015191143 0.001673089 0.0012855445 0.006015434 0.006224208
0.006778454 0.011285151 0.0071178474 0.0060473685 0.0043878853 0.0018240098 0.00044674924 0.003174429
0.00029424523 0.005707186 -0.059049644 0.0064738328 -0.0037115142 0.005886899 0.0068405755 -0.030967828
0.011776744 0.0064804694 0.00273676 0.0017129416 0.0032684053 0.0066127996 1.6312624e-05 0.003538401
0.0033984082 0.0055326032 0.0031325084 0.0018874662 -0.0023890876 0.004764785 0.0056767142 0.015370707
0.0013295849 0.0051293755 0.007391054 0.0062183375 0.00072977354 0.011237754 -0.0032237258 0.0035573822
0.003613716 -0.018357815 0.0132656 -0.012642558 -0.007217772 0.07811059 -0.00047767948 0.006691487
0.004180092 0.0011210561 0.0068971557 0.0027789017 0.0022523815 0.003740123 0.009127822 0.0031628492
-0.013568319 0.0012876048 -0.016830185 0.0019321436 0.008295087 -0.020920806 0.01234981 0.007036967
0.012217735 -0.018509379 -0.0028153425 0.0058829575 -0.0010496624 0.0100313 0.007869422 0.013296785
0.007411456 0.0013196944 0.056305543 0.0007220176 0.0038849444 -0.016080355 0.0016460345 0.0049312813

bias f4 [50]
00000000: 9abe bc3c 4f2f 6a3c 40a1 613c 7792 223d
00000010: c317 07bc 1672 bf3c 65e4 f33c acf8 183d
00000020: ff46 e23b 901b 86bc c405 febc 2263 c6bc
00000030: c773 8bbc d17f 8fbc 7f15 21bd cfd0 f43b
00000040: 52cd 7bbb ff35 0f3b ce68 04bd 5fc7 673b
00000050: c359 03bd 124a 69bc b931 ebbc 9047 ce3c
00000060: 5186 8a3c 4bf2 d93c 5ed0 0e3c ef0e e23b
00000070: 66a2 09bd 0734 0abd 1c5f 433c 5f87 6cbc
00000080: c9bd 4eba 17a1 b3bc 8500 be38 5370 e43c
00000090: 7dd4 373c d2b5 fbbc 1228 013b 1562 213c
000000a0: 8842 c83c 71ab b5bc 1386 9eb9 f3db 5a3b
000000b0: 1bd6 4fbc 2cef eb3c 6159 1cbd f6a6 f23c
000000c0: 6044 eabc d70a 193d
0.023040105 0.014293506 0.013771355 0.03969046 -0.008245411 0.02336983 0.029771993 0.037346527
0.006905436 -0.016370565 -0.031008609 -0.024217192 -0.01702298 -0.017517002 -0.03932714 0.007471181
-0.003842194 0.0021852253 -0.032326512 0.0035366637 -0.032068025 -0.014238851 -0.028710233 0.025180608
0.01690975 0.026604792 0.008716671 0.006898753 -0.03360214 -0.033741023 0.011924531 -0.014436572
-0.00078865566 -0.0219274 9.060003e-05 0.027885592 0.011220095 -0.030726347 0.0019707722 0.009850045
0.024445787 -0.022176476 -0.00030236001 0.003339526 -0.012685324 0.02880057 -0.038171176 0.029620629
-0.028597057 0.037363853
