ode_net/code/output/2022-8-2(6;14)_G690genes_150samples_200epochs/interm_models/best_val_model_epoch_50_sums.pt (torch, 140007 bytes, 2 tensors)

weight f4 [50, 690]
000000 1f 0f 33 be 4f 27 e1 3d 2e 8f 8c be e2 82 7e 3e
       -0.17486237 0.10993826 -0.27452987 0.24854615
000010 6a b7 0c be e3 3b 84 3d 3a d5 f5 3d f6 44 9f 3e
       -0.13741842 0.06456735 0.1200356 0.311073
000020 7e 65 3c bd b8 67 20 be 07 05 a3 bd dd 1e c0 3c
       -0.045995228 -0.15664566 -0.07959943 0.023452217
000030 0a fe 15 3e cf ca b2 3e dc a1 40 be da 62 f3 3d
       0.1464769 0.34920356 -0.18811744 0.11884089
000040 0a fc 95 3d d5 a3 9d bd cc b1 18 be 80 87 d7 bc
       0.07323463 -0.07697264 -0.14911574 -0.026309729
000050 24 0c c5 bd e0 37 38 3e 32 67 e1 bd 06 9e 88 3d
       -0.09621456 0.17990065 -0.11006011 0.066707656
000060 89 a2 07 3e bc c3 3e 3e 43 c5 d6 3e 99 4c 20 bd
       0.13245596 0.18629354 0.41947374 -0.03913555
000070 fd 05 3c 3b b7 c6 21 3e f9 d0 c1 3c a9 3e b0 3c
       0.0028690093 0.1579846 0.023659216 0.021514254
000080 c8 a1 c1 3c 6a 8e 89 bd 6a d0 65 be 2a 6b 00 bd
       0.023636714 -0.067166165 -0.22442785 -0.0313522
000090 ee d5 0d bf 63 f7 58 3e de 6e a7 3e 77 0e 82 3e
       -0.55404556 0.2118812 0.32701772 0.2540166
0000a0 bb 55 a5 bd ad c1 4d 3d 05 51 f5 bb 21 07 56 3d
       -0.080729924 0.05023353 -0.007486465 0.052252892
0000b0 85 5e df 3c 9c c8 77 bd c3 4e 03 3f cd 00 49 3d
       0.02726675 -0.06049405 0.51292056 0.04907303
0000c0 14 86 83 3d 5f 83 91 bd 2d 55 65 3e 2c cb 10 3d
       0.06422058 -0.07105135 0.22395773 0.03535001
0000d0 20 31 68 3e f8 1e 5b 3d 26 fc 1b 3d f1 1d a8 bc
       0.2267499 0.05349633 0.038082264 -0.02052209
0000e0 70 01 d5 3d 4c f1 65 3e 0c fb 02 3d c9 ec 33 be
       0.10400665 0.22455329 0.0319777 -0.17570795
0000f0 43 ec 74 3e 8c 31 34 3d a5 9e 10 3d 9b f8 e0 3c
       0.23918252 0.043992564 0.035307545 0.027462294
000100 96 fb dd 3d 95 14 64 bd af f8 5c 3f b2 ee a8 3d
       0.10839002 -0.05568369 0.8631696 0.082486525
000110 7b dc 1c be cc 20 14 be 5b 2a b6 be 23 9b ab 3e
       -0.15318482 -0.14465636 -0.3557919 0.33516797
000120 cd 8d 81 3e d8 44 b4 bd 6a db a8 bd bb 0a d5 bd
       0.25303498 -0.088021934 -0.08244975 -0.10402437
000130 3e 9e 81 bd 99 9d 45 3e 79 a7 1d bf 83 c3 9d 3d
       -0.063290104 0.192984 -0.6158367 0.077033065
000140 00 59 9f 3d e5 13 aa 3c 2b e5 73 3b 6c 8f dd 3d
       0.07780647 0.02076144 0.0037215452 0.10818371
000150 75 a3 4b 3d 29 5e ad be ef f3 cb 3d 99 11 80 3e
       0.04971643 -0.338609 0.09958636 0.25013426
000160 72 7a 62 bf df b6 30 3e cd 9f 1f 3e 46 8e ae be
       -0.88468087 0.1725726 0.15588303 -0.3409292
000170 51 0b 6d be 4d 5a 20 3e 29 72 b5 3e eb b0 df bd
       -0.23148848 0.15659447 0.3543866 -0.10922416
000180 fe 12 75 be 93 22 c8 bd 52 36 67 bd 21 d9 d4 bc
       -0.23933026 -0.097722195 -0.05644829 -0.025982441
000190 25 35 3e bd bb c7 13 be 44 6c 05 3d 79 ca 8e be
       -0.0464374 -0.1443166 0.032573953 -0.2788885
0001a0 be 5d e6 3d fe 3b 60 be 90 f0 a9 be 29 b9 b9 bc
       0.11248349 -0.21897885 -0.33191347 -0.022671299
0001b0 45 7a 2b bc af be b6 bd a4 de 22 3e 57 6c 1c 3e
       -0.010466163 -0.08923089 0.15905243 0.15275703
0001c0 e0 08 0c bf ac 62 ad be a2 e0 f6 bc 49 21 32 3e
       -0.5470104 -0.33864343 -0.03013641 0.1739551
0001d0 82 fa ba bd f5 37 10 bc 8f 18 06 3e 78 04 8e 3e
       -0.09129812 -0.008802404 0.13095306 0.27737784
0001e0 49 73 d5 bd 18 63 a1 3e dc 37 47 3e 88 a5 85 3b
       -0.104223795 0.31520915 0.19454902 0.0040785708
0001f0 9b 4e 97 be 0a 2c a9 3e 89 28 3e 3e 5c 28 c3 be
       -0.2955216 0.33041412 0.1857015 -0.3811673
000200 4d 08 a3 3a f3 6b 40 bf 1e 7a 20 bc 7f d8 da bd
       0.0012438387 -0.7516472 -0.00979474 -0.106858246
000210 28 f4 70 bd 68 32 35 bc e2 95 c2 3c f2 cb 47 3d
       -0.058826596 -0.011059381 0.02375311 0.04877848
000220 18 f6 d9 bc fb a3 0a 3d 82 d0 33 3c 27 5a 13 bc
       -0.026606604 0.03384779 0.010975005 -0.008993662
000230 6f e6 ed 3c 7e 72 5a 3d 88 1a 6e bb b2 80 91 3c
       0.029040543 0.053331845 -0.0036331732 0.017761562
000240 ae c8 c8 3c 61 a2 ac 3c 3f 4b 5f bc 15 b7 7c bc
       0.024509754 0.021073522 -0.01362878 -0.0154245095
000250 04 31 63 ba 5f 63 1c bb a3 35 51 bb 01 71 75 3c
       -0.00086666667 -0.002386294 -0.003192284 0.0149805555
000260 d7 98 dc 3b 6e 23 43 3d ce d1 51 3c 2b 59 c3 bb
       0.006732087 0.04764121 0.012806369 -0.0059615574
000270 1f 7f df bb aa 60 3d 3c f5 08 08 bd a4 8d e8 bc
       -0.006820574 0.011558691 -0.033211667 -0.028387852
000280 1e 2d cf 3c 19 53 c0 3b d4 2c 69 3c 3d 5e 90 3c
       0.025290068 0.005869281 0.014231879 0.017623061
000290 59 fc 20 3c ff 04 18 3a 59 81 8e bc ce 33 36 3c
       0.009825789 0.00057990843 -0.017395662 0.01112075
0002a0 21 1e d5 bb 2b 53 83 bc 72 87 88 3b 9f 74 0a 3b
       -0.006503836 -0.016030869 0.004166537 0.002112664
0002b0 21 29 36 bc 23 01 3b bb 6b 2d 4d bd 69 e1 50 bc
       -0.011118204 -0.0028534613 -0.050092142 -0.0127490545
0002c0 94 18 2a 3a 19 eb 93 3c f7 a8 a8 bc 62 fc 9d bc
       0.0006488648 0.01805644 -0.020588381 -0.019285385
0002d0 8b 66 97 bc 5b 92 09 bd 16 a2 00 bc 9e c0 82 bd
       -0.018481513 -0.03358684 -0.007851144 -0.06384395
0002e0 de 07 2d bd 9c 67 4b bd 0e b4 6d 3c 50 9c 8c 3c
       -0.04224383 -0.049659356 0.01450826 0.01716438
0002f0 80 88 09 3d 77 03 82 bb 4b ef 10 bc 1b d7 e3 bb
       0.033577442 -0.003967698 -0.008846114 -0.006953133
000300 19 fd f9 b9 4a 96 a9 3c a3 cd 08 bc 27 fc 72 bc
       -0.00047681553 0.020701546 -0.008349809 -0.014830626
000310 9c 90 13 bc 76 c5 3c bc 7c 86 8a bc ff 14 a3 bc
       -0.0090066455 -0.011521688 -0.01690983 -0.019907473
000320 77 46 91 3b a8 58 96 bb e8 dd 77 3c 94 75 d6 3c
       0.004433449 -0.0045882054 0.01512859 0.026179112
000330 d8 04 93 3c b2 89 1b b9 20 ea 99 bc 15 98 e1 bc
       0.017946646 -0.00014833247 -0.018788397 -0.027538339
000340 d6 56 c7 3c 11 4c 98 bb be dd 40 bb 8b 9e 1b 3c
       0.024333399 -0.0046477397 -0.0029429044 0.009498249
000350 f0 c5 6a 3d 4e 75 89 3c b1 fe 3e 3d de b9 b5 3c
       0.057317674 0.016779568 0.04662961 0.022183355
000360 70 66 c4 3c 24 b3 d7 3c 68 a3 29 3c ba 1a 01 3c
       0.023974627 0.026330538 0.0103539005 0.007879907
000370 23 a8 7e 3c 20 8e ca 3b c1 36 f9 3c 06 ca 12 3d
       0.015543017 0.0061814934 0.030421617 0.035837196
000380 e6 e5 8b bb 48 89 3b bb db 6b 82 3b c2 60 96 3b
       -0.0042693494 -0.0028615762 0.0039801425 0.004589171
000390 5c 4f 3c 3c b5 4a 0b bd 8c cd 11 3c 5c 1b a1 bc
       0.01149353 -0.034006793 0.008899104 -0.019666366
0003a0 36 4c 46 3c 75 13 0d bc 5c 88 71 3c 16 31 94 bc
       0.012103131 -0.008610596 0.014741983 -0.018089812
0003b0 ff c6 fa 3b f9 6a 3e 3c 22 85 24 3a 89 83 ea 3c
       0.0076531167 0.011622184 0.0006275942 0.028627174
0003c0 cb 61 fe 3b 9b 0a da bb 59 22 30 3c 1d 23 62 3c
       0.0077631227 -0.0066540963 0.010750377 0.013802317
0003d0 2e 17 9c 3c d8 ef b0 3a d8 af ea 3b ca 16 c4 3a
       0.019054022 0.0013499213 0.0071620755 0.0014960405
0003e0 1d a7 fd 3c fc 67 b7 3b d6 c3 04 3b fb d9 95 3c
       0.030963475 0.0055971127 0.002025833 0.018292418
0003f0 12 09 a9 3b 52 d0 75 bc 5b 6e 99 3c 88 e6 41 3d
       0.005158552 -0.015003281 0.01872938 0.047338992

bias f4 [50]
000000 9c fa bb 3d 8d 72 f1 bc e3 8d 9c bc 26 e3 03 bc
       0.09178659 -0.029473567 -0.019110626 -0.008049762
000010 c8 b8 fc bb 91 14 47 bd 80 88 62 bd bd ea ea bc
       -0.0077124573 -0.048603598 -0.055305958 -0.028676385
000020 7b f4 4f bd 0f c2 9f bc 55 84 96 bc 77 05 86 3c
       -0.050770264 -0.019501714 -0.018373648 0.016360028
000030 54 48 7b 3d 7e c0 29 3c 5c a8 c5 3c 6e e2 24 3d
       0.061348274 0.010360835 0.024128132 0.040255003
000040 53 61 97 bd 67 76 3a 3d e3 69 1e 3d db a8 2f 3d
       -0.0739161 0.045523074 0.0386752 0.042885642
000050 1a 1d 7f 3c c9 3c fb 3b 47 c9 40 3c 41 2e 58 3d
       0.015570903 0.0076671583 0.011766738 0.052778486
000060 71 f0 4e bd c2 2e 3d 3d 46 3a a1 3d 2b 9c 5b 3d
       -0.05052227 0.04618717 0.07872443 0.05361573
000070 2a b0 9f bb 79 1b cd bc c8 71 05 bd 72 ae 9a 3c
       -0.0048732953 -0.025037514 -0.032579213 0.01888201
000080 2c f3 4e bd bd a8 ba bd bc 16 93 bc ba b3 0a 3d
       -0.050524876 -0.091142155 -0.017955177 0.033862807
000090 00 21 05 bd 1a f1 14 bd 89 cc 80 bd f1 10 9b bd
       -0.032502174 -0.036362745 -0.06289012 -0.07571591
0000a0 71 af 34 bd 46 17 9c 3c 13 c3 17 bb 62 c2 e3 bc
       -0.044112626 0.019054066 -0.0023157045 -0.02780265
0000b0 96 51 17 3d 53 ec dd b9 ca 64 20 3c 2f 18 5b 3d
       0.03694304 -0.0004232848 0.009789655 0.05348986
0000c0 34 bd ae bd 64 cf 8e 3d
       -0.085321814 0.0697315
