ode_net/code/output/2022-8-2(6;14)_G690genes_150samples_200epochs/interm_models/best_val_model_epoch_100_sums.pt (torch, 140007 bytes, 2 tensors)

weight f4 [50, 690]
00000000: 3430 3dbe ed36 bc3d d904 66be aaff a03e
00000010: 85de fdbd b6ac e03c 05f0 b33d 6c1d a23e
00000020: c0fd 74bd 84c3 39be 8733 d1bd 0696 163d
00000030: bead 133e a6c8 b73e 10c6 5cbe e83a 073e
00000040: 8b15 d53d 3aad 89bd 6754 c3bd aebb f3bc
00000050: 1ddf 93bd d546 3f3e 3a1f f3bd 5af3 683d
00000060: 2f35 143e fc93 343e 7e18 e13e dbc9 cbbb
00000070: b9a3 f73c 5914 fd3d 44ba 8d3c 3272 933c
00000080: f7b3 693b 3720 c3bd 58f6 81be 958c 55bc
00000090: d7ff 0cbf 9e04 593e ac84 953e 2700 813e
000000a0: 75a1 33bd cb6b 843d 68a9 043d f060 0f3d
000000b0: eaa2 0c3d c049 95bd 9652 003f e206 183d
000000c0: ef29 8f3d 2173 afbd 512b 443e 07e8 de3b
000000d0: 6e5b 983e fab3 503d 500c 773d c3e8 e7bc
000000e0: 7b2c 9a3d 062a 1b3e b500 133d 0576 98be
000000f0: b87f 9c3e 0bd5 053d 6aa9 b13c 4e47 d53b
00000100: ef36 a73d 9200 70bd 839f 5a3f 3433 2a3d
00000110: cba1 1dbe 6c24 bdbd aa3e a6be 5a9a a23e
00000120: fd85 8c3e ab3a bbbd 8ed7 babd d462 c9bd
00000130: fff1 e7bd 2feb 323e 64fc 26bf 5651 a33c
00000140: 3e51 c53d 8338 043d af74 dbbc f73e f53d
00000150: 4044 633d 3962 b3be 3531 063e 6917 833e
00000160: 0c9d 68bf 6404 263e daf4 313e 5ce3 b8be
00000170: be75 9ebe e9d8 213e 2571 b23e 2695 ecbd
00000180: 0914 88be 3c56 c9bd 2332 08bd 3198 723c
00000190: b3c8 36bd 8dd4 23be 48e3 5abb f8ff 98be
000001a0: 9b39 2e3e 916f 43be c254 dcbe c4a2 bcbc
000001b0: 1d2a 58bc d7d1 84bd 3c19 223e dfae 283e
000001c0: 8e25 15bf 204f bebe 6175 47bd 3c91 4b3e
000001d0: cb5d 8abd f2ed bc3c afb7 d33d d13b 963e
000001e0: 6d70 a3bd 3871 803e bfc9 523e 1856 c2bc
000001f0: 180d a0be 46c0 b43e 6e05 533e 68b0 d4be
00000200: b572 37bc a690 43bf 7d14 133c 5c4c b5bd
00000210: 91d9 b4bd a343 aabb 781f b13c 128c 2b3d
00000220: 8a13 e6bc 8d79 fb3c 6d9a 7a3c f6a1 fcbb
00000230: 7427 e43c 8798 463d 3c02 f03b 330f c63c
00000240: edab 013d 8ef8 c93c b5c6 6ebc 45b0 10bc
00000250: 8bd3 403b 02ad 28bc 5fab 6a3b a8ff 473c
00000260: 2aa3 053c 42b1 1e3d 3e91 1e3c 3512 21bc
00000270: b9cc e2bb 4d61 9f3c dffc 05bd 202f cfbc
00000280: b827 993c c613 7b3b 9c6e 743c 779a 823c
00000290: f13f 323c d6e5 943b ef2c 00bc b379 a03c
000002a0: aa6f 5e3b eb84 26bc d54b 623c 8752 f03b
000002b0: 3717 6ebc be47 cfbb a999 25bd f2a1 efb9
000002c0: 4bc4 553b 24c1 b43c 061d 6dbc 5c0f 4abc
000002d0: c632 83bc 4127 12bd c3c8 03bb 53c6 64bd
000002e0: 4a57 00bd c569 3fbd f023 ae3c b077 893c
000002f0: 6555 103d f154 5c3a a35b 08bc dd07 b23b
00000300: d4ea 0d3b 73fa d13c b7be 74bb 977c 0ebc
00000310: 0d14 c63a 09eb 69bc cff2 51bc e037 3abc
00000320: 559d 733c f81e 1c3c 0893 1a3c 5d24 e73c
00000330: a433 743c 8f23 933b 0469 54bc c711 e2bc
00000340: a623 a13c 6be6 a4bb b6ec 873c 5463 0c3c
00000350: 3c6b 4e3d e787 d83c e910 333d 6385 923c
00000360: ef84 b93c 8ae2 033d db8b 3f3c 2d8c 303c
00000370: ec75 7b3c 1623 0b3c d99c ec3c 3def 1b3d
00000380: 8ee1 29bb d295 a13b 41f8 0f3b 43b8 343c
00000390: e732 933c 6ba6 d3bc 99b3 433c 063b 84bc
000003a0: 7e02 743c c070 8b3a b04d ce3b 8b2c b5bc
000003b0: f2c2 563b 7cef 463c 5f17 933b fb54 b53c
000003c0: 17ab 963b 286b f9bb 90ab ea3b 45fe 923c
000003d0: 01a7 543c 7eed 16bc 0706 203c 597a abbb
000003e0: 79f4 033d 8c62 de3b bda7 1abc 7ac4 743c
000003f0: a57a e33a c131 9ebb cc29 8d3c a567 3c3d
-0.1847542 0.09190164 -0.22462787 0.31445056 -0.12395958 0.027426105 0.087860145 0.31663072
-0.059812307 -0.1814099 -0.10214906 0.036764167 0.14421746 0.3589527 -0.2155993 0.13206065
0.104044996 -0.067224935 -0.09537583 -0.029752579 -0.0722029 0.18679364 -0.1187119 0.056872703
0.14473413 0.17634577 0.43964 -0.0062191314 0.030229436 0.12357397 0.017300732 0.017998789
0.0035660246 -0.09527629 -0.25383258 -0.013034006 -0.5507788 0.21193168 0.29202783 0.2519543
-0.04385515 0.064658724 0.03238812 0.035004556 0.034335054 -0.07289457 0.50126016 0.03711594
0.0699042 -0.08566881 0.19157149 0.006802562 0.29757255 0.05095289 0.060314476 -0.028309232
0.07528015 0.1515275 0.035889346 -0.29777542 0.30566192 0.032673877 0.021687228 0.0065087443
0.081647746 -0.058594294 0.85399646 0.041552737 -0.1539375 -0.092354625 -0.32469684 0.31758386
0.27445975 -0.091420494 -0.09123145 -0.09833303 -0.11325454 0.17472528 -0.6522887 0.019936245
0.09634636 0.032280456 -0.026789038 0.119749 0.05548501 -0.35035875 0.13104708 0.25603798
-0.90864635 0.16212612 0.1737856 -0.3611096 -0.30949205 0.15805401 0.34851947 -0.11551885
-0.26577786 -0.09830901 -0.03325094 0.014806793 -0.044624995 -0.1599905 -0.003339963 -0.2988279
0.17014162 -0.19085528 -0.43033415 -0.023026831 -0.013193634 -0.06485336 0.15829939 0.16472958
-0.5826043 -0.37169743 -0.048695926 0.19879621 -0.06756171 0.02306268 0.10337769 0.2934251
-0.07980428 0.2508638 0.20584773 -0.023722693 -0.3125999 0.35302943 0.2060754 -0.41540837
-0.011196782 -0.7639259 0.008977053 -0.08852455 -0.0883056 -0.005196051 0.02162145 0.04188163
-0.028085489 0.030697608 0.015295607 -0.007709737 0.027850844 0.048485305 0.007324485 0.02417717
0.0316581 0.024654653 -0.014573743 -0.008831088 0.0029422964 -0.0102951545 0.0035807712 0.012206949
0.008156577 0.038743265 0.009678183 -0.009831001 -0.0069213775 0.019455576 -0.03271186 -0.025291026
0.018695697 0.0038311346 0.014918949 0.015942795 0.010879503 0.004544 -0.007823213 0.01958928
0.0033941069 -0.010163526 0.013812025 0.007334057 -0.014531902 -0.006325691 -0.040429745 -0.0004570629
0.003261822 0.022064753 -0.014472252 -0.0123327635 -0.016015422 -0.035681967 -0.0020108677 -0.0558532
-0.031333245 -0.04673173 0.02125737 0.016780704 0.03523769 0.0008404991 -0.008322629 0.0054330663
0.002165486 0.025632119 -0.003734512 -0.008696697 0.0015112177 -0.014277228 -0.012814238 -0.011365861
0.014869054 0.009528868 0.009434469 0.028215582 0.01490489 0.004490323 -0.012964491 -0.027596368
0.019670319 -0.005032351 0.016592365 0.008568604 0.050395235 0.02643199 0.0437173 0.01788587
0.022646395 0.032198466 0.011691059 0.010775608 0.015347939 0.008492252 0.028883385 0.038069952
-0.0025921795 0.00493119 0.002196804 0.01103026 0.017968608 -0.02583619 0.011944675 -0.016141426
0.014893172 0.001063846 0.006295882 -0.022115966 0.0032770005 0.012142058 0.00448887 0.022135248
0.004598032 -0.007611651 0.007161565 0.01794351 0.01297927 -0.009211896 0.009767062 -0.005233091
0.03221557 0.00678665 -0.009439406 0.014939422 0.0017355277 -0.0048277085 0.017231844 0.04599728

bias f4 [50]
00000000: 7f84 ca3d 8bcb cbbc a235 80bc 3004 55bc
00000010: 9899 d03b 1a1e 85bd e5fd 9abd 79c6 04bd
00000020: eaa0 8cbd d106 95bc f7c3 82bc 899a a63c
00000030: d0df 9d3d c505 953c 22ee e83c 9d57 673d
00000040: 30b7 b6bd 65d1 2a3d 6ac5 1e3d 4b4f 8a3d
00000050: babb 8f3c c085 463c fef8 aa3b bcf2 733d
00000060: 75a8 a2bd 9e98 1e3d 3331 b03d d3bf 4e3d
00000070: d1cb 593b e82d 8ebc 982f 49bd 96a5 b43c
00000080: 156b 84bd 439b cabd a225 84bc 12b2 1c3d
00000090: b2a5 2bbd a306 34bd c1ab aabd e6f0 bdbd
000000a0: f2c1 67bd f3ad 863c 0817 19bc 62c8 0abd
000000b0: 0bee 523d 8187 b23b 34d3 c43c 8a03 5f3d
000000c0: 0c43 cfbd f332 af3d
0.09888553 -0.02487733 -0.015650574 -0.013001487 0.006365966 -0.06499882 -0.07567958 -0.03241584
-0.068666294 -0.018191727 -0.015962584 0.02033736 0.077087045 0.018191228 0.028433863 0.05648004
-0.08921659 0.0417036 0.038762487 0.06753405 0.01754557 0.012116849 0.0052176705 0.05955766
-0.07942287 0.038719766 0.08603134 0.050475907 0.0033233056 -0.017355874 -0.049117655 0.022051614
-0.06465737 -0.09892895 -0.016131226 0.03825576 -0.041906066 -0.04395164 -0.08333541 -0.09274463
-0.056581445 0.016440367 -0.00934387 -0.033882506 0.051496547 0.005448282 0.02402649 0.054446734
-0.1012021 0.0855464
