ode_net/code/output/2022-8-2(6;14)_G690genes_150samples_200epochs/interm_models/best_val_model_epoch_100_alpha_comb.pt (torch, 277419 bytes, 1 tensors)

weight f4 [690, 100]
00000000: a069 b834 8096 b735 081c c035 a0d2 8db5
00000010: cc2b fbb5 e387 b5b6 b092 75b6 521a 2236
00000020: fec6 0036 f875 9ab5 d00b 7435 01a9 cc35
00000030: 869d 4436 5ca2 bc35 8f83 b036 34e3 f2b5
00000040: f618 26b6 1cdb f235 d43a 8336 18bd c4b5
00000050: 606d 20b5 20f2 b434 a4fb a035 c843 9bb5
00000060: 18bf 3235 8438 a6b5 d039 8734 74fb b535
00000070: c44e fbb4 1087 3fb6 c449 84b4 9ce2 f4b5
00000080: 5603 9eb6 7467 6ab6 4862 3db5 6eff 8835
00000090: 6c49 8cb6 a8f3 2cb6 40dd 8034 f68e 8fb6
000000a0: 8ee0 1bb6 34f9 c2b5 6a04 49b6 f60d d535
000000b0: c829 3a36 cca3 9735 804a b3b4 3049 beb4
000000c0: 488b 89b6 aa7a 5736 0861 a035 7082 b935
000000d0: 7c28 2d36 b04e 5735 4894 7536 686b c835
000000e0: c090 3f35 1800 e835 0f2d 23b8 979d 19b7
000000f0: 4072 2bb5 7035 1236 74e8 2b36 806c 0536
00000100: 5045 0735 183a 9735 7033 5135 f8c8 ee35
00000110: 409c d734 d8b5 cc35 306e 0135 c858 45b6
00000120: 0087 e435 d84a cc35 48ad bf35 50a7 23b5
00000130: 1448 3ab6 2cca 3136 6887 9135 c007 0bb6
00000140: 8c84 0336 d062 2c35 207e 0935 60db 0cb6
00000150: c040 c8b4 2a3c 06b7 a816 2f36 e090 a534
00000160: 0021 20b5 ecb0 4e36 a038 f134 9c1f 4a36
00000170: 80bf a7b4 40a9 4eb5 a04d a3b5 00d0 4b34
00000180: c0bc d3b4 4bd2 443a a4e0 4136 f24c cfb8
00000190: ecd7 1cb7 5fb9 c0b8 2b75 0038 344c a2b7
000001a0: bc05 82b8 6b05 c7b8 ec55 8c37 a41f e137
000001b0: 415c 1a37 3ce1 c0b8 8591 01b8 c470 d0b6
000001c0: 6ec6 63b8 2cc3 37b8 4b8d cb38 aab5 e5b7
000001d0: 380b b637 3e45 7b38 6fd4 2c38 d8ba 72b6
000001e0: 55d7 3038 1309 9837 b96e acb7 0e87 03b7
000001f0: af2d 02b9 d473 8c37 ea6a 68b8 f8cc 3436
00000200: 7530 8737 d0b2 10b7 3ff1 95b7 9e04 ea38
00000210: 8cc8 3c38 3b22 7037 4738 a938 3b9a a8b7
00000220: fc4e 81b8 c008 1bb8 e70f 4c38 63f5 61b8
00000230: 1b1f 4bb8 9601 4338 1be4 10b8 f789 4738
00000240: c294 e437 fcb8 7eb8 5a02 a8b8 3e37 3eb7
00000250: 575e 0938 6467 42b8 3e4f ef37 be30 a2b6
00000260: ea8e b8b6 18f2 5238 761d e337 4002 6b37
00000270: 58ca be37 2e58 adb7 159b 72bb 409b 95ba
00000280: d6a8 2b38 ac7d 0437 c8ac 2ab9 a8e4 0139
00000290: a557 c1b8 0a0b 4838 cada 3ab6 f25f 1637
000002a0: eb55 b3b8 8c52 82b8 c6ab 8138 9bc4 b9b9
000002b0: 4eeb e2b6 a34a 79b8 7853 b637 7c55 b7b8
000002c0: f735 eeb9 967d 2438 9ae9 5cb8 00f7 3637
000002d0: 8914 3db7 2a68 afb8 f0cb 17b8 4a86 38bb
000002e0: a591 22b8 8df8 1eba 5690 4937 9c7f 8c38
000002f0: 03f9 36b8 5bfd cb38 e605 34b6 a70f a138
00000300: ad4e 8a38 de1a 0bb8 c982 d0b8 06d3 42b8
00000310: 2792 da37 9854 833c 6582 0c38 34ee c03c
00000320: d867 dfb6 679e 9bb7 596d dc35 b698 8e37
00000330: d55e 4ab6 1351 2438 bd48 d537 a3c9 29b7
00000340: bcbb 96b7 fe6d 8fb6 e5e1 e1b5 fdcd 05b7
00000350: a334 fab7 36c4 0bb8 56ee 59b8 95ab 1d38
00000360: 9e26 3a38 d728 1ab7 9510 a4b7 8ece 3137
00000370: 8dd1 5f35 6d0a eeb6 2829 0eb7 d160 1237
00000380: b687 7cb7 d707 b037 daa2 dbb7 e5f9 0db8
00000390: 2573 1137 c6cc cd37 692c a1b4 b74c 4238
000003a0: 6771 a538 f567 0e38 d274 c437 6efd 91b7
000003b0: 62ac 3138 1c32 b237 08ac be37 8b7b d037
000003c0: f00f f637 e1e8 edb5 f178 7337 514a aab7
000003d0: a878 1ab8 9506 cab7 932c b8b7 93eb 3136
000003e0: 993b 9038 f785 0eb8 51ba af36 fb1e 2ab7
000003f0: 95ee 09b8 bffa 4537 2682 bfb6 1632 f236
3.4349523e-07 1.3678364e-06 1.4313273e-06 -1.0566619e-06 -1.8713704e-06 -5.4100396e-06 -3.6593228e-06 2.4155202e-06
1.9189315e-06 -1.1508228e-06 9.091427e-07 1.5248371e-06 2.9297967e-06 1.4054344e-06 5.260524e-06 -1.809653e-06
-2.4750457e-06 1.8094174e-06 3.9109527e-06 -1.4658171e-06 -5.9763806e-07 3.3703782e-07 1.1994166e-06 -1.1568127e-06
6.6588245e-07 -1.2384412e-06 2.5187774e-07 1.3558733e-06 -4.6809703e-07 -2.8539835e-06 -2.4640588e-07 -1.8245369e-06
-4.7091553e-06 -3.4928935e-06 -7.0551005e-07 1.020713e-06 -4.1808726e-06 -2.5771824e-06 2.4002838e-07 -4.278375e-06
-2.3227508e-06 -1.4526654e-06 -2.9953903e-06 1.58738e-06 2.774048e-06 1.1298048e-06 -3.3395554e-07 -3.544351e-07
-4.0991326e-06 3.2108896e-06 1.1949169e-06 1.3821536e-06 2.5802574e-06 8.0208247e-07 3.6594156e-06 1.493242e-06
7.1363684e-07 1.7285374e-06 -3.8904192e-05 -9.156202e-06 -6.386872e-07 2.17868e-06 2.5616291e-06 1.98817e-06
5.039228e-07 1.1267284e-06 7.793342e-07 1.7790871e-06 4.0160558e-07 1.5252108e-06 4.821659e-07 -2.9406965e-06
1.7026614e-06 1.5220967e-06 1.428104e-06 -6.0965704e-07 -2.7758115e-06 2.6492735e-06 1.084275e-06 -2.0717125e-06
1.9597674e-06 6.4218784e-07 5.1220013e-07 -2.0989319e-06 -3.7300015e-07 -8.00103e-06 2.609022e-06 3.0839055e-07
-5.9652666e-07 3.0799374e-06 4.4930948e-07 3.0118745e-06 -3.124551e-07 -7.698727e-07 -1.2167038e-06 1.8981518e-07
-3.9439146e-07 0.0007508143 2.889e-06 -9.884861e-05 -9.348598e-06 -9.1898015e-05 3.06267e-05 -1.934739e-05
-6.199951e-05 -9.4900686e-05 1.6729311e-05 2.6836824e-05 9.200595e-06 -9.1972266e-05 -3.0891522e-05 -6.2120107e-06
-5.430582e-05 -4.3812368e-05 9.706112e-05 -2.7383521e-05 2.1701315e-05 5.990755e-05 4.120584e-05 -3.6169567e-06
4.2162214e-05 1.8124038e-05 -2.0555557e-05 -7.839653e-06 -0.00012414785 1.6743237e-05 -5.5412682e-05 2.6941398e-06
1.6115819e-05 -8.624702e-06 -1.7874523e-05 0.000111588495 4.5009467e-05 1.4313085e-05 8.0690304e-05 -2.009898e-05
-6.165911e-05 -3.696303e-05 4.86522e-05 -5.3872714e-05 -4.842794e-05 4.64931e-05 -3.4544715e-05 4.7573787e-05
2.7248989e-05 -6.07306e-05 -8.011302e-05 -1.1337745e-05 3.2751206e-05 -4.6349494e-05 2.852792e-05 -4.8336506e-06
-5.5002647e-06 5.029337e-05 2.7074228e-05 1.4007615e-05 2.2743989e-05 -2.0664269e-05 -0.0037018706 -0.0011414066
4.0926818e-05 7.897073e-06 -0.0001627683 0.0001238758 -9.219282e-05 4.7693997e-05 -2.7843512e-06 8.963036e-06
-8.5513886e-05 -6.2142586e-05 6.183195e-05 -0.00035432432 -6.762718e-06 -5.9435737e-05 2.1734959e-05 -8.742043e-05
-0.00045435104 3.9217608e-05 -5.2669646e-05 1.09055545e-05 -1.1270059e-05 -8.364052e-05 -3.6191137e-05 -0.0028156214
-3.8759452e-05 -0.00060642586 1.2014139e-05 6.699489e-05 -4.362409e-05 9.7269854e-05 -2.6825523e-06 7.679994e-05
6.595007e-05 -3.3165205e-05 -9.9425735e-05 -4.6449735e-05 2.6055683e-05 0.016031548 3.350004e-05 0.023551084
-6.658007e-06 -1.8551202e-05 1.6423102e-06 1.699883e-05 -3.0155545e-06 3.9176153e-05 2.542545e-05 -1.0120132e-05
-1.7968814e-05 -4.274537e-06 -1.682955e-06 -7.975378e-06 -2.9826833e-05 -3.3322918e-05 -5.19588e-05 3.7591515e-05
4.438182e-05 -9.188624e-06 -1.9558045e-05 1.0598114e-05 8.337891e-07 -7.0941664e-06 -8.473442e-06 8.72482e-06
-1.5051968e-05 2.0984486e-05 -2.6182668e-05 -3.3849752e-05 8.669483e-06 2.453326e-05 -3.00209e-07 4.632465e-05
7.888936e-05 3.3952256e-05 2.341942e-05 -1.740336e-05 4.2360633e-05 2.1242588e-05 2.2729873e-05 2.4853061e-05
2.9332907e-05 -1.7725653e-06 1.4512088e-05 -2.0300185e-05 -3.682883e-05 -2.4083341e-05 -2.1955266e-05 2.6512178e-06
6.877556e-05 -3.3980203e-05 5.2370965e-06 -1.0140003e-05 -3.2885542e-05 1.1800496e-05 -5.707395e-06 7.217993e-06
