ode_net/code/output/2022-8-2(6;14)_G690genes_150samples_200epochs/interm_models/best_val_model_epoch_50_prods.pt (torch, 140007 bytes, 2 tensors)

weight f4 [50, 690]
0	0x3c981f94	0.018569745
1	0xbd2114ff	-0.039326664
2	0xbd0d0c5b	-0.03443561
3	0xbb1c6122	-0.0023861607
4	0x3cb08971	0.021549912
5	0xbd874d56	-0.066065475
6	0xbd95b120	-0.073091745
7	0x3a896257	0.0010481578
8	0x3b3e5e5a	0.0029047937
9	0x3c921576	0.017832499
10	0x3be93539	0.0071169403
11	0xbb8a8e50	-0.0042283908
12	0xbced4535	-0.028963665
13	0xbd04eb26	-0.032450818
14	0xbb7d1232	-0.0038615582
15	0xbc6305e0	-0.013856381
16	0xbcc0088f	-0.023441581
17	0xbb16e64e	-0.0023025456
18	0xbcbfbb0c	-0.02340462
19	0xbc232d9d	-0.0099596055
20	0x3d998b52	0.07497276
21	0xbcbbe4bf	-0.022936223
22	0x3d434cef	0.04768079
23	0x3b8564a8	0.004070837
24	0x3b887f31	0.004165553
25	0xbca350a8	-0.01993592
26	0xbd47ea80	-0.04880762
27	0xba2afcb8	-0.00065226434
28	0xbd4b0e7b	-0.049574357
29	0x3cec8136	0.028870206
30	0xbcb648a9	-0.022251444
31	0x3b9e8f30	0.0048388466
32	0xbc22ae30	-0.009929225
33	0xbd652be6	-0.055950068
34	0xbcc2ef6e	-0.02379581
35	0xbc28b72f	-0.010297581
36	0xbcc724e8	-0.02430959
37	0xbcc6de86	-0.02427603
38	0xbd001018	-0.03126535
39	0x3cce1392	0.025155816
40	0xbcb60268	-0.022217944
41	0xbc818521	-0.015810551
42	0xbc1afce2	-0.009459706
43	0xbc3db06c	-0.011577707
44	0xbb628278	-0.0034562629
45	0xbcf1463a	-0.029452432
46	0xbb8527fa	-0.0040636035
47	0xbab69ae0	-0.0013931654
48	0xbc39cdec	-0.0113405995
49	0xbcdd2b9a	-0.02699833
50	0xbc95e006	-0.0182953
51	0xbc86822e	-0.016419496
52	0x3cc4cfe1	0.024024906
53	0xbc3adacc	-0.011404704
54	0x3c3635de	0.011121241
55	0xbbb9a4c8	-0.0056653954
56	0xbb1799a9	-0.002313236
57	0x3cf5d633	0.030009365
58	0x3bfa3527	0.007635731
59	0xbc9a58ed	-0.018841231
60	0x3b70a49d	0.003671921
61	0x3c7020f3	0.014656293
62	0x3cb75953	0.02238146
63	0xbbaba0fb	-0.005237696
64	0xbc5c86cb	-0.0134598715
65	0x38d60b1f	0.00010206387
66	0xbd5b49ce	-0.053537183
67	0xbbfef3f1	-0.007780545
68	0x3c61b443	0.013775888
69	0xbd503029	-0.05082718
70	0xbd50a800	-0.050941467
71	0xbe07a882	-0.13247874
72	0xbc2ac5c9	-0.010423132
73	0xbbd9be82	-0.0066450248
74	0xbc6a6eed	-0.014308673
75	0x3be6813b	0.0070344484
76	0xbb056199	-0.0020352362
77	0xbd566a87	-0.052347686
78	0xbd92d1ef	-0.07168948
79	0xbc657c46	-0.01400668
80	0xbb7e215f	-0.0038777215
81	0xbd15182d	-0.03640001
82	0xbc9dfa60	-0.019284427
83	0xbd944be5	-0.07241038
84	0xbd39a2b6	-0.04532119
85	0xbce3c2c3	-0.02780283
86	0xbc6073eb	-0.013699512
87	0xbcf43644	-0.029811032
88	0xbd4eb5a2	-0.050466187
89	0xbcc5622b	-0.024094662
90	0xbc5812e4	-0.013188098
91	0xbd353849	-0.04424313
92	0x3d670130	0.056397617
93	0x3d0a02fe	0.03369426
94	0x3d141243	0.03615023
95	0x3d0c6f3e	0.034285776
96	0x3cbed5d3	0.023295319
97	0xbb705126	-0.0036669462
98	0xbc7fdc5c	-0.015616503
99	0xbbbeb053	-0.0058193593
100	0x3b30dcab	0.0026986997
101	0xbcbaaee0	-0.022788465
102	0xbcee0b4f	-0.029058127
103	0xbdc819fd	-0.09770582
104	0x3d658517	0.056035127
105	0xbc03710a	-0.008022556
106	0xbdb60840	-0.08888292
107	0x3c5b27af	0.0133761605
108	0xbcbae3cf	-0.022813706
109	0x3d09650d	0.033543635
110	0x3cde1893	0.027111327
111	0xbcd89b1f	-0.026441155
112	0x3c6ce81e	0.014459638
113	0xbd6afbcb	-0.057369035
114	0xbd578295	-0.052614767
115	0xbddb6b12	-0.107137814
116	0x3c687d0a	0.014189968
117	0x3c038b1a	0.00802877
118	0x3d725936	0.05916711
119	0xbd69f431	-0.057117645
120	0xbda1caa5	-0.078999795
121	0x3d703d9f	0.058652516
122	0xbdd7812f	-0.10522687
123	0xbc355168	-0.011066772
124	0xbd030d0d	-0.031994868
125	0xbd7e0a3d	-0.062021483
126	0xbdcd0daf	-0.100123756
127	0x3d042816	0.03226479
128	0x3cda5049	0.026649611
129	0xbc16ad70	-0.009196624
130	0x3c08ebe0	0.008357018
131	0xbca4d246	-0.020119797
132	0x3a8d3163	0.0010772165
133	0xba28ebfb	-0.0006443855
134	0xbc96ebaf	-0.01842293
135	0x3c506c51	0.012721137
136	0xbc21faae	-0.009886427
137	0xb9bc6103	-0.00035930434
138	0xbc89cf11	-0.01682237
139	0x3883741c	6.268194e-05
140	0xbbe312de	-0.0069297394
141	0x3a0ed439	0.0005448494
142	0xbc0e77f8	-0.008695595
143	0xbc3934e2	-0.011304112
144	0x3ad46dc7	0.0016207033
145	0xbc3b20e7	-0.011421419
146	0x3a6c1170	0.0009005284
147	0x3bcbe04a	0.0062218057
148	0x3a31eb98	0.00067871204
149	0xbc1740a1	-0.009231717
150	0xbb27b926	-0.0025592535
151	0xbbd32839	-0.006444004
152	0xbbdf2252	-0.006809511
153	0x3ba93e20	0.0051648766
154	0xbc0dfd40	-0.008666337
155	0x3b511f99	0.0031909703
156	0x3b149978	0.0022674482
157	0x3ad494e0	0.0016218685
158	0xbc92e851	-0.017933043
159	0xbc8ebf74	-0.017425276
160	0x3bddc0cd	0.0067673684
161	0xbc945950	-0.018108994
162	0xbc4b0670	-0.012391672
163	0xbc07a9fe	-0.008280275
164	0xbc87ae56	-0.016562622
165	0xbc8ba75c	-0.017047577
166	0xba786b19	-0.0009476408
167	0xbcd124ee	-0.025530305
168	0xbc766927	-0.015039719
169	0xba93d489	-0.001127855
170	0xbcb68566	-0.022280406
171	0xbc6c1476	-0.014409175
172	0xbbaad018	-0.005212795
173	0x3af32713	0.0018551074
174	0xbbe1a822	-0.006886498
175	0x36f8caa2	7.4145655e-06
176	0x3b5932a8	0.0033141766
177	0xbcb6ce9a	-0.022315312
178	0xbc457493	-0.012051719
179	0xbc69f885	-0.014280443
180	0xbc0110a5	-0.0078775035
181	0xbca15dc7	-0.019698037
182	0xbc0cb429	-0.008587875
183	0xbca5e717	-0.020251794
184	0xbc313f92	-0.010818379
185	0xbc142dab	-0.009044091
186	0x3b84d3ea	0.0040535824
187	0xbb9986c1	-0.0046852534
188	0xbb4de2bb	-0.003141566
189	0x3bd06171	0.006359272
190	0xbba6665c	-0.00507812
191	0xbc8da66e	-0.017291274
192	0xba40ef1e	-0.000735985
193	0xba364076	-0.00069523545
194	0x3b8b54db	0.004252059
195	0xbc8faae8	-0.01753755
196	0xbb92b6b2	-0.0044773454
197	0xbb1782e1	-0.0023118781
198	0xbbd7f059	-0.006589931
199	0xbbecfa5d	-0.007231994
200	0xba674d97	-0.00088235125
201	0xbbb6cd5f	-0.0055786814
202	0xba0d2796	-0.0005384622
203	0xbbc80510	-0.006104119
204	0xbbc060e9	-0.0058709276
205	0xbc27e0a7	-0.010246432
206	0x3aaa900a	0.0013012898
207	0xbc593676	-0.013257613
208	0x3a4ba270	0.00077680405
209	0x3b3e8ecc	0.0029076813
210	0xbbf01a01	-0.0073273187
211	0x3c19efef	0.0093955835
212	0x3c5ae95b	0.0133613
213	0xbb4da304	-0.0031377682
214	0xbc0e957e	-0.008702634
215	0xbc0762f3	-0.008263337
216	0xbbd28167	-0.0064241174
217	0xbc9090bc	-0.01764714
218	0xbca5bdcf	-0.02023211
219	0xbc4f8898	-0.012666844
220	0xbc9abd0c	-0.018888973
221	0xbc4b6cb3	-0.012416053
222	0xbbf874df	-0.0075822915
223	0x3b9959cd	0.0046798945
224	0x3b58d2fb	0.0033084739
225	0x3a003f72	0.00048922666
226	0xbaf6dea7	-0.0018834666
227	0xbb236401	-0.0024931433
228	0x3b070aa4	0.0020605708
229	0xbb95a987	-0.0045673284
230	0xbc919001	-0.017768862
231	0xbc49b8a2	-0.012312086
232	0xbc2ee86b	-0.01067553
233	0x3b009f21	0.0019626098
234	0xbc16fb3c	-0.009215172
235	0xbb81f5b2	-0.0039660567
236	0xbc0c63ca	-0.008568713
237	0xbc78797a	-0.015165681
238	0xbcc5be62	-0.024138633
239	0xba046f42	-0.0005051979
240	0xbc0b8850	-0.008516386
241	0xbc5debbe	-0.013544975
242	0xbc739c14	-0.014868755
243	0xbc8f8151	-0.017517718
244	0xbae40fbc	-0.0017399709
245	0xbc802309	-0.015641706
246	0xbc69af44	-0.014262978
247	0xbb607aec	-0.0034252955
248	0x38e5135e	0.00010923178
249	0xbb326ad0	-0.002722431
250	0xbc5d501c	-0.013507869
251	0x3bc00f36	0.0058611883
252	0xbc501ab8	-0.012701683
253	0xbc9fa99e	-0.01949006
254	0x3b8ad0a7	0.004236299
255	0x3a4d0876	0.000782139

bias f4 [50]
0	0xbe2afb37	-0.16697393
1	0xbdcd8aae	-0.10036217
2	0xbe444317	-0.19166218
3	0xbe043c36	-0.12913594
4	0xbe1b891f	-0.15189026
5	0xbe210fec	-0.1572873
6	0xbd9efff9	-0.07763667
7	0xbdb68496	-0.089120075
8	0x3c5b3081	0.013378263
9	0xbcf88d20	-0.030340731
10	0xbdf0a1a2	-0.11749579
11	0xbd6a7f90	-0.05725056
12	0xbda20ca4	-0.07912567
13	0xbd65be95	-0.056089956
14	0xbdf53bec	-0.1197432
15	0xbd3b2947	-0.045693662
16	0xbc3a4f17	-0.011371396
17	0xbe6149b4	-0.22000772
18	0xbde335b7	-0.1109423
19	0xbe3cff72	-0.1845682
20	0xbe3012fc	-0.17194742
21	0xbc9cbc2c	-0.019132696
22	0xbdbdd85e	-0.092697844
23	0xbdf8d553	-0.12150063
24	0x399c65b6	0.0002983042
25	0xbd95ad34	-0.073084265
26	0xbc978ffe	-0.018501278
27	0xbd062170	-0.032746732
28	0xbe252011	-0.16125514
29	0xbe7fa349	-0.24964632
30	0xbe423afc	-0.18967813
31	0xbe150313	-0.14551954
32	0xbd97f9af	-0.0742067
33	0xbd57984b	-0.052635472
34	0xbd4f37a3	-0.05059017
35	0x3c755403	0.014973643
36	0xbc794507	-0.015214211
37	0xbe5e79cc	-0.2172615
38	0xbe383720	-0.17989779
39	0xbe67a0b1	-0.22619893
40	0xbdff509e	-0.124665484
41	0xbd967b94	-0.073477894
42	0xbd445b2c	-0.04793851
43	0xbe3432d5	-0.17597516
44	0xbcb3a613	-0.021929776
45	0xbdeece7b	-0.11660477
46	0xbe0eb677	-0.13936792
47	0xbceee250	-0.029160649
48	0xbe596bab	-0.21232478
49	0xbd1f8254	-0.03894265
