all_manuscript_models/sim350/phoenix_noprior/noise_0/best_val_model_alpha_comb.pt (torch, 113451 bytes, 1 tensors)

weight f4 [350, 80]
0	0xbc7fa96c	-0.015604358
1	0xbd8fc08f	-0.070191495
2	0xbde0b187	-0.10971361
3	0xbd8e9b66	-0.06963234
4	0x3cf6e7a2	0.030139748
5	0x3cc966f1	0.02458522
6	0x3a0c34bf	0.0005348436
7	0x3dd7d465	0.10538558
8	0x3d091e59	0.033476207
9	0xbd846a0e	-0.06465541
10	0xb9221529	-0.00015457407
11	0xbbf76ac9	-0.0075505716
12	0x3d555eda	0.05209241
13	0x3cf365de	0.02971166
14	0xbc301160	-0.01074633
15	0xbe0652df	-0.1311755
16	0xbdfe62b2	-0.124211684
17	0xbc82e84d	-0.01597991
18	0xbcf85924	-0.030315943
19	0xbd890f87	-0.06692415
20	0xbd8990f5	-0.067171015
21	0x3bd92e12	0.0066278065
22	0xbcd47c15	-0.025938073
23	0xbc355218	-0.011066936
24	0xbd566c4a	-0.052349366
25	0xbcdb2c66	-0.02675457
26	0x3d027187	0.03184655
27	0x3c274d5f	0.010211318
28	0xbcb3bcb2	-0.021940563
29	0xbca68b40	-0.020330071
30	0xbc304eb8	-0.0107609555
31	0xbd1213af	-0.035663303
32	0x3d05017d	0.032472122
33	0x3d8216b5	0.06351987
34	0xbc4d7db0	-0.012542173
35	0x3cee5e33	0.029097652
36	0xbcc4c27f	-0.024018524
37	0xbd6ac1e1	-0.057313804
38	0xbd8c99aa	-0.068652466
39	0x3abc260c	0.00143546
40	0x3c4c29f8	0.012461178
41	0x3e2a5101	0.16632463
42	0xbcea76bc	-0.02862107
43	0x3ccdf9b2	0.025143478
44	0xbdab046f	-0.08350455
45	0x3c8021cc	0.015641116
46	0x3d8be738	0.06831211
47	0x3d7c6e83	0.06162883
48	0xbc5cf3cf	-0.013485863
49	0x3c365321	0.011128218
50	0xbb380721	-0.002808042
51	0x3cc063f4	0.023485161
52	0x3d45c290	0.048281252
53	0x3c0e4027	0.008682287
54	0xbcc7e7c9	-0.024402516
55	0x3d8e6593	0.069529675
56	0x3d0960e4	0.033539668
57	0x3ba600e5	0.0050660246
58	0x3db1dcb7	0.08684676
59	0xbd51d8b9	-0.051232073
60	0x3d4fe038	0.05075094
61	0x3dbb38b5	0.091416754
62	0xbd4ead60	-0.050458312
63	0x3e0d60fa	0.13806525
64	0x3de7f842	0.11326648
65	0xbd26bdf7	-0.04070851
66	0xbc108871	-0.008821593
67	0x3d2c0a66	0.042002104
68	0xbd63de49	-0.05563191
69	0x3d63489b	0.055489164
70	0xbb9d6b79	-0.0048040715
71	0xbb63ad44	-0.0034740726
72	0x3d9fd7b6	0.078048155
73	0xbd5a1e20	-0.053251386
74	0x3d29b521	0.041432504
75	0xbc743548	-0.014905281
76	0x3d038e37	0.03211805
77	0xbc9be143	-0.019028312
78	0x3cf57afd	0.029965872
79	0x3d4d9a6b	0.050196093
80	0x3bc3b383	0.005972327
81	0xbc957b71	-0.018247338
82	0xbd094db9	-0.033521388
83	0x3d04a4ff	0.032383915
84	0xbd4cb18a	-0.049974002
85	0x3d8529d3	0.06502118
86	0x3dabaf8b	0.083830915
87	0xbce9db50	-0.02854696
88	0x3ccc1bd2	0.02491561
89	0x3dd5db34	0.104422
90	0xbd56562b	-0.05232827
91	0xbd2c1a7c	-0.042017445
92	0x3d274781	0.040839676
93	0x3d39dfb9	0.045379374
94	0x3cb38b56	0.021917026
95	0xbdbc5085	-0.091950454
96	0x3dc2828b	0.09497555
97	0x3d2b8131	0.041871253
98	0xbcc12968	-0.023579314
99	0xbb600774	-0.003418413
100	0xbc91e550	-0.01780954
101	0x3c215462	0.009846779
102	0xbdc937d4	-0.098251015
103	0xb9da86ab	-0.00041680536
104	0x3c42727e	0.011868117
105	0xbb7ff55b	-0.0039056155
106	0xbc6688eb	-0.01407073
107	0x3d848c0b	0.064720236
108	0xbd432be8	-0.047649294
109	0x3d2bb9cc	0.041925237
110	0x3d149ba5	0.036281247
111	0xbcf52409	-0.02992441
112	0x3cc2d70a	0.02378418
113	0xbd89295e	-0.06697343
114	0xbc678374	-0.014130462
115	0xbc2ba237	-0.010475687
116	0xbc25f650	-0.010129526
117	0xbc7db9dd	-0.015486208
118	0xbd2078c3	-0.039177667
119	0xbd9ccc88	-0.07656199
120	0xbd1bb00a	-0.03800968
121	0xbd8b0441	-0.06787921
122	0x3d48ea32	0.04905147
123	0x3df8a83c	0.12141463
124	0x3cf7f7c9	0.03026952
125	0x3dd4ae2c	0.10384783
126	0x3c8428c3	0.016132718
127	0xbc24ff0d	-0.0100705745
128	0x3c92b58c	0.017908834
129	0xbb061a1e	-0.0020462344
130	0x3da7372a	0.081648186
131	0xbd87a2c0	-0.06622839
132	0x3e564591	0.20924975
133	0xbc960485	-0.018312702
134	0x3b1b459f	0.002369262
135	0x3cb68002	0.022277836
136	0xbdc67611	-0.09690488
137	0xbc4e49ff	-0.012590884
138	0x3abd1eb6	0.0014428708
139	0x3dfabb27	0.12242728
140	0xbd0d88bb	-0.034554224
141	0x3d724869	0.059151087
142	0x3d460ad0	0.048350155
143	0x3c9b9365	0.018991182
144	0xbd2f770b	-0.042838138
145	0x3d84e884	0.06489661
146	0xbd82cc00	-0.06386566
147	0xbd9a2b5f	-0.07527804
148	0x3d347faa	0.044067062
149	0x3dd6558a	0.10465534
150	0x3ce7e4e1	0.02830738
151	0x3dd8a334	0.105780035
152	0xbd6115b1	-0.054952327
153	0x3cbb1d06	0.022840988
154	0x3d8b0aba	0.06789155
155	0xbdb17507	-0.08664899
156	0x3d053b2f	0.032527145
157	0xbcfd673d	-0.030933017
158	0x3c17c1ce	0.009262515
159	0x3d0cc307	0.03436568
160	0x3d0a82bc	0.033816084
161	0xbd1e04b6	-0.03857871
162	0xbd50725f	-0.050890323
163	0xbd02e93c	-0.03196071
164	0x3d569862	0.052391417
165	0x3d3447dd	0.044013847
166	0x3db20cd3	0.08693852
167	0x3c526ef2	0.012843834
168	0x3dc875c3	0.09788086
169	0x3d4d7e7f	0.050169464
170	0x3d6daebb	0.058027964
171	0xbd90325b	-0.070408545
172	0x3d3a4863	0.04547919
173	0x3dac4e7b	0.084134065
174	0xbbc3487a	-0.0059595676
175	0xbc2481a4	-0.010040674
176	0x3df11117	0.11770838
177	0xbcc7f467	-0.024408532
178	0xbb17ac3b	-0.002314343
179	0xbd30035c	-0.042971954
180	0x3d9e00b8	0.07714981
181	0x3d9aba0e	0.07555018
182	0x3c9b2a2b	0.018941006
183	0x3d9a0580	0.0752058
184	0x3d3c43e7	0.045963194
185	0xbcc12d10	-0.023581058
186	0xbd8c15a2	-0.06840064
187	0xbc87724f	-0.016533999
188	0xbd8ec1ef	-0.06970584
189	0xbd54b4c6	-0.05193021
190	0x3ce49449	0.02790274
191	0x3d3485bb	0.044072848
192	0x3d60cc3c	0.054882273
193	0xbcd2c002	-0.025726322
194	0xbdceee4f	-0.101040475
195	0xbc12954c	-0.008946728
196	0xbd1c509f	-0.038162824
197	0xbb1062e5	-0.0022031602
198	0x3ceff080	0.029289484
199	0xbd8c80d8	-0.068605125
200	0xbd009240	-0.031389475
201	0xbc37c81e	-0.011217145
202	0x3c4ba43a	0.012429291
203	0x3ca74049	0.020416396
204	0x3d859b96	0.06523816
205	0xbae7812f	-0.0017662401
206	0x3d2124ec	0.039341852
207	0x3b8bb6ce	0.0042637354
208	0x3d82af7a	0.06381126
209	0x3d3acf83	0.045608055
210	0xbdd6c111	-0.10486043
211	0x3d2d8fa8	0.04237333
212	0xbd70d885	-0.05880024
213	0x3bbd9a3c	0.0057862084
214	0x3c3e9987	0.011633283
215	0x3d5fbc72	0.054623075
216	0x3c627781	0.013822437
217	0x3c9e5d04	0.019331463
218	0x3b613aae	0.0034367251
219	0x3ce7c870	0.028293818
220	0xbdb3ad2a	-0.08773263
221	0x3cb4978b	0.022044918
222	0x3ded8822	0.11598231
223	0x3d81a229	0.06329758
224	0xbd2c5937	-0.04207727
225	0xbcd52a3b	-0.026021114
226	0xbc672404	-0.014107708
227	0xbc4ffc48	-0.012694426
228	0xbb9639bc	-0.004584519
229	0x3ba1f9b6	0.004943098
230	0x3cf19f7c	0.029494993
231	0xbd7cccce	-0.061718754
232	0xbdbea9f9	-0.093097635
233	0x3d498593	0.049199652
234	0xbd499785	-0.049216766
235	0x3d551560	0.052022338
236	0x3da656fe	0.08122061
237	0x3d21316b	0.03935377
238	0xba971429	-0.0011526394
239	0xbd0205b7	-0.03174373
240	0x3d1cd724	0.03829111
241	0x3ba4a1be	0.005024164
242	0x3d0bbef7	0.034117665
243	0x3d84f132	0.06491317
244	0x3d9708db	0.07374736
245	0x3dc8415a	0.0977809
246	0xbccef974	-0.025265433
247	0xbda7c2ad	-0.08191428
248	0x3cef71d6	0.029229086
249	0x3d5bc62e	0.053655796
250	0xbd53d964	-0.05172099
251	0xbc659a53	-0.014013845
252	0x3cb9db94	0.02268771
253	0xbc8a19b5	-0.016857961
254	0x3dad2676	0.084546015
255	0xbe197f9e	-0.14990088
