all_manuscript_models/sim350/phoenix/noise_0.4/best_val_model_prods.pt (torch, 57895 bytes, 2 tensors)

weight f4 [40, 350]
0.061934207 -0.019605225 -0.014490192 0.029656958 0.004000714 -0.02077414 -0.03285805 -0.0064741736
-0.005410364 0.006320401 0.008483922 -0.033040423 -0.01945294 0.0033974461 -0.045708377 0.028083744
0.025464794 -0.02172055 -0.0007050753 0.0081852395 -0.013876763 0.02358193 0.030044157 -0.0013997083
-0.018059175 0.010760874 -0.0018476694 0.026262658 0.06767725 -0.018294577 -0.008305972 0.0011567343
-0.015731102 -0.009220056 0.0080022 -0.0019589732 -0.039435383 -0.0070548607 0.038485985 0.039338127
0.029359745 0.03986121 -0.033244 -0.056753483 0.018266922 -0.019144785 0.02089841 0.0032062414
0.0077421446 0.011124938 0.027973078 0.030638134 -0.0055726995 0.017899616 0.012022843 0.0059533743
-0.014471551 -0.010927445 0.0346814 0.02284951 -0.041626085 0.0011317992 0.007517202 -0.03384861
0.0014408225 0.019224392 -0.028698066 0.0016654964 0.0021541314 -0.022461196 -0.022099977 0.032995842
0.0017781896 0.021851776 0.04357924 -0.0576741 -0.0030245853 0.0028519204 0.030189224 -0.023018792
0.08992984 -0.018604025 -0.0044008247 -0.002688944 -0.010157036 0.034298193 0.011766698 -0.040390138
-0.0033039043 0.033394594 0.018189378 0.024985941 -0.044432122 0.016553681 -0.0047296328 0.015951157
0.047318246 0.016753767 0.0042497073 0.032530874 -0.016809097 0.0014232576 0.020318499 -0.008857256
0.037441377 -0.003669052 0.053254783 0.05499491 0.008549317 -0.028251233 0.009493703 -0.0018057209
-0.023102118 -0.08693507 0.016151262 0.0353216 0.013513561 0.011827359 -0.004300409 -0.042189196
0.028219532 -0.011245369 0.011777769 -0.0017436648 0.0003319985 -0.00940163 -0.009861351 -0.028699448
-0.0083339885 -0.016769985 -0.024054358 0.0018221003 0.0024112111 -0.006480008 -0.0036474208 -0.0133539755
-0.02363405 0.03796269 -0.0021425614 0.016338812 0.017855188 -0.022743154 0.009382619 0.006987923
0.03026092 -0.0060152127 0.0034286582 -0.033220254 0.008955571 0.007339564 -0.01798369 -0.01837853
-0.026498377 0.021038607 -0.02673549 0.010748731 0.05326307 0.0014941789 -0.043025665 -0.047790002
-0.015643734 0.015147562 0.016044851 -0.020148098 0.008825026 -0.0049127773 0.002174411 0.015660645
0.061560817 0.00382401 0.0027170114 0.016704652 0.01750235 0.019917173 0.05222521 0.0024338572
-0.015763193 0.0045891907 -0.0020461355 0.018984789 0.03278798 0.0014120031 0.044916295 -0.0005269067
0.013593767 -0.015018566 -0.037068028 0.024242971 0.022001985 -0.009264168 -0.010017386 0.020347916
0.018097617 -0.016467862 -0.021865258 0.008422596 -0.09154623 0.024226623 0.0036928647 0.008581799
0.0041737338 0.022891654 0.03602354 0.04877409 -0.00644994 -0.03994615 0.040097985 -0.05301746
0.03244127 -0.019434713 0.030331502 0.00075823726 -0.031179488 0.009938765 0.017713826 0.042224303
-0.002240736 -0.0025158606 0.019671336 0.039884895 0.01667621 -0.0008394761 0.017842902 0.032183394
0.070511594 0.006841315 0.008853307 -0.008905714 -0.034734514 -0.01564412 -0.0008833991 0.0021912085
0.044491 0.0029631772 -0.0007602128 0.024025215 0.010032358 0.007143004 -0.015486612 0.0076592476
0.038833562 2.202031e-05 0.047572322 0.021462088 0.024350975 -0.011337594 0.03408724 0.02450721
-0.036536336 -0.016943738 -0.035925016 -0.020519497 -0.025473848 0.0048135393 0.015868964 0.009174592
00000000: b9ae 7d3d 239b a0bc 4568 6dbc 26f3 f23c
00000010: 6c18 833b 872e aabc 2a96 06bd 4e25 d4bb
00000020: 6c49 b1bb 5e1b cf3b 2600 0b3c 6555 07bd
00000030: c65b 9fbc b0a7 5e3b b538 3bbd e10f e63c
00000040: 8b9b d03c 4bef b1bc cdd4 38ba 621b 063c
00000050: 5d5b 63bc e42e c13c 2a1f f63c 6b76 b7ba
00000060: d6f0 93bc 604e 303c 7f2d f2ba c924 d73c
00000070: 5f9a 8a3d 82de 95bc c615 08bc 909d 973a
00000080: 83de 80bc b80f 17bc a91b 033c 1e62 00bb
00000090: ff86 21bd 762c e7bb 7ba3 1d3d 0421 213d
000000a0: d983 f03c 8245 233d dc2a 08bd 5776 68bd
000000b0: 83a4 953c 86d5 9cbc 2433 ab3c ce1f 523b
000000c0: d1b1 fd3b 5f45 363c cc27 e53c d3fc fa3c
000000d0: 319b b6bb 37a2 923c 75fb 443c 8614 c33b
000000e0: 161a 6dbc 0709 33bc 150e 0e3d e52e bb3c
000000f0: 1d80 2abd e158 943a dc52 f63b d7a4 0abd
00000100: fbd9 bc3a 797c 9d3c 3518 ebbc c94c da3a
00000110: 542c 0d3b 8b00 b8bc 030b b5bc a626 073d
00000120: 2412 e93a 7f02 b33c 2580 323d ad3b 6cbd
00000130: 1f38 46bb 49e7 3a3b 644f f73c e891 bcbc
00000140: 232d b83d 7867 98bc cb34 90bb ff38 30bb
00000150: b269 26bc 437c 0c3d 1cc9 403c 2170 25bd
00000160: 5186 58bb c5c8 083d e401 953c 51af cc3c
00000170: 75fe 35bd 969b 873c 09fb 9abb 00ac 823c
00000180: c7d0 413d 323f 893c 2141 8b3b 183f 053d
00000190: 3bb3 89bc 9a8c ba3a fb72 a63c 061e 11bc
000001a0: 215c 193d 7a74 70bb b021 5a3d 5842 613d
000001b0: 6f12 0c3c 216f e7bc 7a8b 1b3c f0ad ecba
000001c0: a740 bdbc 040b b2bd a74f 843c 62ad 103d
000001d0: fc67 5d3c 8ac7 413c 72ea 8cbb 94ce 2cbd
000001e0: a62c e73c 7f3e 38bc 8bf7 403c af8b e4ba
000001f0: 1610 ae39 4b09 1abc 8191 21bc 1b1b ebbc
00000200: 488b 08bc 3561 89bc a50d c5bc 8ad3 ee3a
00000210: 6905 1e3b 3f56 d4bb 9109 6fbb a2ca 5abc
00000220: 329c c1bc c47e 1b3d 376a 0cbb f9d8 853c
00000230: 0b45 923c da4f babc 8eb9 193c f2fa e43b
00000240: c0e5 f73c 431b c5bb 57b3 603b f611 08bd
00000250: 63ba 123c ba80 f03b 8852 93bc 928e 96bc
00000260: 2013 d9bc 2859 ac3c 6304 dbbc 721b 303c
00000270: 602a 5a3d 53d8 c33a ae3b 30bd 73bf 43bd
00000280: 4a27 80bc 7b2d 783c 7e70 833c a00d a5bc
00000290: d896 103c 5dfb a0bb 9080 0e3b c14a 803c
000002a0: 3227 7c3d 3e9c 7a3b e30f 323b 32d8 883c
000002b0: 1761 8f3c 5729 a33c 1aea 553d 5981 1f3b
000002c0: d021 81bc ec60 963b 7518 06bb fd85 9b3c
000002d0: b04c 063d f612 b93a 26fa 373d 1c20 0aba
000002e0: 64b8 5e3c 6e10 76bc a5d4 17bd 3299 c63c
000002f0: 823d b43c bdc8 17bc f61f 24bc acb0 a63c
00000300: 7441 943c 9ce7 86bc c51e b3bc eefe 093c
00000310: 977c bbbd e976 c63c fd03 723b ad9a 0c3c
00000320: d1c3 883b 4787 bb3c 6b8d 133d 57c7 473d
00000330: 055a d3bb 939e 23bd c93d 243d d628 59bd
00000340: 23e1 043d 8c35 9fbc c579 f83c 71c4 463a
00000350: 206c ffbc 34d6 223c 961c 913c 64f3 2c3d
00000360: 50d9 12bb 23e1 24bb c825 a13c 585e 233d
00000370: 8c9c 883c 4a10 5cba 472b 923c bcd2 033d
00000380: 6268 903d 1c2d e03b 760d 113c 46e9 11bc
00000390: c745 0ebd 1928 80bc e993 67ba 619a 0f3b
000003a0: 323c 363d dd31 423b 0449 47ba 87d0 c43c
000003b0: c25e 243c dc0f ea3b 8fbb 7dbc 6dfa fa3b
000003c0: f10f 1f3d 41b8 b837 32db 423d 43d1 af3c
000003d0: b27b c73c 51c1 39bc 109f 0b3d 58c3 c83c
000003e0: 20a7 15bd 98cd 8abc 1c26 13bd 8118 a8bc
000003f0: 88ae d0bc e5ba 9d3b a1ff 813c 0751 163c

bias f4 [40]
0.046719912 0.03502028 0.043768503 0.014758745 0.013839238 -0.017920515 0.012233796 0.03594319
-0.021112977 -0.026790008 0.035266485 0.054407366 0.04726553 0.026765075 0.011792934 -0.013163337
-0.0070040436 0.0049446244 0.030946506 0.001951469 0.027524855 0.028668933 -0.0027840326 -0.0015409696
0.060699504 0.05341968 -0.0004025024 0.052018918 0.02482268 -0.023558866 0.04817594 0.07101061
0.020137813 0.010531773 0.05762366 0.02138375 0.07134599 -0.028030753 -0.01335276 0.066917114
00000000: 615d 3f3d 6d71 0f3d 9a46 333d aace 713c
00000010: f9bd 623c 0bce 92bc 4270 483c 2b39 133d
00000020: 1ff5 acbc b876 dbbc 9773 103d 42da 5e3d
00000030: 8099 413d 6e42 db3c 2637 413c 09ab 57bc
00000040: 2d82 e5bb 8406 a23b 8783 fd3c 6fc8 ff3a
00000050: ce7b e13c 1cdb ea3c 5174 36bb 5cfa c9ba
00000060: 0ba0 783d 98ce 5a3d f506 d3b9 ca11 553d
00000070: ef58 cb3c 86fe c0bc 2254 453d 036e 913d
00000080: 0ef8 a43c 758d 2c3c c906 6c3d f92c af3c
00000090: d91d 923d c0a0 e5bc 89c5 5abc d70b 893d
