all_manuscript_models/sim690/phoenix/noise_0.025/best_val_model_prods.pt (torch, 140007 bytes, 2 tensors)

weight f4 [50, 690]
000000 f9 d7 63 bd 03 e7 98 3d 94 27 8f 3d c3 32 f8 3d
       -0.05562589 0.07465937 0.06989971 0.12119057
000010 bb a9 d7 3d 68 86 31 3e 29 e6 e3 3d 22 cf 74 bc
       0.105304204 0.17336428 0.11127884 -0.014941962
000020 09 da 5a 3e aa 82 25 3d 27 bb 7b 3d f8 70 00 3e
       0.21372236 0.040407814 0.06145778 0.12543094
000030 81 d8 5b 3a 73 17 71 3e 04 9f 42 3d d0 44 cc 3e
       0.00083864486 0.23544101 0.04751493 0.3989625
000040 22 13 e0 3d 30 c0 68 3e ff ea e7 3c d9 39 28 3d
       0.10941149 0.22729564 0.028310297 0.041070793
000050 f7 09 25 3e 79 10 41 3e 85 83 87 3e 35 ec 05 3e
       0.16117083 0.1885394 0.2646753 0.13078387
000060 40 05 1e 3e 07 24 10 3c 2b 6f 8a 3d 18 64 06 bc
       0.1543169 0.008797652 0.06759485 -0.008202575
000070 fc 47 a6 3e 08 78 f0 3d b8 3c 76 bc 99 48 de ba
       0.32476795 0.11741644 -0.015029125 -0.0016958892
000080 2f 1d 39 3e 96 6a 1c 3e c8 5c b0 3d 1f fb b2 3e
       0.18077539 0.15275034 0.086114466 0.34957215
000090 96 0d 8e 3e 43 a1 4b 3e cd 0e 88 3c 55 4b cf 3d
       0.2774474 0.19885735 0.01660862 0.1012179
0000a0 ca 50 f5 3d ef cd 96 3d 14 ae 5f 3d 15 28 80 bc
       0.119783 0.073634975 0.054609373 -0.015644113
0000b0 5d ed 17 3e bf 4d af 3d b1 d4 5c 3e be fc f3 3d
       0.1483664 0.08559751 0.2156551 0.11913441
0000c0 d1 42 d9 3d 5a e7 8c 3d 79 e3 b9 39 f1 5c 54 3e
       0.10608447 0.06880064 0.0003545543 0.2073858
0000d0 8c 14 a0 3d 15 32 cf 3d f7 6a 0c 3e e6 ed 12 3e
       0.07816419 0.10116974 0.13712679 0.14348564
0000e0 db ee 94 3d e6 49 93 3d be 11 ab 3d aa 68 b3 3d
       0.072721206 0.071918294 0.083529934 0.087601975
0000f0 da 60 16 3e 7e a5 e5 3d b1 60 07 3e f3 ad 12 3e
       0.14685383 0.11213206 0.13220479 0.14324169
000100 31 00 9e 3d 3a 03 5f 3e 88 c4 9f 3e 4b b9 6d be
       0.0771488 0.21778575 0.3120463 -0.23215215
000110 f0 a8 0c 3e d6 eb 44 3e 2c f2 5f 3d 39 aa 15 3e
       0.1373632 0.1923059 0.054674312 0.14615716
000120 83 01 f3 3d ed 8d f8 3d 84 0e 24 3d 3a e3 34 3e
       0.11865523 0.12136445 0.040052906 0.17664805
000130 cc 17 07 3c f3 38 a1 3e a2 cf a6 3d e4 21 c8 3d
       0.00824542 0.3148876 0.081450716 0.09772089
000140 16 7c 1d 3d 41 c2 e9 3d cd 3c ad 3d b8 d5 87 3d
       0.038448416 0.11414004 0.084588625 0.066325605
000150 a0 25 60 3e 4a ea 7a bd 24 92 1e 3e ce 6b a1 3d
       0.21889353 -0.06125859 0.15485436 0.0788189
000160 85 b0 03 3c 57 08 0c 3d c1 3b 87 3d c6 8a e8 3c
       0.008037691 0.03418764 0.06603194 0.028386485
000170 1b 6b 50 3e 46 82 9e 3d 85 9f 6c be 7a 8b 6c 3e
       0.20353357 0.077396914 -0.23107727 0.23100081
000180 a1 fc 25 3d e4 48 f8 3d d9 91 e7 bd 55 e4 5a 3d
       0.04052413 0.12123278 -0.11307115 0.05344041
000190 45 03 13 3c 19 88 fb bc 55 61 01 3e 27 ee 30 3d
       0.0089729475 -0.030704545 0.12634785 0.04319587
0001a0 c3 9d 04 3d ba 5f ea 3d 0a ab b4 3c b3 81 bc bb
       0.032377016 0.1144404 0.022054214 -0.005752766
0001b0 33 af a5 bd a2 2b 46 bd 1b 95 be 3d bb 47 87 3d
       -0.08090057 -0.048381455 0.09305783 0.066054784
0001c0 2d 23 46 3d a7 48 88 3c ee e9 1f 3e 7a 5a ee 3d
       0.04837339 0.016636206 0.15616581 0.11638351
0001d0 61 f1 ab bb ad 58 00 be b7 df 02 3d c1 d8 3a 3d
       -0.0052472805 -0.12533827 0.031951632 0.04561687
0001e0 c0 a6 43 3e aa 3e 3e bd e4 be fa 3d be 2f fc bd
       0.19106579 -0.04644648 0.12243441 -0.123137936
0001f0 3d e7 45 3d 7b 6b 4f bd be b7 14 3d e7 5e c5 bc
       0.04831623 -0.05063961 0.036308043 -0.024093105
000200 d0 53 87 bd 97 0f b6 3d 17 e8 9c bd 81 fd 43 3d
       -0.06607783 0.08889692 -0.07661455 0.047849182
000210 86 86 b9 3c e3 f7 3f 3c a8 02 c4 bc 9b 11 80 3c
       0.022647154 0.011716816 -0.023927048 0.015633395
000220 28 18 d8 bd 07 d1 23 bd c2 09 81 bd f5 77 27 bc
       -0.105514824 -0.039994266 -0.06300689 -0.010221471
000230 a3 e7 cf bd b9 0d 9d 3c 49 49 03 be 03 f8 8f be
       -0.10151603 0.019171583 -0.12820925 -0.28118905
000240 cd 8e 51 bd b6 36 0a be 9e 7c 63 3d d5 ca 0f 3d
       -0.051161576 -0.13497433 0.055538766 0.035105545
000250 40 c6 65 3d 5a 1d 29 3e 1b cf fa 3c a7 83 6f 3d
       0.05609727 0.16515103 0.030616334 0.058475163
000260 b2 5c 9a 3d d6 b8 45 3d a3 c3 79 3b ba 9a 4b 3d
       0.075372115 0.048271976 0.0038110993 0.049708106
000270 6f dd a1 3b cf 98 8c 3d 94 69 92 3d b1 1c 17 3b
       0.004939727 0.068650834 0.07149044 0.0023057873
000280 71 2d 61 3d fd a8 11 3d a9 e9 3f bd 73 2f 08 3d
       0.054974977 0.03556155 -0.046853695 0.033248376
000290 67 a5 37 bc 53 71 73 3d 17 aa 6b 3d 4e 77 64 bd
       -0.011208869 0.059434246 0.057535257 -0.05577784
0002a0 1b 97 b4 3c ae f1 8f 3d 8d c2 bc 3b 8a 22 57 3d
       0.022044709 0.070285186 0.005760497 0.052523173
0002b0 16 a2 19 bc 69 d3 94 3c 6d 5d 32 3d 97 df 26 3d
       -0.009377023 0.018167214 0.04354613 0.040740576
0002c0 2b 89 d3 3d e1 3e 3c 3d f6 ea c2 bd 5a 10 ae bd
       0.10328897 0.045958403 -0.095174715 -0.084992126
0002d0 90 fe a8 bc 20 36 74 bc ba 20 8e 3d f2 15 67 bc
       -0.020629197 -0.0149054825 0.06939836 -0.014104353
0002e0 a6 4e d8 3d d8 06 8c 3e 2e 22 89 3d 43 79 fc 3b
       0.10561876 0.2734897 0.066959724 0.007704885
0002f0 ca b2 cc bc 7e d6 be 3d bb 4a ae 3d 7f b8 da bd
       -0.024987597 0.09318255 0.085103475 -0.10679721
000300 de a7 79 3c f1 03 55 3d ae 79 89 3d 9e 4a 8a bd
       0.015237777 0.052005712 0.06712662 -0.06752513
000310 7b 41 bf 3c d9 a7 7c 3d 6a 17 68 3d b8 00 a7 3d
       0.023346653 0.06168351 0.056662954 0.08154434
000320 63 06 9b 3c 23 90 4c bd 78 bf 04 3c 0c 1b 86 bc
       0.018923944 -0.049942147 0.00810229 -0.016370319
000330 cc 42 01 3e 0e b8 e4 3c 89 83 c7 3c c5 75 07 3c
       0.12623137 0.027919795 0.024354713 0.008267825
000340 5e 21 94 3d d8 da 11 3d bf c8 37 3e c7 81 fb 3a
       0.07232927 0.035609096 0.17947672 0.0019188457
000350 63 43 4f 3c 82 f3 85 3c 6c 7e 4a 3d 86 26 01 bd
       0.012650344 0.016351465 0.04943697 -0.03153088
000360 f5 7a 6e 3d f4 15 44 bc ea 6e 27 bd 50 2b 90 bb
       0.05822273 -0.011968125 -0.04087726 -0.0043996945
000370 f1 c9 a8 3d 3c e9 34 3d 51 2d 66 bd 87 99 0f 3c
       0.08241642 0.044167742 -0.05619556 0.008764631
000380 05 87 60 3d 1d c2 7b 3d 3b 77 ab 3d 1d e6 ce 3c
       0.054816265 0.061464418 0.08372351 0.025256211
000390 30 dd 3b 3d bd 8a 18 3d b2 a6 66 bc c7 39 b4 3d
       0.045865238 0.037241686 -0.014077829 0.08800083
0003a0 2f 9a 9b 3c 9c ac 81 3d f9 97 42 3d 1c f8 bb 3d
       0.018994419 0.06331751 0.047508214 0.091781825
0003b0 86 1d b3 bc 80 68 b4 bc 17 03 49 bc 5a 5d 8f 3d
       -0.021864664 -0.022022486 -0.012268803 0.07000227
0003c0 48 7c d9 bc 9b ba 72 bc f9 33 e0 3c 95 06 09 bc
       -0.02654852 -0.014814998 0.027368532 -0.008363386
0003d0 1b 2b 49 3d 9b 14 86 3d 8f cf db 3c 3c 1a 68 3d
       0.049113374 0.06546899 0.02683237 0.056665644
0003e0 01 47 f2 3c 4a 0a 1c 3d 7c a7 7e bc 98 45 61 3c
       0.029574873 0.03809575 -0.015542861 0.013749503
0003f0 9e b9 80 bc 73 1a 37 3d 48 a1 ba 3c 98 8b 4b bc
       -0.01571351 0.04470296 0.022781983 -0.012423418

bias f4 [50]
000000 ac 7a d5 bd 7c be fa bd 0e 60 b1 bd 5d 1c 71 bd
       -0.104237884 -0.12243363 -0.08660899 -0.05886494
000010 54 01 e9 bd f5 25 bd bd 30 2d 68 bd 83 02 7f bd
       -0.113772064 -0.09235755 -0.05668372 -0.062258255
000020 cd 25 73 bd d0 e9 c6 bd cc e7 d5 bd be 18 a5 bd
       -0.05936222 -0.09712565 -0.10444602 -0.0806136
000030 d8 5f 81 bd 03 25 94 bd 97 7e 0a bd 59 22 42 bd
       -0.06317109 -0.07233622 -0.03381213 -0.047396038
000040 71 01 a7 bd c4 7b e9 bd 69 6c 7b bd 5b 3c 92 bd
       -0.08154572 -0.114005595 -0.061382685 -0.07140418
000050 3b b5 a3 bd f4 9f 7a bd a3 9d 59 be f9 eb 36 bd
       -0.07993551 -0.0611877 -0.2125154 -0.044658635
000060 96 de f3 bd 82 8c 20 bd ae ea 8b bd ff 2d 4b bd
       -0.11907689 -0.0391965 -0.06831871 -0.049604412
000070 f1 1f d8 bd 8d 8b 82 bd bf 0d de bd 1f 5c 9f bd
       -0.10552967 -0.063742734 -0.108424656 -0.077812426
000080 70 87 7d bd 8b 2f 59 bd d4 68 5c bd c5 2d ac bd
       -0.06189674 -0.053023856 -0.05381091 -0.08407167
000090 db d4 d4 bd 34 42 d4 bd 73 85 c1 bd cb f7 8f bd
       -0.103921615 -0.1036419 -0.094492815 -0.07029685
0000a0 97 6f 6b bd 7c a0 20 be eb c4 7d bd 15 e8 b1 bd
       -0.057479467 -0.1568622 -0.061955374 -0.08686844
0000b0 e7 89 bb bd ea 80 55 bd ce 9f 58 bd 81 10 89 bd
       -0.09157162 -0.052124895 -0.052886777 -0.06692601
0000c0 89 60 e6 bd 88 53 b7 bd
       -0.11248881 -0.08951479
