all_manuscript_models/sim690/phoenix/noise_0.025/best_val_model_alpha_comb.pt (torch, 277419 bytes, 1 tensors)

weight f4 [690, 100]
-1.1242453e-05 6.5742083e-06 -1.8560697e-05 1.2405578e-05 -2.3344978e-06 -3.6467484e-06 -2.6336622e-05 -1.5356833e-05
6.348258e-06 -3.018479e-06 8.036292e-06 -2.5351544e-06 -5.433472e-06 1.5961501e-05 1.5402205e-05 -1.5156232e-05
8.7802055e-06 -1.0485664e-05 -3.8839476e-06 -2.861905e-06 -1.4513522e-06 -2.848176e-05 -3.3743156e-06 1.5051972e-05
-1.6695223e-05 3.4190813e-05 -1.4591516e-05 1.4637152e-06 -3.0373638e-05 9.471172e-06 8.949024e-06 1.0077952e-06
4.245292e-05 -1.4149115e-06 9.885994e-07 2.5225096e-05 1.553941e-06 1.9892128e-05 -1.575249e-05 -1.656088e-05
8.187717e-06 -1.8575198e-05 1.3308954e-05 2.9894814e-05 3.083211e-05 -9.001372e-07 1.59397e-05 -7.664453e-07
1.7834183e-06 -5.9037848e-06 0.001341882 -0.0013189272 -0.0018812004 8.176234e-06 -2.5156247e-05 -1.0246096e-05
-0.0006763652 0.00023325032 0.0008295649 -7.9582984e-05 7.3700567e-06 2.5490265e-06 0.00037035614 0.0006785779
-0.00091651647 0.0057506934 0.00011147447 -0.0017115135 -6.6092885e-05 -2.0374247e-05 5.2110922e-06 -0.0011178072
-1.4462725e-07 -5.785647e-06 4.774897e-06 0.0025338468 -0.00029414502 -2.1254536e-06 0.0019220321 -0.0004077753
7.181544e-06 -0.0028463723 6.164778e-05 2.3289524e-05 -0.0015433505 -0.00077307835 -0.00015858804 -0.003663156
7.1866084e-06 -2.0422269e-05 0.00024712435 -3.350386e-06 2.532772e-05 0.0002334697 -0.0020055377 0.00084558374
0.001528761 -9.914806e-05 3.357612e-06 -4.93805e-05 3.164807e-05 -0.00012453918 9.627612e-06 3.7390782e-05
-1.8605944e-05 -5.073701e-05 9.45937e-05 -3.29273e-05 -0.00011152555 7.123281e-05 -7.295299e-05 5.1184154e-05
-0.00011135078 -0.00010374998 4.009843e-05 -2.0623067e-05 2.1806256e-05 5.8871206e-05 7.510785e-05 -7.166361e-05
4.8686293e-06 -3.0296032e-05 3.2645574e-05 -7.141631e-05 1.5670805e-05 -5.016934e-05 9.103259e-06 -6.152054e-05
9.755621e-06 3.0039388e-05 1.2883486e-05 2.758785e-05 0.00025633362 -3.353773e-05 -1.3184724e-05 -0.00010082065
4.6701276e-05 -1.1051782e-05 -8.0085665e-05 -8.492139e-05 1.6286263e-05 -7.094179e-05 -0.00012724841 -6.1877865e-05
-0.00016392083 -3.605086e-05 3.2199485e-05 -4.047459e-05 2.554622e-05 4.902176e-05 0.103504695 -0.00043453212
0.00091978296 -2.4182555e-05 -0.00012576382 4.3048884e-05 -0.00291802 -6.951206e-05 0.00096547685 0.0001745449
-0.00044174684 -9.5794385e-06 0.00077292026 0.00049491925 -0.0016395317 0.00040375226 -0.00026721525 -0.0054407795
0.00022315269 -0.0006493616 -4.012661e-05 -0.001516426 -3.7506488e-06 4.4797067e-05 -0.000103095525 0.0024052686
-0.002189934 -9.909789e-05 -0.00148399 -0.0008969947 -8.337236e-05 -0.0043489235 -0.00052267563 0.00011240021
-0.0005794686 -0.00087808305 3.2022099e-06 -0.005805826 -1.0381627e-06 -3.5035762e-05 0.0002841923 6.9787944e-05
2.1336953e-06 -0.00020114114 0.0012938243 0.00023983931 -0.0021383308 -0.0017673817 8.575011e-05 -0.00027064155
-5.5116994e-05 -1.5018699e-06 -5.1456387e-05 2.7016811e-05 1.7862169e-05 7.432654e-05 8.129709e-05 -2.9873961e-05
2.4395005e-05 -3.91576e-05 6.7947134e-05 -2.4365203e-05 -5.8245623e-05 1.5338532e-05 7.437379e-05 -3.1592022e-05
6.404135e-05 -5.3138454e-05 1.9184085e-05 -1.7909219e-05 -9.528503e-05 -0.00015466838 3.8502327e-05 -6.12515e-05
-4.051251e-05 5.3752214e-05 7.0344513e-06 4.1473766e-05 5.471358e-05 2.4797662e-05 -3.1460546e-05 4.1194024e-05
0.00021988933 1.4875532e-06 -2.76054e-06 -3.5956695e-05 -1.6304883e-05 -4.4671662e-05 -5.0062208e-05 -6.3225525e-06
-6.500542e-05 -7.6791446e-05 5.5483142e-05 4.141189e-05 -9.638616e-05 0.00010099624 1.1391786e-05 0.00014183273
-2.2920956e-05 -8.083863e-06 0.0064033275 0.0074313995 0.0022833804 -0.00017274109 8.681091e-06 -0.0002731439
00000000: f89d 3cb7 0598 dc36 cbb2 9bb7 8d21 5037
00000010: 5eaa 1cb6 a9ba 74b6 77ed dcb7 8cd2 80b7
00000020: 1f03 d536 1391 4ab6 9cd3 0637 9f21 2ab6
00000030: 2b51 b6b6 10e5 8537 fc33 8137 8547 7eb7
00000040: b24e 1337 95eb 2fb7 db52 82b6 270f 40b6
00000050: 15cc c2b5 1dec eeb7 4d72 62b6 ba87 7c37
00000060: b80c 8cb7 1b68 0f38 16ce 74b7 df74 c435
00000070: e4ca feb7 60e6 1e37 c423 1637 9443 8735
00000080: 7a0f 3238 fde7 bdb5 04b0 8435 7b9a d337
00000090: 0291 d035 05de a637 3724 84b7 38ec 8ab7
000000a0: fa5d 0937 efd1 9bb7 8649 5f37 a0c6 fa37
000000b0: ba51 0138 f5a0 71b5 3fb6 8537 b8bd 4db5
000000c0: c95d ef35 2019 c6b6 17e2 af3a dadf acba
000000d0: 9c92 f6ba a82c 0937 a106 d3b7 a6e6 2bb7
000000e0: 1a4e 31ba a894 7439 2877 593a cae5 a6b8
000000f0: 4e4c f736 f10f 2b36 5c2c c239 98e2 313a
00000100: 6142 70ba 5070 bc3b 66c7 e938 dd54 e0ba
00000110: 599b 8ab8 5de9 aab7 f1da ae36 6383 92ba
00000120: d64a 1bb4 5422 c2b6 0e38 a036 e50e 263b
00000130: 7a37 9ab9 04a3 0eb6 b2ec fb3a adca d5b9
00000140: fef8 f036 348a 3abb e648 8138 df5d c337
00000150: 404a caba 69a8 4aba a74a 26b9 8f11 70bb
00000160: 7f24 f136 7d50 abb7 7890 8139 31d7 60b6
00000170: dd76 d437 8ccf 7439 576f 03bb 2aaa 5d3a
00000180: b560 c83a b6ed cfb8 5653 6136 e81d 4fb8
00000190: dbbd 0438 bb96 02b9 4786 2137 0cd4 1c38
000001a0: f613 9cb7 73ce 54b8 9b60 c638 6b1b 0ab8
000001b0: d3e2 e9b8 d362 9538 57fe 98b8 91ae 5638
000001c0: ff84 e9b8 5994 d9b8 5d2f 2838 b3ff acb7
000001d0: 94ec b637 7aec 7638 3883 9d38 1c4a 96b8
000001e0: 355d a336 3c24 feb7 ebec 0838 57c5 95b8
000001f0: cc74 8337 eb6c 52b8 33ba 1837 9704 81b8
00000200: 13ac 2337 18fd fb37 2726 5837 756c e737
00000210: 8464 8639 ddaa 0cb8 f533 5db7 ad6f d3b8
00000220: 1de1 4338 0b6b 39b7 aaf3 a7b8 d317 b2b8
00000230: 7c9e 8837 95c6 94b8 fc6d 05b9 6dc4 81b8
00000240: 2ae2 2bb9 5135 17b8 ef0d 0738 43c3 29b8
00000250: 174c d637 b79c 4d38 45fa d33d ead1 e3b9
00000260: 971d 713a a4db cab7 78df 03b9 638f 3438
00000270: 403c 3fbb 01c7 91b8 0e18 7d3a 0a06 3739
00000280: 429a e7b9 60b7 20b7 cd9d 4a3a 78bd 013a
00000290: 8ee5 d6ba b6ae d339 0619 8cb9 9148 b2bb
000002a0: 18fe 6939 eb39 2aba 9f4d 28b8 d0c2 c6ba
000002b0: a8b3 7bb6 7ce4 3b38 fd34 d8b8 b6a1 1d3b
000002c0: ff84 0fbb c6d2 cfb8 7182 c2ba 4c24 6bba
000002d0: 32d8 aeb8 6a81 8ebb 2b04 09ba 67b8 eb38
000002e0: 7be7 17ba 282f 66ba 8ce5 5636 cc3e bebb
000002f0: 0057 8bb5 5df3 12b8 a5ff 9439 1e5b 9238
00000300: 9b30 0f36 6ae9 52b9 8a95 a93a 607d 7b39
00000310: 3d23 0cbb 7da7 e7ba bdd4 b338 e5e4 8db9
00000320: 6c2d 67b8 db93 c9b5 e0d2 57b8 29a2 e237
00000330: b7d6 9537 c2df 9b38 0b7e aa38 d899 fab7
00000340: e0a3 cc37 273d 24b8 d77e 8e38 e063 ccb7
00000350: c34c 74b8 3fab 8037 20f9 9b38 ad81 04b8
00000360: f04d 8638 fbe0 5eb8 82ed a037 c13b 96b7
00000370: c3d3 c7b8 7a2e 22b9 8f7d 2138 2674 80b8
00000380: faeb 29b8 0074 6138 7a09 ec36 1ef4 2d38
00000390: 427c 6538 9304 d037 81f4 03b8 bfc7 2c38
000003a0: 1892 6639 f0a7 c735 b741 39b6 35d0 16b8
000003b0: 78c6 88b7 d55d 3bb8 e3f9 51b8 5026 d4b6
000003c0: 8553 88b8 180b a1b8 92b6 6838 aeb1 2d38
000003d0: ed22 cab8 f2cd d338 591f 3f37 efb8 1439
000003e0: 6146 c0b7 ed9f 07b7 01d3 d13b 1983 f33b
000003f0: c4a4 153b d521 35b9 00a5 1137 c134 8fb9
