all_manuscript_models/sim350/phoenix/_first_submission/noise_0.025/best_val_model_prods.pt (torch_old, 63008 bytes, 2 tensors)

weight f4 [40, 350]
0	0xbc81660b	-0.015795728
1	0x3ee449cb	0.4458755
2	0xbe5860ec	-0.21130723
3	0xbc6b15a0	-0.0143484175
4	0x3d5f151a	0.054463483
5	0xbd793a80	-0.060846806
6	0x3e382178	0.17981517
7	0x3dcf9f85	0.10137848
8	0xbdcb2f6d	-0.09921155
9	0xbda76a9d	-0.08174632
10	0xbcdb8e15	-0.026801148
11	0xbdb94d2d	-0.09047923
12	0xbddfc12c	-0.109255165
13	0x3cd01c80	0.025404215
14	0xbe2224bd	-0.15834327
15	0xbdfc0849	-0.12306268
16	0xbe1c5e6d	-0.15270396
17	0xbc70fc1f	-0.014708548
18	0x3d341caa	0.04397265
19	0x3d9764b9	0.07392258
20	0x3e11d7f9	0.14242543
21	0xbe0b51a5	-0.13605364
22	0xbe8653b6	-0.2623574
23	0xbebf8099	-0.374028
24	0xbab52769	-0.0013820949
25	0xbe753c5c	-0.23948807
26	0x3c05598c	0.008139025
27	0xbe146601	-0.14492036
28	0x3e9619e1	0.2931662
29	0xbed991b0	-0.42493963
30	0x3e2b92f3	0.16755275
31	0x3e521929	0.2051741
32	0x3dc49258	0.09598225
33	0x3e51ec2f	0.20500253
34	0x3e2cfd95	0.16893609
35	0xbd5a836e	-0.053347997
36	0x3df717d1	0.120650895
37	0x3e983eeb	0.29735503
38	0x3eac4622	0.33647257
39	0xbc95f71b	-0.018306306
40	0x3e25a94b	0.16177861
41	0xbe1e086e	-0.15432903
42	0x3e1f7ed9	0.15575732
43	0x3e1d339f	0.15351723
44	0xbe167815	-0.14694245
45	0xbe88fc85	-0.26755157
46	0xbe695ad7	-0.22788559
47	0x3ec42333	0.38308105
48	0x3e4d99f9	0.20078267
49	0xbe89d0a2	-0.26916987
50	0xbc4e0d51	-0.012576417
51	0xbe1e8bbd	-0.15482993
52	0xbeede863	-0.4646636
53	0x3e8dbbf0	0.27682447
54	0xbe9cd146	-0.30628413
55	0xbe953831	-0.29144433
56	0xbe10b34d	-0.14130898
57	0x3e64a496	0.2232841
58	0xbd784510	-0.060612738
59	0x3d1ad508	0.03780082
60	0x3cc4ec48	0.024038449
61	0xbe1ce1c3	-0.15320496
62	0xbe4ad7a3	-0.19808821
63	0x3ec04c24	0.3755809
64	0xbe29eca5	-0.16594179
65	0xbc4c7aa3	-0.012480411
66	0xbe34598e	-0.17612287
67	0xbd22cfe5	-0.039749045
68	0xbd93a4bd	-0.07209156
69	0x3eae03ce	0.33987278
70	0xbd115468	-0.035480887
71	0x3e1587ad	0.14602537
72	0xbcbb1bae	-0.022840347
73	0x3ced675c	0.02897995
74	0x3e1b9d82	0.15196803
75	0xbd7bec66	-0.061504744
76	0x3e0ced53	0.13762407
77	0xbd821656	-0.063519165
78	0x3e1713e1	0.14753677
79	0x3d28c470	0.041202962
80	0x3e591cc0	0.21202374
81	0xbdd2bafe	-0.10289572
82	0xbed2d783	-0.41180047
83	0x3df54b64	0.1197727
84	0x3f6ef6fa	0.93345606
85	0xbe5a2308	-0.21302426
86	0xbdf99225	-0.12186078
87	0x3dbb5ca4	0.09148529
88	0x3e942ed0	0.28941965
89	0x3e84ae66	0.25914305
90	0xbe2da6aa	-0.16958109
91	0xbdf1b9de	-0.118030295
92	0x3dd27483	0.10276129
93	0xbdc0f770	-0.09422195
94	0xbda5d004	-0.080963165
95	0x3e0e05e6	0.13869438
96	0xbefbdff2	-0.49194294
97	0xbdc83815	-0.09776322
98	0xbe3b3dd4	-0.18285304
99	0x3e150028	0.14550841
100	0x3da03b99	0.07823867
101	0xbd54fef7	-0.052000966
102	0xbd53c7ac	-0.051704094
103	0x3d736c45	0.059429426
104	0xbc8192f8	-0.01581715
105	0x3dbec06d	0.09314046
106	0xbcf7eca1	-0.0302642
107	0x3d870858	0.06593388
108	0xbb2d04ee	-0.0026400643
109	0xbcad9368	-0.021188453
110	0x3e02292b	0.12711017
111	0x3c341fc2	0.0109939
112	0x3cb82261	0.02247733
113	0x3e34710b	0.17621247
114	0x3de8448e	0.11341201
115	0x3d25985e	0.04042851
116	0xbdda932c	-0.10672602
117	0x3c7f48a4	0.015581284
118	0x3d0127b0	0.03153199
119	0xb9798005	-0.00023794181
120	0x3d9b2536	0.07575457
121	0x3e2b3115	0.16717942
122	0x3da4fbb9	0.08055825
123	0x3cae3458	0.021265194
124	0x3d9a8b03	0.07546046
125	0xbbd342f0	-0.0064471886
126	0xbe2322d0	-0.15931249
127	0x3ce722c6	0.028214823
128	0x3d21a38b	0.039462607
129	0x3d1edada	0.038782932
130	0x3dad9303	0.08475306
131	0x3d66a175	0.05630632
132	0x3dead8fa	0.11467166
133	0x3d98c1f2	0.07458867
134	0x3d8ed534	0.06974259
135	0x3c664665	0.014054869
136	0x3d1c5331	0.038165275
137	0x3e1a8dbd	0.15093131
138	0x3cdc52e7	0.026895
139	0x3defdf67	0.117125325
140	0xbdc94b8a	-0.09828861
141	0x3c5b5fca	0.013389537
142	0x3d7cb15b	0.061692577
143	0xbd9d0c64	-0.07668379
144	0x3d0b2c2d	0.033977676
145	0xbd92a953	-0.07161202
146	0x3e0df417	0.13862644
147	0x3bf04157	0.007332008
148	0xbd43ad13	-0.04777248
149	0x3d8df602	0.06931688
150	0xbd75c02e	-0.05999773
151	0x3caed706	0.021342766
152	0xbdd927e2	-0.1060331
153	0xbd13191c	-0.035912618
154	0x3e021142	0.12701896
155	0x3d8630ac	0.06552252
156	0x3e10fde8	0.14159358
157	0x3cf95f44	0.030440934
158	0x3cd8e292	0.026475225
159	0xbe085dfb	-0.133171
160	0xbd60494f	-0.054757413
161	0x3d5bf978	0.05370471
162	0x3cb4dc48	0.022077695
163	0xbb206108	-0.0024471898
164	0x3dc12bab	0.09432157
165	0xbd191801	-0.037376408
166	0x3e0156e0	0.12630796
167	0x3e1c7c36	0.15281758
168	0x3c355865	0.011068438
169	0x3d9050aa	0.070466354
170	0xbdc7f3cf	-0.097633
171	0xbc92e518	-0.017931506
172	0xbac042a9	-0.0014668304
173	0xbc2616d6	-0.01013728
174	0xbdbf6a01	-0.093463905
175	0x3c2420d4	0.010017592
176	0xbd717fa4	-0.05895962
177	0xbb7b8d35	-0.0038383726
178	0xbd455bdc	-0.048183307
179	0x3cf797e1	0.030223789
180	0xbcb66d04	-0.02226878
181	0xbba89112	-0.005144247
182	0xbc284762	-0.010270925
183	0x3d1b8089	0.037964378
184	0xbe1af537	-0.15132605
185	0x3e15c9f6	0.14627823
186	0x3db2b93a	0.087267354
187	0x3cebdece	0.028792765
188	0x3c9f8672	0.019473288
189	0x3d43702c	0.047714397
190	0x3da0801e	0.078369364
191	0xbd7a56f1	-0.06111807
192	0xbca081e3	-0.019593185
193	0x3d752f12	0.059859343
194	0xbdc6b722	-0.097028986
195	0xbdc5c802	-0.09657289
196	0x3d5242a4	0.051333085
197	0x3dcf9554	0.10135904
198	0x3d87b2a5	0.066258706
199	0x3da962e8	0.08270818
200	0x3daf00bc	0.08545062
201	0xbdead5a8	-0.11466533
202	0x3c130ac2	0.008974733
203	0x3cae2330	0.021257013
204	0x3cddc6e1	0.027072372
205	0x3d962529	0.073313065
206	0x3e09c9d9	0.13455905
207	0x3d11c362	0.035586722
208	0x3da7e9d4	0.08198896
209	0xbd5eb9af	-0.0543763
210	0xbca05bb1	-0.019574972
211	0x3d80d843	0.06291249
212	0x3c3378b8	0.010954075
213	0xbd8eb37b	-0.06967827
214	0xbd63dc2e	-0.0556299
215	0x3cee29aa	0.029072601
216	0x3e3cb85f	0.18429707
217	0xbe123d4f	-0.142812
218	0xbd72d306	-0.05928328
219	0x3cc21acf	0.023694424
220	0xbd70ec55	-0.058819134
221	0xbd9f95b4	-0.077922255
222	0xbcf5c594	-0.03000144
223	0xbcc7a82d	-0.024372185
224	0x3bd69b21	0.0065492545
225	0x3c0ed984	0.008718852
226	0xbdc6c549	-0.09705598
227	0x3d2e7cc2	0.042599447
228	0xbcba7cd9	-0.02276461
229	0xbb47ed81	-0.0030506554
230	0xbcbfc337	-0.023408515
231	0x3e048504	0.12941366
232	0xbd8757fe	-0.0660858
233	0x3ca6eb35	0.020375827
234	0xbcca4ca7	-0.024694754
235	0xbd6fbaad	-0.058527637
236	0x3be165b6	0.00687858
237	0x3d4af4a8	0.04954973
238	0x3bda99d8	0.0066711716
239	0x3d9d8c9a	0.07692833
240	0x3c6aca52	0.0143304635
241	0x3c242276	0.010017982
242	0xbe079196	-0.1323913
243	0xbe1d199b	-0.15341799
244	0x3e08a300	0.1334343
245	0x3d2e817d	0.04260396
246	0x3e0eb47a	0.13936034
247	0xbe4dc42f	-0.2009437
248	0xbd0d3342	-0.03447271
249	0x3c9f4ffe	0.019447323
250	0x3e18af36	0.14910588
251	0xbd6f64af	-0.05844563
252	0xbc80e318	-0.015733287
253	0xbb7e6425	-0.0038817015
254	0x3e1670bc	0.14691442
255	0x3d3c0024	0.04589857

bias f4 [40]
0	0xbd02b2d3	-0.03190882
1	0x3c8fa476	0.017534476
2	0xbd0b3ffd	-0.03399657
3	0x3cd2903e	0.025703546
4	0x3cc76e63	0.024344629
5	0x3e1e20b4	0.15442163
6	0x3e42f5b6	0.19039044
7	0xba491478	-0.00076705916
8	0x3e1d1956	0.15341696
9	0x3efc493c	0.49274623
10	0x3c68bd82	0.014205338
11	0x3be1234e	0.0068706637
12	0x3d9d3000	0.07675171
13	0x3db20e94	0.08694187
14	0x3d1f9fe8	0.038970858
15	0x3c8c195a	0.017101932
16	0x3da692f8	0.08133501
17	0x3c192576	0.00934731
18	0x3cdc0811	0.026859315
19	0x3e11c2ba	0.14234439
20	0xbbfe3733	-0.007758045
21	0x3d61887d	0.055061806
22	0x3d9573a0	0.07297444
23	0x3d40ce20	0.047071576
24	0x3de4fcfe	0.11181067
25	0xbcb14e7a	-0.021643866
26	0x3d59e21b	0.053194147
27	0xbd2ae540	-0.041722536
28	0xbafb5db4	-0.0019177706
29	0x3cbec09f	0.023285208
30	0xbd90cb61	-0.070700414
31	0x3d4df390	0.050281107
32	0x3c5ce669	0.013482668
33	0xbd192929	-0.03739277
34	0x3e24a95e	0.16080233
35	0x3d91ab79	0.07112784
36	0xbabdf52b	-0.0014492621
37	0xbcadf3bf	-0.021234391
38	0x3df7db7f	0.121024124
39	0x3d51755d	0.051137317
