all_manuscript_models/sim350/phoenix/noise_0.2/best_val_model_alpha_comb.pt (torch, 113451 bytes, 1 tensors)

weight f4 [350, 80]
000000 99 f1 bc bc 76 25 37 3c cc 3a 13 3b 65 03 f4 bc
       -0.023064421 0.011178365 0.0022465466 -0.029786775
000010 bf 08 6b bc 13 20 fe 3c da 7d 3b bc e5 6b 12 bc
       -0.014345347 0.031021154 -0.01144358 -0.008936857
000020 bb c1 9c bc fc 8c a6 3b 3c 9f 01 3d 4c 3f b4 3c
       -0.019135347 0.0050827246 0.031646 0.022002839
000030 1e 9d 75 3b a0 20 14 3c 8b 74 d9 bb a4 b6 e8 3b
       0.0037477682 0.0090409815 -0.0066362075 0.0071018506
000040 e7 4c 9c 3c cb 78 d2 bc ca 93 82 3b 45 dd c2 39
       0.019079639 -0.025692364 0.003984903 0.00037167422
000050 8f c2 1f 3c e4 c8 8f 39 67 71 8f bc 1b 92 42 bc
       0.009750976 0.0002742476 -0.01751013 -0.011875655
000060 af 6d 96 bb 54 d7 40 bc d3 9c 28 bc ef 52 07 3c
       -0.004590712 -0.011770088 -0.010291296 0.008259519
000070 a8 5f 2a bb ce 46 aa bc 76 6a 0d 3d cd d9 02 bd
       -0.0025996957 -0.020785715 0.034525357 -0.031945992
000080 df 78 7d bc 71 c4 bb bc 3c e7 61 bc a3 48 df bc
       -0.015470712 -0.022920819 -0.013788041 -0.027256316
000090 f4 5e 2b bc ee 54 a1 bb fc cf 8c 3c f2 db b5 ba
       -0.01045965 -0.0049234545 0.017189018 -0.0013874753
0000a0 72 9c 6a 3c 3e ad 80 3c b3 e9 19 3c af 37 40 3c
       0.014319526 0.015707608 0.009394097 0.011732026
0000b0 c0 a3 6c 3c 00 c3 41 3c 3d 89 26 3c 0e 27 24 3c
       0.014443338 0.011826277 0.010164556 0.010019077
0000c0 46 91 56 3c 42 60 03 3c 42 b0 f1 3b 95 fe 3e 3c
       0.013096159 0.008018555 0.007375748 0.011657377
0000d0 77 3a 8c 3c 39 39 26 3c 1a a8 4a 3c 8a 98 44 3c
       0.017117722 0.010145479 0.01236918 0.011999259
0000e0 d5 76 f1 3b 0c c9 16 3c ae d0 df 3b 15 65 22 3c
       0.007368902 0.009203207 0.0068302965 0.009911795
0000f0 b5 a1 25 3c 6d 14 56 3c c0 a6 25 3c 10 a0 96 3c
       0.010109355 0.013066393 0.010110557 0.01838687
000100 cb e2 60 3c d7 96 7d 3c 48 06 20 3c 2f 7d 60 3c
       0.013725947 0.015477858 0.009767123 0.013701721
000110 7a e1 7a 3c 42 36 ea 3b 6a df 92 3c ef e8 48 3c
       0.015312547 0.0071475813 0.017928798 0.012262567
000120 c0 ea 2d 3c 26 2f 2f 3c 0e 4f 4a 3c eb 94 30 3c
       0.010615051 0.010692393 0.01234795 0.010777692
000130 e6 d1 f8 3b 42 45 2e 3c 9c 60 53 3c f0 18 d8 3b
       0.007593381 0.01063663 0.012901451 0.0065947697
000140 52 f2 6f bc d0 0f a4 3b 6a 81 2d ba 2c b8 13 bc
       -0.014645176 0.005006768 -0.00066187105 -0.009016078
000150 35 45 36 bc f6 82 12 3d 64 91 77 bc d0 0c c5 bb
       -0.011124899 0.035769425 -0.015110347 -0.0060134903
000160 ad c5 63 bc f4 5b bf 3b 4b e8 17 3d cb b0 2b 3c
       -0.01390211 0.005839819 0.037086766 0.010479162
000170 78 17 82 3c 19 fc 1b 3d d6 cf 42 bc 17 36 41 bb
       0.015880331 0.038082216 -0.011890372 -0.0029481703
000180 9f d4 01 3d 5d e8 04 bd 73 12 5c bc 9c dd 16 bc
       0.031696912 -0.03244816 -0.013432133 -0.009208109
000190 90 b6 ee 3c 9f 56 2b 3d d8 2b ae bc 05 81 f3 ba
       0.029139787 0.041830655 -0.02126114 -0.001857788
0001a0 e1 9d 89 bb 87 7a 64 bc b4 08 cd bb cf 9f 68 3c
       -0.004199729 -0.013945228 -0.006257141 0.014198258
0001b0 83 41 9f bc 2d 67 35 bd b9 1e 69 bd f1 ac ae bc
       -0.019440418 -0.04428785 -0.056914065 -0.0213227
0001c0 99 11 9d bc c3 41 13 bd 3f b8 26 bc 00 c5 91 3d
       -0.01917343 -0.035951387 -0.010175764 0.07117653
0001d0 02 99 b7 bb b7 f9 ac 3a 78 09 08 3c 43 42 37 3d
       -0.0056029567 0.0013196979 0.008303039 0.044740926
0001e0 6c 5d 7d 3c 2f ff f4 3b d4 9a ca 3b be ac 68 3c
       0.015464168 0.0074767093 0.0061830077 0.014201341
0001f0 30 58 87 3c 16 11 2d 3c ac d5 96 3c 28 85 c0 3b
       0.016521543 0.010563156 0.018412434 0.0058752485
000200 aa 01 4d 3c e0 cf 29 3c 2b d1 f9 3b cb 9e 03 3d
       0.012512604 0.010364503 0.0076238117 0.03213386
000210 bc fe 55 3c ee 8e 36 3c 4f 34 de 3b 48 ad 4e 3c
       0.013061222 0.0111424755 0.006781138 0.012614556
000220 3a de 1a 3c 6c 42 23 3c 90 1a 0d 3c f8 f2 06 3c
       0.009452397 0.009964567 0.00861229 0.008236639
000230 44 e4 33 3c 4e d5 35 3c fd 9a 02 3c d5 dc 51 3c
       0.010979716 0.011098219 0.007971522 0.012808998
000240 a7 9f 06 3c e3 1a 5c 3c 0a 70 0a 3c 6b fe 92 3c
       0.008216775 0.013434145 0.008449564 0.017943582
000250 ee 8b 77 3c 4a 12 c8 3b 90 31 2e 3c d8 6d 45 3c
       0.015109045 0.006105696 0.010631934 0.012050115
000260 14 f9 59 3c 46 a1 2b 3c 07 1c 30 3c d9 ab 1a 3c
       0.013304014 0.010475462 0.01074887 0.009440386
000270 c9 13 23 3c 55 6b 0f 3c 39 5a d0 3b 25 8b 7c 3c
       0.009953448 0.008753617 0.0063584116 0.015414034
000280 38 2d 51 bb b4 ec a1 3b 08 8c cd bb a3 cc db bb
       -0.0031917822 0.0049415473 -0.0062727965 -0.006707744
000290 f6 e1 38 bc e3 7a db 3b 44 d6 96 ba 68 91 44 3b
       -0.011284342 0.006697999 -0.0011507948 0.0029993895
0002a0 c2 e1 c8 bd 90 f6 bd 3d 84 26 8e 3b 6b 4e bf 3b
       -0.09808685 0.09275544 0.0043380875 0.0058382056
0002b0 8f 40 8a 3b fb f7 11 3b 31 40 9f b9 02 df 4f bb
       0.0042191218 0.0022273052 -0.0003037467 -0.0031718616
0002c0 51 06 65 bc c7 34 b7 bb 32 45 80 3c ab 4e 9f 3b
       -0.013978557 -0.0055910083 0.015657995 0.004861673
0002d0 54 07 13 3a 34 25 19 3d 00 77 35 3b 74 76 5f 3a
       0.0005608697 0.037388995 0.0027689338 0.0008524426
0002e0 f1 a8 6e 3b 3b 38 8e bb df f5 c3 bb 5d 22 4e 3c
       0.0036416615 -0.0043401993 -0.005980238 0.012581435
0002f0 1f 81 77 3c c0 66 a0 bc ff fd 94 b9 13 91 24 3a
       0.015106468 -0.019580245 -0.00028418002 0.0006277721
000300 6c ba 6c 3c 0e 95 de 3b 2d 42 1c 3b d7 89 fa bb
       0.014448743 0.006792671 0.0023843155 -0.0076458263
000310 38 03 b0 3a 53 c5 af bc a9 f2 18 bb ce 77 ac bc
       0.0013428694 -0.021456396 -0.0023337996 -0.021053221
000320 01 71 6d 3b e4 5c 1b ba 77 1c 92 38 70 65 75 3b
       0.0036230686 -0.00059266225 6.9671245e-05 0.0037444495
000330 d9 cb 00 bd 5d 0e 08 3b 1e 74 b4 3b a3 96 20 bb
       -0.031444404 0.0020760514 0.0055070063 -0.002450385
000340 31 46 e3 39 d5 a6 ae 3b 6d e7 ec ba 6e 6f db 3a
       0.0004334911 0.0053299465 -0.0018074341 0.0016741583
000350 a7 23 b4 3d c0 97 0d 39 52 cc b0 3b 24 b3 05 3b
       0.08795863 0.00013503339 0.0053954506 0.0020400966
000360 b6 e1 b2 ba 37 e8 e8 3b fe 9b 72 3b 67 66 0c ba
       -0.0013647589 0.0071077603 0.0037019248 -0.00053558353
000370 a9 21 b9 3b ae 07 2d 3b 90 1d 37 b8 c9 d7 b1 3b
       0.0056497646 0.0026402283 -4.3658132e-05 0.005427335
000380 74 2d 81 3b e2 b4 9c 3b 60 d6 9a 3b 63 64 21 3a
       0.003942186 0.004782305 0.0047252625 0.00061566214
000390 f8 92 dc 3a cd d7 8f 3d 93 44 aa 3b 05 95 89 ba
       0.0016828468 0.070235826 0.005196163 -0.0010496682
0003a0 49 2e 05 3b 0b 30 7f 3a 8b a5 23 3b 57 8f c8 3b
       0.0020321778 0.0009734637 0.0024970497 0.006120603
0003b0 a0 58 db 3a 83 2c 85 3b 9b f2 82 3b 82 6e 96 3b
       0.0016734786 0.004064144 0.003996206 0.0045908103
0003c0 2b 2d b7 bc a5 a9 a1 3c 0d 75 1b 3c 28 82 95 bc
       -0.022360405 0.019734213 0.009488356 -0.01825054
0003d0 6d e0 18 bc db 47 a2 bb 9b c9 40 bc 17 28 c7 bc
       -0.009330851 -0.0049524135 -0.0117668165 -0.024311109
0003e0 eb bd 4c bc eb 5d 69 3c 2f 35 90 3c ca fc 1e bd
       -0.012496452 0.014243583 0.017603485 -0.038815297
0003f0 9c 19 17 3c b3 c3 46 3c 48 ae 16 bc 74 3c a8 ba
       0.009222414 0.012131619 -0.009196825 -0.0012835399
