all_manuscript_models/sim350/phoenix/noise_0.1/best_val_model_prods.pt (torch, 57895 bytes, 2 tensors)

weight f4 [40, 350]
0	0x3c7961a4	0.015221033
1	0xbca3ac49	-0.019979613
2	0x3dc8c6cd	0.09803543
3	0xbcec2f75	-0.028831223
4	0x3c9aaf9a	0.018882561
5	0x3b8ce345	0.0042995536
6	0x3c96c21f	0.018403111
7	0xbb79187c	-0.0038008979
8	0x3c86d15e	0.016457256
9	0x3d59c1c7	0.053163316
10	0x3d855353	0.065100335
11	0x3da565b1	0.08076037
12	0x3d2864c4	0.041111723
13	0x3d671fe7	0.05642691
14	0x3d6e29cf	0.05814534
15	0x3d137f8e	0.036010318
16	0x3bad3234	0.0052855257
17	0xbc70f3cb	-0.014706562
18	0x3cf869d7	0.030323906
19	0x3d568d41	0.052380804
20	0x3b8f6cf6	0.004377003
21	0xbced0498	-0.028932855
22	0x3da9a1e3	0.082828306
23	0x3d18f47d	0.037342537
24	0x3c435729	0.011922636
25	0x3d37f67b	0.044912796
26	0x3d0498dc	0.03237234
27	0x3c9cbfae	0.019134369
28	0xbcf06df0	-0.029349297
29	0x3ca55863	0.020183748
30	0x3d1f3ecb	0.038878243
31	0x3b32bbd8	0.0027272608
32	0x3d4e8029	0.05041519
33	0x3d8701a1	0.065921076
34	0x3d5b35f7	0.05351826
35	0xbc7ec8c4	-0.015550796
36	0xbc1df689	-0.009641298
37	0x3d2c1dbc	0.042020544
38	0x3d37a977	0.04483935
39	0xbc94e15c	-0.018173866
40	0xbd6bbcf8	-0.05755326
41	0xbd193e9e	-0.037413232
42	0xbccb0e57	-0.024787111
43	0x3c6a99c6	0.014318889
44	0x3d766328	0.060153157
45	0xbc93f2a0	-0.018060029
46	0xbd1d5429	-0.03841034
47	0x3d4dbd57	0.050229397
48	0x3d220de8	0.039564043
49	0xbcd2fc01	-0.02575493
50	0xbccd1328	-0.025033548
51	0x3cd3e48f	0.025865821
52	0x3d391410	0.04518515
53	0xbca4bdf1	-0.020110102
54	0x3d609207	0.054826763
55	0x3c235df8	0.009971134
56	0x3d4cdef9	0.05001733
57	0xb9b9f02b	-0.0003546489
58	0x3d14be03	0.03631402
59	0x3cc591b4	0.024117328
60	0x3d363dd4	0.044492558
61	0xbda5c36a	-0.08093913
62	0x3d4d60d1	0.05014116
63	0xbdc443aa	-0.095832184
64	0x3d83a1be	0.06427334
65	0x3ca03234	0.019555189
66	0xbcf2f942	-0.029659871
67	0x3d6a54f2	0.057209916
68	0xbcc40a23	-0.023930615
69	0xbd5ed5d6	-0.05440315
70	0x3ce7c122	0.028290335
71	0xbcf0a548	-0.029375687
72	0xba061132	-0.00051142566
73	0x3c85d535	0.016337017
74	0xbd1511db	-0.03639398
75	0x3a1f981b	0.0006088034
76	0x3d0e6899	0.03476772
77	0xbd14a64d	-0.03629141
78	0x3c3e127e	0.011601089
79	0x3d4a657b	0.049413186
80	0xbd866f7e	-0.06564234
81	0x3cd9f050	0.026603848
82	0x3d05a7e6	0.032630824
83	0x3d639ca0	0.05556929
84	0x3b2fc2e9	0.0026819056
85	0xbc93503d	-0.017982597
86	0x3cdfce94	0.027320184
87	0x3c117b0a	0.008879432
88	0xbc8d735d	-0.017266924
89	0xbda0b9eb	-0.07847961
90	0x3d7f9557	0.06239828
91	0x3b0a7e16	0.0021132282
92	0x3d1644fa	0.036686875
93	0x3bbfdf7e	0.0058554998
94	0x3d3588fe	0.0443201
95	0x3d351336	0.044207774
96	0xbc04a75b	-0.008096541
97	0x3cc6f947	0.024288787
98	0xbcb55f35	-0.022140125
99	0x3d04d40b	0.032428782
100	0xbc3e8e13	-0.011630553
101	0xbb4357bc	-0.0029806932
102	0xbd1bf29f	-0.03807318
103	0x3d846da4	0.06466225
104	0x3b08f41f	0.002089746
105	0x3c2c1e06	0.010505205
106	0xbbc739ea	-0.006079902
107	0xbc08ff33	-0.0083616255
108	0x3d56b0cb	0.052414697
109	0xbd5fbd3a	-0.05462382
110	0x3d63ea50	0.05564338
111	0x3d243738	0.040091723
112	0x3cc2e96f	0.02379295
113	0x3d3be7c6	0.045875333
114	0x3d639606	0.055562995
115	0xbcfb4973	-0.030674672
116	0xbce88415	-0.028383294
117	0x3ccf0ae0	0.02527374
118	0xbd008318	-0.03137502
119	0x3d4d4629	0.050115738
120	0x3d3632ab	0.044481914
121	0x3d3fc015	0.046814043
122	0x3d5d4211	0.054018084
123	0xbd298d53	-0.041394543
124	0x3b9df5a9	0.0048205447
125	0x3c759e46	0.014991349
126	0x3cf46ca1	0.029836955
127	0x3d303a53	0.043024372
128	0x3d4905fa	0.049077965
129	0x3d555d6e	0.052091055
130	0x3d62e902	0.055397995
131	0x3d21cef8	0.03950402
132	0x3d306f3e	0.04307484
133	0x3c8e56b2	0.017375324
134	0xb9ee53ab	-0.00045457235
135	0x3c588a59	0.013216578
136	0x3cdae9e5	0.026722858
137	0x3d53f8bc	0.051750883
138	0xbc836145	-0.016037593
139	0x3d48f468	0.04906121
140	0xbcc697d3	-0.024242317
141	0x3cc763c5	0.024339566
142	0x3cb65994	0.022259511
143	0x3bb9eb56	0.005673806
144	0x3d0dfd2c	0.03466527
145	0xbb1e203e	-0.0024128105
146	0x3d9488f4	0.07252684
147	0x3d39d52b	0.04536931
148	0x3c95286f	0.018207757
149	0x3d84155d	0.06449387
150	0x3d43657e	0.047704212
151	0x3d499b51	0.049220387
152	0x3c5dd63c	0.013539847
153	0x3d7b47bc	0.061347708
154	0x3d088a05	0.03333475
155	0x3d10dd8d	0.035367537
156	0x3d6ae5dd	0.05734812
157	0x3d246e6f	0.04014438
158	0xb9023af4	-0.00012419728
159	0xbcf9520e	-0.030434635
160	0xbd1853ff	-0.03718948
161	0x3d5d838e	0.05408054
162	0xbcacff7a	-0.021117914
163	0x3c73ca6c	0.014879804
164	0x3d29e971	0.041482393
165	0x3c7ebb02	0.015547516
166	0x3d3f4b6b	0.046702784
167	0x3d83a7b3	0.064284705
168	0xbd1bbb4c	-0.038020417
169	0x3ced95de	0.029002126
170	0x3d3fcf3e	0.0468285
171	0x3cd298af	0.02570757
172	0x3c8761bf	0.016526101
173	0x3d63b7ad	0.05559509
174	0x3d170b6a	0.03687612
175	0x3bf66cd7	0.007520299
176	0x3d3214d8	0.04347691
177	0x3d51872a	0.051154293
178	0x3d2dab45	0.042399663
179	0x3d64252d	0.055699516
180	0x3c274c9d	0.010211137
181	0x3d61f544	0.055165544
182	0x3cbb950a	0.022898216
183	0xbb10d163	-0.002209746
184	0xbc9011aa	-0.017586548
185	0x3d4c6b36	0.04990693
186	0x3d3f1149	0.046647344
187	0x3ca7b651	0.020472677
188	0xbceb2476	-0.02870391
189	0x3d71c34e	0.059024148
190	0x3c3ff7d8	0.011716805
191	0x3d9137f9	0.07090754
192	0xbc72963e	-0.014806328
193	0x3c8b79b4	0.017025806
194	0xbc46f278	-0.01214277
195	0xbd30f3df	-0.043201324
196	0x3bc0f725	0.005888837
197	0x3d8069f1	0.06270207
198	0x3d33b4a5	0.043873448
199	0x3d30ceb2	0.04316587
200	0x3d61a712	0.05509097
201	0xbc3f2b2c	-0.011668008
202	0x3d2c53b2	0.042072006
203	0x3d487031	0.04893512
204	0xbccc431a	-0.02493434
205	0xbd18cbbe	-0.03730368
206	0xbcaa418a	-0.020783205
207	0xbc6ca73d	-0.01444417
208	0x3d39f2c2	0.045397528
209	0x3c7c31e4	0.015392754
210	0x3d9cee08	0.07662588
211	0x3cbd8e3a	0.023139108
212	0xbd759e5c	-0.059965476
213	0xbcbe3e46	-0.023223054
214	0x3d6d85ec	0.057989046
215	0x3d35f606	0.04442408
216	0x3d73bcdf	0.059506293
217	0xbc86401d	-0.016387993
218	0xbc236cdf	-0.009974687
219	0xbca3d3e4	-0.019998498
220	0xbccb9eaa	-0.02485593
221	0xbb7b643a	-0.00383593
222	0xbdc1da14	-0.09465423
223	0xbd2ecfc3	-0.042678606
224	0xbd92932a	-0.071569756
225	0xbc6d761a	-0.01449349
226	0xbb28402a	-0.002567301
227	0xbcea8071	-0.028625699
228	0x3ccfe635	0.025378326
229	0x3d000b1b	0.03126059
230	0x3d315d41	0.043301824
231	0x3d62925e	0.055315368
232	0xbd48e7a1	-0.049049024
233	0x3d4da0c8	0.05020216
234	0x3d02d35a	0.03193984
235	0xbd393e6b	-0.045225542
236	0xbcbb3578	-0.022852644
237	0x3d72351f	0.05913269
238	0x3cf827ea	0.03029247
239	0x3d4b5b80	0.049647808
240	0xbd0fbb88	-0.035090953
241	0x3cc67053	0.024223482
242	0x3b41ad98	0.0029552933
243	0xbadc9f2e	-0.0016832107
244	0x3b92910f	0.0044728587
245	0xbba4f27d	-0.0050337897
246	0x3d30d323	0.043170106
247	0x3c33930c	0.010960352
248	0x3cbc0a9d	0.02295428
249	0x3ceac882	0.028660063
250	0x3c236824	0.0099735595
251	0x3bd4b52d	0.0064913244
252	0xbd3e451c	-0.046452627
253	0xbd46a84b	-0.04850034
254	0x3d388964	0.0450529
255	0x3c9fee31	0.019522758

bias f4 [40]
0	0xbd84cc56	-0.064842865
1	0xbdb3922b	-0.08768114
2	0xbd20fa8c	-0.03930144
3	0xbd4246a2	-0.047430642
4	0xbd213332	-0.039355464
5	0xbcbfd8b3	-0.02341876
6	0xbdb12949	-0.08650453
7	0xbdbfadba	-0.093593076
8	0xbde69f67	-0.11260872
9	0xbd799d94	-0.060941294
10	0xbdbd7dc5	-0.09252504
11	0xbc9166dd	-0.017749244
12	0xbd73c795	-0.059516508
13	0xbd0e75da	-0.03478036
14	0xbd922071	-0.07135094
15	0xbc94fe80	-0.018187761
16	0xbddc2ea5	-0.10751084
17	0xbde98eb3	-0.11404171
18	0xbcaf1897	-0.02137403
19	0xbe01015a	-0.12598172
20	0xbdd6062b	-0.10450395
21	0xbdb5cc7f	-0.08876895
22	0xbe06b718	-0.13155782
23	0xbd328c5e	-0.043590896
24	0xbde0e41e	-0.1098101
25	0xbdf024a4	-0.11725739
26	0xbdcb8e4f	-0.099392526
27	0xbd1bfc0e	-0.038082175
28	0xbd3f0bcd	-0.046642113
29	0xbde96293	-0.11395755
30	0xbdf2f159	-0.1186244
31	0xbd4320ef	-0.04763883
32	0xbddbd113	-0.10733237
33	0xbd0b6224	-0.03402914
34	0xbd1cab2e	-0.038249187
35	0xbd97f5cc	-0.07419929
36	0xbdfe2444	-0.12409261
37	0xbd386b4d	-0.045024205
38	0xbd62d703	-0.055380832
39	0xbd091032	-0.03346271
