all_manuscript_models/sim350/phoenix/noise_0.1/best_val_model_alpha_comb.pt (torch, 113451 bytes, 1 tensors)

weight f4 [350, 80]
000000 c6 09 f0 3b 2f 2e 0d 3d b5 28 6c bd 51 1e 7a 3d
       0.007325384 0.034467872 -0.05765601 0.06106407
000010 d2 7e 61 bc 59 30 0a 3c 59 0a 9d 3b c3 5a d2 3d
       -0.0137631465 0.008434379 0.0047924933 0.10271218
000020 b4 10 08 3c 11 6a c7 3d 72 fc 53 3c 73 56 6b 3d
       0.008304764 0.097370274 0.012938606 0.05745549
000030 f5 a7 b4 3c c3 29 68 3c 66 52 a3 bd 91 76 ad bd
       0.022052744 0.014170113 -0.07974701 -0.0846988
000040 a1 d8 83 3d 7e a7 f9 bc 96 3c 6f 3c 8f fe 2d bc
       0.06437803 -0.030475374 0.014601847 -0.0106197735
000050 ad ef 5d bd bc 1e 11 3d 32 04 80 bc 30 9a 17 bd
       -0.05418365 0.0354297 -0.015627 -0.03701228
000060 ef 7c b4 3c cf 0f 75 3d d3 ce 1a bc e8 af 9c bc
       0.02203223 0.05982953 -0.009448725 -0.019126847
000070 5a 03 7f bc 6a 9e 69 3c 24 88 cb 3c a6 14 0f 3c
       -0.015564764 0.01425896 0.02484519 0.00873295
000080 5f 64 0b bd 7b 4f 4d bd e1 49 13 3d 2a c0 0c 3e
       -0.03403127 -0.050124627 0.03595913 0.1374518
000090 b1 c0 0c bd 63 44 75 bc 68 db 7f bd d9 6e 1e 3d
       -0.034363452 -0.014969918 -0.0624651 0.03867993
0000a0 9a a8 a4 3c 3f 2c bf 3c fc 1c e0 3c d9 a7 c7 3c
       0.020099927 0.023336528 0.02735757 0.024372028
0000b0 17 49 c2 3c a5 89 cd 3c 76 1b a4 3c b9 8e a0 3c
       0.023716493 0.025090048 0.020032626 0.019599305
0000c0 45 43 b6 3c 55 48 e4 3c 99 4d 9a 3c 94 e6 d4 3c
       0.022248873 0.027866522 0.01883583 0.025988854
0000d0 9e ea c9 3c 2d fb 98 3c cc 07 c2 3c 6b 22 d0 3c
       0.024648007 0.018674457 0.023685358 0.025407037
0000e0 f4 73 ae 3c 7a 7d 9d 3c 97 51 5c 3c 3e 30 a8 3c
       0.021295525 0.019224871 0.013447187 0.020530816
0000f0 8f 16 cd 3c 9f 9b d0 3c ac 2d f4 3b df c8 9e 3c
       0.02503517 0.02546483 0.0074517336 0.019382892
000100 ed 3e ae 3c ba 0e a8 3c e0 ab 87 3d 2a 0a 9d 3c
       0.02127024 0.020514835 0.066245794 0.019169886
000110 f7 94 d2 3c 1b 2d cd 3c 83 d1 be 3c c0 48 b9 3c
       0.025705798 0.025045922 0.023293262 0.022617698
000120 b0 02 ce 3c 1f b4 bd 3c 39 d0 89 3c 49 e1 c4 3c
       0.025147766 0.023157177 0.016822921 0.024033206
000130 68 20 c4 3c b5 4c a6 3c 2b 55 d4 3c 04 6e bd 3c
       0.023941234 0.020300249 0.025919518 0.023123749
000140 b7 5c 6c 3d 72 56 79 bb 31 a1 89 bd 89 d3 78 3c
       0.057705607 -0.003804591 -0.06720198 0.015187153
000150 29 de 16 3d b2 f2 84 bd 35 84 e9 bc fb bc cd 3d
       0.036832962 -0.06491603 -0.028505424 0.10045811
000160 02 88 37 bc 4a ad c2 bb 78 c6 14 3d 1e c8 19 3d
       -0.01120186 -0.005941068 0.036322087 0.037544362
000170 5d d6 7c 3d 39 6e 07 3e 5a 30 61 bd ee 57 c1 bb
       0.06172787 0.1322564 -0.054977752 -0.0059003746
000180 6c de 2c bd 63 a4 7d 3d cb d7 78 3d 10 29 36 3d
       -0.042204306 0.06192435 0.06075267 0.044472754
000190 7d 6e ab bc b0 f5 86 bc ea 17 5f 3d b6 da 8e 3c
       -0.020926708 -0.016474575 0.054466166 0.017438274
0001a0 c2 f1 54 bd 40 17 28 3d be 89 85 bd 7c 72 0d bd
       -0.05198837 0.041037798 -0.06520413 -0.03453301
0001b0 40 8e 85 3c 35 5d ef 3c f8 d1 e7 3c 38 ac 40 3d
       0.016303182 0.02921925 0.028298363 0.04703924
0001c0 d0 f7 13 3d d7 0f c0 3d fc 0c ab 3c e0 8c cd bb
       0.036125004 0.09378021 0.020880215 -0.006272897
0001d0 3a 2c 89 3d d3 77 2b bd b1 39 c6 bc b9 b2 e2 bd
       0.06697889 -0.04186232 -0.024197431 -0.11069245
0001e0 4c a6 e6 3c ce 3d e5 3c 9c 10 e9 3c ff fb de 3c
       0.028155468 0.027983572 0.028450303 0.02721977
0001f0 02 6e 1f bb a6 87 ea 3c 24 a7 e6 3c 27 fc db 3c
       -0.0024327044 0.028629135 0.02815587 0.026853634
000200 21 60 da 3c cb 2a f8 3c 50 e0 c7 3c fb aa 01 3d
       0.026657166 0.030293843 0.024398953 0.0316572
000210 3b 95 dd 3c 9c 66 c7 3c 1a 4e cc 3c 0e d3 ef 3c
       0.027048698 0.02434092 0.024939585 0.029275443
000220 f4 7f d9 3c b9 6b b8 3c 73 c0 b8 3c 44 2f c1 3c
       0.02655027 0.022512304 0.022552704 0.023582108
000230 33 0b ed 3c 81 26 f1 3c cd 2f 94 3c 4c 93 a5 3c
       0.028936004 0.029437305 0.0180892 0.020211838
000240 ce a4 e3 3c 41 f3 cb 3c 0d 41 f8 3c c7 77 cb 3c
       0.027788546 0.024896266 0.030304456 0.024837388
000250 00 1d f0 3c 31 fc b9 3c 1b 6a 84 bb 88 21 bd 3c
       0.029310703 0.022703262 -0.004040969 0.023087278
000260 8f 67 e5 3c 6f 87 f2 3c 66 bc cc 3c 20 69 e4 3c
       0.028003482 0.029605595 0.02499218 0.027882159
000270 5f 48 f2 3c df ac ce 3c 42 b2 d8 3c 30 e0 d2 3c
       0.029575525 0.025228916 0.026452187 0.025741667
000280 4a 6e 40 bd 22 f1 e5 3c 1f 5d 27 bd 2d a4 04 3b
       -0.04698018 0.028069083 -0.04086029 0.0020239458
000290 fb 5f dd bd 56 98 97 3c fa cc a4 bd ba e7 55 3d
       -0.108093224 0.018505257 -0.08046909 0.052222945
0002a0 2f 78 10 3d bf 23 75 3c ce 7f 80 bd 9e db e6 3a
       0.035270866 0.014962136 -0.06274377 0.0017613058
0002b0 9e 64 7b bd 03 df 7b 3d ad 34 54 bd 1d 4e b7 3c
       -0.061375253 0.061491977 -0.051808048 0.022376115
0002c0 69 41 3e 3d 91 8d ce 3b 33 34 d7 3b b5 b5 f7 bc
       0.0464491 0.006303497 0.006567502 -0.030238012
0002d0 4b ff b7 3d 3c b8 f8 3d e5 11 d9 bc e3 c6 82 3d
       0.0898424 0.12144515 -0.02649779 0.06385591
0002e0 cd 0e 54 bd 33 e5 fa 3c c7 82 5a bc 64 6d a7 3b
       -0.051771928 0.030626869 -0.013336844 0.005109476
0002f0 cd 8d 93 bd 75 8c 99 3c a4 95 08 bd c6 45 32 bb
       -0.07204781 0.018743733 -0.033345833 -0.0027202233
000300 d6 aa 35 bc 23 3b 24 3c 6e 14 92 3d 95 61 9e bd
       -0.011088094 0.010023865 0.07132803 -0.07733456
000310 15 e7 a6 bc 4b 51 22 3d 8d 78 4f 3c 0e c1 4e 3d
       -0.02037386 0.03962831 0.012663019 0.05047708
000320 a8 b5 53 3c f3 4a fc 3b 9b 66 96 3c d5 89 95 3c
       0.012921728 0.0076993643 0.018359473 0.0182542
000330 b0 c9 7c 3c 2a 81 96 3c cd 4b 69 3c 01 ce 4b 3c
       0.015428945 0.018372137 0.014239264 0.012439252
000340 93 2a 87 3c 28 2b 92 3c 15 bf 83 3c 53 0a 7b 3c
       0.016499793 0.017842844 0.016082326 0.015322286
000350 37 44 99 3c c5 87 b3 3c 8d f8 43 3c fb 61 dd 3c
       0.018709285 0.021915326 0.011961115 0.02702426
000360 3f 9d 48 3c 0f 3d 79 3c 4f 3d a0 3c 57 a2 f4 3b
       0.012244522 0.015212311 0.019560484 0.0074656415
000370 8e 7e 84 3c 28 fd 39 3c 76 1c 1e be bd 07 51 3c
       0.016173627 0.011351861 -0.15440544 0.012758193
000380 aa a6 40 3c 33 09 15 3c ff 18 8c 3c 5d fa 75 3c
       0.011758486 0.009096432 0.017101763 0.015013305
000390 95 ae 54 3c 38 8e 59 3c 3c 19 61 3c 1f e7 5f 3c
       0.012981077 0.0132785365 0.0137389265 0.013665943
0003a0 ef f4 92 3c ea ae 42 3c e5 fd 9d 3c 5e 64 86 3c
       0.017939059 0.011882523 0.019286105 0.01640528
0003b0 6d 9f 81 3c 6b 6e 53 3c ad ee a3 3c fd 2f 4d 3c
       0.01582309 0.012904744 0.02001127 0.012523648
0003c0 b7 05 b7 3d e1 24 87 bd cc 0b 04 3d 67 f1 e2 3c
       0.08936637 -0.06598831 0.032237813 0.027703
0003d0 cc 38 88 3c 7a fe 1f bd 50 a7 b8 3c 15 4e 99 3d
       0.016628645 -0.039061047 0.022540718 0.07485596
0003e0 7c 00 b4 bc b1 51 76 bd 88 d9 8d 3c b9 5b 09 3e
       -0.021972887 -0.0601365 0.017315641 0.13413896
0003f0 9d ab bb 3c 9b 12 64 bc 40 58 88 bd 45 ad 36 bb
       0.02290898 -0.0139204515 -0.06657457 -0.0027874273
