all_manuscript_models/sim350/phoenix/_first_submission/noise_0.05_new/best_val_model_alpha_comb.pt (torch, 113451 bytes, 1 tensors)

weight f4 [350, 80]
-0.05740382 -0.033950273 0.06325268 0.019553667 0.060317818 0.03875907 0.025931988 0.017918054
0.059944447 0.068183675 0.0010711972 -0.027355935 0.10393392 -0.031455703 -0.056309063 0.07162795
-0.06564298 0.042511184 0.09664975 -0.07487211 -0.009190248 -0.096197225 -0.012488076 -0.01734386
0.019680873 -0.011295062 0.06930665 -0.01493289 -0.07429617 -0.08880008 -0.04560072 0.019047659
-0.05214342 -0.018460782 0.0007181613 0.11751467 0.06381449 0.032547195 0.011413568 -0.0007141969
3.9673112e-05 0.017591199 0.005156173 -0.012763246 -0.02241729 5.6036035e-05 0.0058180653 0.029489992
-0.011323058 -0.010497721 -0.021853156 0.047828615 -0.04478552 0.06887633 0.013194014 -0.041178007
0.021191213 0.021411952 -0.021649078 -0.022619724 0.024640206 0.08687365 -0.0026383463 0.047058105
-0.01202627 -0.007034385 -0.026142366 0.15250814 0.01864105 0.06470359 -0.0315806 -0.003787962
0.015716404 -0.010041147 -0.017479455 -0.004807816 0.017105194 -0.022243187 0.02549819 0.018460106
-0.098124824 -0.015984327 -0.034047723 -0.012092486 -0.10510016 -0.036345612 0.045464355 0.08508745
0.120122075 0.004294169 -0.009581951 -0.14554055 0.037048955 -0.0006176818 -0.12361442 0.035160527
-0.040096685 -0.03349268 0.04582675 -0.08190029 -0.023789452 0.029199827 0.019880692 0.098445
0.0174228 -0.044592243 -0.027498942 -0.040650066 0.031763263 -0.01595164 -0.10450003 -0.04276677
0.010383888 0.022946939 0.06146368 -2.8832193e-05 0.120466426 0.045732763 0.0069217705 0.021844646
-0.002139454 0.025214862 -0.005962139 -0.020032186 -0.010849754 0.039325066 -0.0026134518 -0.015396282
-0.004259551 -0.013348776 0.027154261 -0.031322327 0.059835106 0.02798227 0.031870518 -0.029046228
0.0205014 0.015735624 0.0048498893 -0.011517929 0.030475948 -0.011061374 0.05639995 0.061721377
-0.020050436 0.004862125 -0.003604927 0.081421986 -0.00899115 0.043596845 -0.014456248 -0.001211957
0.04467942 -0.015155711 -0.011150654 -0.0038192626 0.029233314 -0.0222375 0.051624868 0.036637094
-0.0033024582 0.028665187 -0.0070435666 0.0495072 -0.06606264 0.05189929 0.029423557 0.05782268
0.06353315 0.049095392 -0.036465727 0.0023370546 0.057629667 0.015509929 -0.02506111 0.04745579
-0.016614398 -0.0035453425 0.035364885 -0.08631235 -0.07006045 -0.06073931 0.0043901573 -0.025713466
0.0023730404 0.059281155 -0.01631643 -0.046898656 -0.041783944 -0.05602737 -0.032896195 -0.07786855
-0.05774308 -0.033244662 0.02147002 0.03756883 0.07959164 0.039495986 0.025564577 -0.040352013
0.003987434 0.006396418 -0.009644908 -0.0006777434 -0.016190479 -0.0021370067 0.008085128 0.01178839
0.004537363 -0.0072881337 0.03430661 0.023579927 0.11378308 0.015734738 0.024371648 -0.0096066175
0.012776626 0.004679934 -0.014544229 0.004916084 -0.007399091 -0.050019514 0.012418702 0.045604765
0.0019591092 0.020147933 -0.012921468 -0.059850827 0.009563935 0.057146937 -0.017582096 0.0049985643
-0.0018423456 0.0024493316 -0.0075759497 -0.006335918 -0.0038076814 -0.0093808295 0.005310746 -0.0047478345
-0.06071639 0.03879422 -0.050534956 0.0010441258 0.07074124 0.012528867 -0.013319982 0.090511344
0.07281785 0.08819724 0.016540876 -0.14116494 0.2031429 0.055524565 -0.024539847 0.06657733
00000000: 4520 6bbd 710f 0bbd 9f8a 813d 032f a03c
00000010: d10f 773d d5c1 1e3d 526f d43c e2c8 923c
00000020: 4f88 753d e2a3 8b3d 6a67 8c3a 8e19 e0bc
00000030: 4fdb d43d b2d7 00bd 55a4 66bd adb1 923d
00000040: d46f 86bd 3520 2e3d 4ef0 c53d 8c56 99bd
00000050: b292 16bc 0d03 c5bd ca9a 4cbc b614 8ebc
00000060: c839 a13c ec0e 39bc a5f0 8d3d 15a9 74bc
00000070: 9728 98bd d1dc b5bd d2c7 3abd d609 9c3c
00000080: 5794 55bd 113b 97bc fd42 3c3a 88ab f03d
00000090: 2cb1 823d 3550 053d f9ff 3a3c f138 3bba
000000a0: ae66 2638 6b1b 903c 1df5 a83b ef1c 51bc
000000b0: 77a4 b7bc 3c08 6b38 78a5 be3b ff94 f13c
000000c0: 5984 39bc a2fe 2bbc 6405 b3bc f0e7 433d
000000d0: 0571 37bd 090f 8d3d b52b 583c 45aa 28bd
000000e0: 3299 ad3c 1e68 af3c 6859 b1bc 004d b9bc
000000f0: 42da c93c d0ea b13d 1be8 2cbb 00c0 403d
00000100: d509 45bc b380 e6bb 8428 d6bc 182b 1c3e
00000110: 1eb5 983c 5183 843d a95a 01bd 753f 78bb
00000120: b0bf 803c 9f83 24bc 1331 8fbc e28a 9dbb
00000130: 3120 8c3c 5837 b6bc 95e1 d03c a639 973c
00000140: abf5 c8bd 90f1 82bc a075 0bbd 901f 46bc
00000150: c13e d7bd 23df 14bd d538 3a3d 5442 ae3d
00000160: 9002 f63d 1ab6 8c3b 9efd 1cbc 9508 15be
00000170: a5c0 173d edeb 21ba 8f29 fdbd 7c04 103d
00000180: 6c3c 24bd 9f2f 09bd d5b4 3b3d 57bb a7bd
00000190: 19e2 c2bc 7a34 ef3c d5dc a23c 889d c93d
000001a0: 43ba 8e3c 5ba6 36bd 7645 e1bc af80 26bd
000001b0: 321a 023d 04ad 82bc 1d04 d6bd 352c 2fbd
000001c0: 2f21 2a3c 38fb bb3c 57c1 7b3d aadc f1b7
000001d0: 1ab7 f63d 4752 3b3d 05d0 e23b 8bf3 b23c
000001e0: 1536 0cbb 668f ce3c 0c5e c3bb 8a1a a4bc
000001f0: 2bc3 31bc 5213 213d 7246 2bbb b040 7cbc
00000200: b493 8bbb d3b4 5abc 9d72 de3c d74b 00bd
00000210: a815 753d 133b e53c a98a 023d 5bf2 edbc
00000220: 8df2 a73c ffe7 803c d2eb 9e3b b2b5 3cbc
00000230: b2a8 f93c c43a 35bc a203 673d 8ecf 7c3d
00000240: d040 a4bc 7652 9f3b a440 6cbb 92c0 a63d
00000250: 9e4f 13bc 9b92 323d e6d9 6cbc 87da 9eba
00000260: c401 373d a94f 78bc 3cb1 36bc 984c 7abb
00000270: b47a ef3c 6b2b b6bc 9974 533d c710 163d
00000280: 0e6e 58bb 41d3 ea3c b8cd e6bb 10c8 4a3d
00000290: d94b 87bd 5a94 543d ac09 f13c 79d7 6c3d
000002a0: ab1d 823d 4018 493d 165d 15bd 4529 193b
000002b0: 160d 6c3d 5b1d 7e3c f54c cdbc 0161 423d
000002c0: eb1a 88bc fa58 68bb c5da 103d 88c4 b0bd
000002d0: da7b 8fbd c8c9 78bd 4fdb 8f3b 0ca5 d2bc
000002e0: 0385 1b3b ccd0 723d 09aa 85bc ce18 40bd
000002f0: a425 2bbd f57c 65bd 29be 06bd 8c79 9fbd
00000300: 0284 6cbd 8e2b 08bd e5e1 af3c c6e1 193d
00000310: f100 a33d 8bc6 213d ce6c d13c 2748 25bd
00000320: 05a9 823b 0b99 d13b ad05 1ebc 97aa 31ba
00000330: e5a1 84bc 060d 0cbb 7c77 043c 1724 413c
00000340: 29ae 943b 4cd1 eebb 1685 0c3d b12a c13c
00000350: 1a07 e93d 23e6 803c 0da7 c73c 1365 1dbc
00000360: 0e55 513c 225a 993b eb4a 6ebc 1a17 a13b
00000370: 1374 f2bb 43e1 4cbd d077 4b3c 10cc 3a3d
00000380: 6664 003b 470d a53c 91b4 53bc 2426 75bd
00000390: 0db2 1c3c e812 6a3d 5408 90bc ffca a33b
000003a0: dc7a f1ba f784 203b ac3f f8bb 889d cfbb
000003b0: 4b8a 79bb 0db2 19bc c405 ae3b b993 9bbb
000003c0: c0b1 78bd b0e6 1e3d befd 4ebd 0cdb 883a
000003d0: c9e0 903d e145 4d3c 0e3c 5abc 035e b93d
000003e0: 8621 953d c1a0 b43d bb80 873c 8b8d 10be
000003f0: b104 503e ba6d 633d ca07 c9bc b259 883d
