all_manuscript_models/sim350/phoenix/_first_submission/noise_0.05_new/best_val_model_prods.pt (torch, 57895 bytes, 2 tensors)

weight f4 [40, 350]
0.051967945 -0.1275528 -0.02768072 0.042298283 0.03345054 0.012533075 -0.015087046 -0.015914317
-0.050929468 -0.0073718093 0.012902148 -0.0029365506 -0.02328875 0.021839364 -0.026081907 -0.019599348
-0.10778632 -0.009693585 -0.046280332 -0.006605958 -0.06727775 -0.020014029 0.03994174 -0.06312251
0.027120706 -0.048703026 -0.014927652 -0.025146078 -0.13011959 0.041814502 0.0061620413 0.012423548
-0.06003253 0.02277774 -0.008649649 -0.06474158 -0.03326167 -0.008821372 -0.04195295 -0.015488314
-0.081354946 -0.10140583 -0.028523806 -0.083688974 -0.07926506 -0.0387441 0.027013402 -0.00052044995
-0.09482504 0.011115515 -0.0071589802 0.023223871 -0.061024405 -0.0972426 -0.04829112 -0.053264044
-0.02042116 -0.048626453 -0.03160877 -0.019299746 0.0057336814 -0.06572875 -0.03009853 -0.0463723
-0.0071196496 0.108891346 0.025522888 -0.00811264 -0.06592626 0.06557111 0.09569868 -0.033271402
-0.005113572 -0.03507735 0.02901399 -0.05594917 -0.030030722 -0.079968035 0.013648696 -0.033055056
0.0017141073 0.08041312 -0.11972337 0.10082353 -0.010743961 -0.018095959 -0.0045039877 0.040397793
0.036049318 0.040135134 0.033102598 0.024404509 0.046696562 0.0241384 0.12114527 0.024398828
0.075798884 -0.0132913785 -0.022489866 0.006964827 -0.023515275 -0.010572545 -0.013915774 0.026347507
-0.019008944 0.0043358565 -0.016611164 -0.012500733 0.00034584207 -0.011886414 -0.002740494 0.014337153
0.010579658 -0.004935984 -0.010854068 -0.026045801 -0.05962532 -0.00047895216 -0.031294454 -0.01688723
-0.0003613345 0.016947124 0.020595158 -0.015558135 -0.030163247 -0.013543574 -0.014193243 -0.0058804573
-0.004991964 0.0059951684 0.012670109 0.00408801 -0.0068455166 -0.012793446 -0.036205266 -0.012796908
-0.02264591 -0.010885848 -0.04547151 0.0031402924 -0.026914362 -0.023871377 -0.007474202 -0.018085502
-0.019468233 -0.013858421 -9.67123e-05 -0.026033398 -0.016411584 -0.0059829284 -0.018312953 -0.013967039
-0.018268472 -0.0069781034 -0.01650683 0.0012894464 -0.018699862 -0.013203648 -0.017053513 -0.014490441
-0.012920176 0.00015724955 -0.029621828 -0.011470637 0.0066588614 -0.012915398 0.00624377 -0.0047555114
-0.031463683 -0.00338622 0.003108701 -0.016150814 -0.015623981 -0.0016928762 -0.023882207 -0.02159306
-0.013021255 0.00039899355 -0.014965279 -0.00690003 -0.0105625205 -0.0006303201 -0.009454659 -0.030133028
-0.03744281 -0.007350033 -0.0013679622 -0.0018783752 -0.038525935 -0.005824272 0.011573346 -0.012216095
-0.02791644 -0.02215602 -0.017688658 -0.019461377 -0.011828571 -0.0027112043 0.012728388 -0.00012827621
-0.011885193 -0.030385708 -0.027147114 -0.0030470393 -0.01390844 -0.015511188 -0.018064365 -0.010252056
-0.021455154 -0.034296054 -0.01988323 -0.020620592 -0.024800206 -0.026663063 -0.007971081 0.0032355404
0.02113552 -0.031535715 -0.037780575 -0.021829335 -0.035233263 -0.038181648 -0.0325647 -0.041334447
-0.021593451 -0.039702103 -0.04565958 -0.03565864 -0.030919738 0.0020501057 -0.029882196 -0.004459638
-0.020811232 -0.010064139 -0.0020008292 -0.029222975 -0.01358815 -0.006187939 -0.0063568 -0.016377265
-0.0313001 -0.010936825 -0.01177985 -0.021909853 -0.023533372 -0.039206896 -0.011007524 -0.017814847
-0.016657611 -0.015340057 -0.030933842 -0.036879294 -0.019148964 -0.02106938 -0.0038748127 -0.014632649
00000000: 57dc 543d 349d 02be adc2 e2bc f740 2d3d
00000010: 6f03 093d 8757 4d3c a82f 77bc be5e 82bc
00000020: 6b9b 50bd 388f f1bb 8863 533c 2573 40bb
00000030: 0cc8 bebc 77e8 b23c b9a9 d5bc d08e a0bc
00000040: 13bf dcbd d8d1 1ebc 7290 3dbd cb76 d8bb
00000050: ebc8 89bd 76f4 a3bc f399 233d 6046 81bd
00000060: 3e2c de3c d37c 47bd 1c93 74bc 26ff cdbc
00000070: 123e 05be af45 2b3d f3ea c93b 238c 4b3c
00000080: ace4 75bd 6298 ba3c 42b7 0dbc 3c97 84bd
00000090: 643d 08bd 8487 10bc dbd6 2bbd b3c2 7dbc
000000a0: 6c9d a6bd dcad cfbd c2aa e9bc 2065 abbd
000000b0: b855 a2bd 22b2 1ebd 364b dd3c ce6e 08ba
000000c0: a133 c2bd d91d 363c e195 eabb fd3f be3c
000000d0: baf4 79bd 2127 c7bd e9cc 45bd 662b 5abd
000000e0: 474a a7bc 882c 47bd 3378 01bd 801a 9ebc
000000f0: 9be1 bb3b cb9c 86bd 3191 f6bc e1f0 3dbd
00000100: f34b e9bb 6d02 df3d 6015 d13c e1ea 04bc
00000110: 5904 87bd 254a 863d abfd c33d 9847 08bd
00000120: c08f a7bb 44ad 0fbd bfae ed3c f52a 65bd
00000130: fd02 f6bc 48c6 a3bd c89e 5f3c bd64 07bd
00000140: e6ab e03a a2af a43d 8731 f5bd 917c ce3d
00000150: 7007 30bc fa3d 94bc 3096 93bb 2878 253d
00000160: 73a8 133d bd64 243d 9796 073d f7eb c73c
00000170: e544 3f3d e5bd c53c 031b f83d 0de0 c73c
00000180: 723c 9b3d 15c4 59bc ab3c b8bc 3439 e43b
00000190: 1ba3 c0bc 7838 2dbc fdfe 63bc bad6 d73c
000001a0: a5b8 9bbc cd13 8e3b 2314 88bc e0cf 4cbc
000001b0: 2352 b539 3cbf 42bc dc99 33bb 61e6 6a3c
000001c0: 4d56 2d3c 09be a1bb 43d5 31bc 015e d5bc
000001d0: ae39 74bd df1b fbb9 9d2e 00bd 1757 8abc
000001e0: 7f71 bdb9 b2d4 8a3c 2db7 a83c 8ce7 7ebc
000001f0: ea18 f7bc dee5 5dbc c78a 68bc dab0 c0bb
00000200: a193 a3bb 1e73 c43b 4a96 4f3c b7f4 853b
00000210: 5b50 e0bb 9a9b 51bc f94b 14bd 1faa 51bc
00000220: ea83 b9bc 8e5a 32bc 5640 3abd 5dcd 4d3b
00000230: 827b dcbc e88d c3bc 27ea f4bb 0c28 94bc
00000240: d87b 9fbc 6e0e 63bc 05d2 cab8 fe43 d5bc
00000250: 9671 86bc 710c c4bb 0c05 96bc 02d6 64bc
00000260: c3a7 95bc 93a8 e4bb 5539 87bc a402 a93a
00000270: 7430 99bc 1d54 58bc cfb3 8bbc 5169 6dbc
00000280: 25af 53bc 5be3 2439 7aa9 f2bc 57ef 3bbc
00000290: 9432 da3b 1b9b 53bc 8a98 cc3b 1fd4 9bbb
000002a0: 10e0 00bd 58eb 5dbb 59bb 4b3b b64e 84bc
000002b0: bafb 7fbc 80e3 ddba 9ea4 c3bc eee3 b0bc
000002c0: 1a57 55bc 0230 d139 ee30 75bc a619 e2bb
000002d0: 6c0e 2dbc 113c 25ba b7e7 1abc 8ad9 f6bc
000002e0: a25d 19bd 8cd8 f0bb 324d b3ba d033 f6ba
000002f0: 5fcd 1dbd 89d9 bebb 229e 3d3c 0426 48bc
00000300: 05b1 e4bc 8b80 b5bc cee7 90bc 776d 9fbc
00000310: 9fcc 41bc 76ae 31bb bb8a 503c e281 06b9
00000320: 1dba 42bc 73eb f8bc a063 debc d6b0 47bb
00000330: 3ae0 63bc a322 7ebc b8fb 93bc 3df8 27bc
00000340: b8c2 afbc 057a 0cbd 28e2 a2bc 84ec a8bc
00000350: cd29 cbbc 7f6c dabc 2399 02bc 5c0b 543b
00000360: 6624 ad3c 982b 01bd cebf 1abd 6fd3 b2bc
00000370: c150 10bd 5c64 1cbd 9062 05bd 4f4e 29bd
00000380: c0e4 b0bc ac9e 22bd 8a05 3bbd cb0e 12bd
00000390: 644b fdbc 115b 063b 82cb f4bc 2822 92bb
000003a0: 517c aabc 0fe4 24bc 5820 03bb 0565 efbc
000003b0: d5a0 5ebc 32c4 cabb b44c d0bb 9d29 86bc
000003c0: 8934 00bd 5e30 33bc 4600 41bc 4b7c b3bc
000003d0: 0fc9 c0bc 6997 20bd e758 34bc 71f0 91bc
000003e0: 8b75 88bc dd54 7bbc f868 fdbc be0e 17bd
000003f0: 4ade 9cbc b199 acbc 92f0 7dbb c7bd 6fbc

bias f4 [40]
-0.13215366 -0.19864646 -0.038289245 -0.16306387 -0.10613536 -0.106847376 -0.21028075 -0.1273116
-0.18779178 -0.1387183 -0.0699114 0.0154965175 0.016173212 -0.05731318 -0.19064766 -0.08882352
-0.15074427 -0.13121712 -0.09737751 -0.11737716 -0.015343935 -0.05388911 -0.050896928 -0.03626412
-0.11205063 -0.02704472 -0.09018273 -0.048955787 -0.14657477 -0.0652674 -0.097185954 -0.0940904
-0.15764977 -0.10372792 -0.095224634 -0.05732014 -0.037460793 -0.10722324 -0.14596103 -0.11236922
00000000: 4a53 07be fa69 4bbe 2fd5 1cbd 37fa 26be
00000010: 7f5d d9bd ccd2 dabd d653 57be f95d 02be
00000020: 7d4c 40be 2c0c 0ebe b52d 8fbd 1be5 7d3c
00000030: af7d 843c 3ac1 6abd 2439 43be 1be9 b5bd
00000040: b55c 1abe c85d 06be dc6d c7bd 7063 f0bd
00000050: 2165 7bbc d4ba 5cbd 4c79 50bd b089 14bd
00000060: cd7a e5bd e38c ddbc b9b1 b8bd dd85 48bd
00000070: b217 16be eaaa 85bd 6e09 c7bd 78b2 c0bd
00000080: f16e 21be 4e6f d4bd 2205 c3bd 86c8 6abd
00000090: 7d70 19bd dc97 dbbd cf76 15be d521 e6bd
