ode_net/code/output/2022-8-1(5;57)_G350genes_150samples_200epochs/interm_models/best_val_model_epoch_50_prods.pt (torch, 57895 bytes, 2 tensors)

weight f4 [40, 350]
000000 2a 92 0e bd 7f e7 b9 bd 9a 6b da 3d ac 53 23 3d
       -0.03480736 -0.090773575 0.106650546 0.039874718
000010 cb 7d 85 3d 6b dc 33 3d 92 d5 d8 bd 09 f9 d5 3d
       0.06518134 0.04391138 -0.1058761 0.1044789
000020 d7 4f a9 3d 9b c9 a2 bc 41 07 bc bd ae ff 1c 3c
       0.08267181 -0.019871524 -0.09181071 0.009582443
000030 41 b4 18 3b 38 a8 21 3e 10 f8 94 3d bc f4 be bd
       0.00233008 0.15786827 0.07273877 -0.09324023
000040 18 b7 b9 bc f4 f7 2e 3e 63 11 70 bb 7b 10 2d 3d
       -0.022670314 0.17086774 -0.0036631457 0.042252045
000050 49 a0 53 bd 21 96 87 3b fb a0 9c 3d 7c 59 eb 3d
       -0.05166653 0.00413777 0.07647892 0.11491677
000060 eb 04 2e bd 46 be e5 bc 60 eb fe 3c bb 8f 10 3e
       -0.04248516 -0.028044831 0.031118095 0.14117329
000070 b6 5e 2b 3d cb 53 9f bd 5e 65 ad bd cf fb dd bd
       0.04183837 -0.07779654 -0.084666 -0.10839044
000080 5d 22 3b bd 64 14 0e bd c3 ef 5f 3d ed d4 ef 3c
       -0.04568707 -0.034687415 0.054672014 0.029276336
000090 7f db 29 3d 4e d0 db 3c 14 ad f0 3d e7 eb ba 3c
       0.041469093 0.026832726 0.11751762 0.022817565
0000a0 85 bf b0 bd 9a c2 30 3e 51 41 0d 3d b7 6b e6 3d
       -0.086302795 0.17261735 0.03448612 0.11251014
0000b0 d4 93 f5 bc 30 92 27 be 51 b0 51 3c 7f 13 26 bd
       -0.029977717 -0.1636436 0.012798385 -0.040545937
0000c0 c5 e9 16 be 6c 34 04 3e 49 93 1d 3d 6e b5 33 be
       -0.14737613 0.12910622 0.03847054 -0.17549679
0000d0 0f ac 29 3d 72 22 5c be 5d 88 88 3b b2 d5 02 3d
       0.041423853 -0.21497515 0.0041666464 0.031942077
0000e0 1d 39 a5 bd 69 f0 ae bd 52 47 22 be 22 68 fd bd
       -0.08067534 -0.08541948 -0.15847519 -0.123733774
0000f0 62 a8 a5 bc 4f 60 74 39 b5 36 89 3d 2f 24 4c bd
       -0.020221893 0.00023305531 0.06699888 -0.049839195
000100 9e 53 cc 3d 95 cf c8 bd cd 79 e2 3c a3 0b 51 3c
       0.09976886 -0.09805218 0.02764597 0.012759122
000110 24 a8 a0 3d c7 1f c2 3d 7e 96 c4 bd e5 65 c8 3d
       0.0784457 0.09478717 -0.095990166 0.0978506
000120 98 c0 8c bd 7c c7 d9 3d 02 35 af bd 21 fe 1e bd
       -0.06872672 0.10633752 -0.08555032 -0.038816575
000130 1c 32 4c bb 7e db 8e bc 2a 60 90 ba 5d bc a8 3d
       -0.0031157797 -0.017438646 -0.0011014987 0.082390524
000140 68 3c 85 3d 7f e2 59 bb e1 b2 84 3c ee 8a 82 3d
       0.06505662 -0.0033246574 0.016198577 0.06374155
000150 1b b7 eb bd 05 22 a0 3d 1d e9 76 bc 94 5a 3c bc
       -0.11509534 0.07818989 -0.015070227 -0.011496205
000160 35 46 cf 3d 70 4e 0d 3d 0d 9f ee 3d ee cc 88 3d
       0.10120813 0.034498632 0.1165143 0.06679712
000170 e7 d5 17 be 5c 4f 22 3e 3e 02 6e bc c4 cc be bd
       -0.14827691 0.15850586 -0.014526902 -0.093164
000180 67 3c a1 3d da 05 c1 3c 2d 06 f7 bc 88 72 4b 3c
       0.07872849 0.02356236 -0.030154312 0.012417443
000190 d3 c4 6d bc a1 4e 96 bc cf a1 2e bc bb 1f 8b bb
       -0.014512259 -0.01834804 -0.010658695 -0.004245726
0001a0 fd 9a 28 bc 5f bc 62 3b f6 f0 02 bd 0e 95 2b bc
       -0.010290858 0.0034597141 -0.03196808 -0.010472549
0001b0 3d 06 b3 bb a5 e3 3e bd 86 3f 27 3c c4 6e 3e 3b
       -0.00546339 -0.046603817 0.010208016 0.002905772
0001c0 94 4a 43 3c c3 e5 3f bc 02 5f 95 3c 45 68 50 bc
       0.011919636 -0.011712494 0.01823378 -0.012720172
0001d0 9e a3 a5 bc 95 3d 2e 3c 2c ff d1 bc 16 02 f1 3b
       -0.02021962 0.0106347995 -0.02563437 0.007354985
0001e0 c1 8e 2f 3d b5 aa 7f 3c 3b 31 e2 3b 78 a6 91 bc
       0.04286075 0.015604665 0.0069028414 -0.017779574
0001f0 c5 24 c7 38 43 c5 fc bc 66 0a 2e bb 9d 74 69 3c
       9.495908e-05 -0.03085578 -0.002655649 0.014248994
000200 0d 15 e7 ba 44 3b af bb ac e4 81 3b 47 6a c1 3b
       -0.0017630175 -0.005347641 0.0039640274 0.005902562
000210 30 92 b2 bb 0d 2f 9b ba 45 38 03 bc 8a 9e cf bc
       -0.005449556 -0.0011839584 -0.008009021 -0.025344152
000220 ef 56 0e bd dc a2 12 bc 9a b8 d6 bc 29 ec f5 bb
       -0.034750875 -0.0089499615 -0.026211072 -0.007504959
000230 c3 4e e8 bb 72 82 11 bc a5 0e 24 bc 86 42 e0 3b
       -0.0070894673 -0.008881198 -0.010013257 0.0068438677
000240 2e d7 93 3c b7 bb 8c 3c 9a 46 b5 3c 77 64 d8 bb
       0.018046942 0.017179353 0.022128392 -0.006603773
000250 2e c2 f8 ba 84 ba 65 bc 2f dc b5 3b 29 14 c9 3b
       -0.0018978768 -0.01402152 0.0055499296 0.0061364365
000260 24 d0 f9 3b 6e fa 69 3c 56 b7 37 bc 3b cf 10 3b
       0.0076236892 0.0142808985 -0.011213144 0.0022096175
000270 2c dd 09 bc e0 f1 f8 ba 37 eb 86 3c 25 00 77 3b
       -0.008414548 -0.0018992983 0.016469581 0.0037689295
000280 88 60 80 bc db 54 46 3c 16 be 25 bc 0b 24 96 3c
       -0.01567103 0.012105192 -0.010116121 0.018327734
000290 80 56 49 3b 92 28 3a 3c 40 c9 92 bc 9a 6b 06 3c
       0.0030721724 0.011362212 -0.01791823 0.008204365
0002a0 13 01 6d bc 95 d6 2a 3c ac ce 65 3c 48 c2 6d bc
       -0.014465588 0.010427137 0.014026325 -0.014511652
0002b0 82 11 06 bb f8 d1 ab bb e5 20 bd 3b 01 1c 3b 3c
       -0.0020457213 -0.005243536 0.0057717436 0.011420251
0002c0 d6 59 7c bb 25 9d fc ba 1d 28 ac bb 86 78 46 bc
       -0.0038505695 -0.0019272907 -0.0052538053 -0.012113696
0002d0 f3 97 18 3c 28 d9 28 b9 8f 5a af bb e6 df 8a bc
       0.009313571 -0.00016102626 -0.0053513716 -0.016952466
0002e0 56 f0 c4 bc dd ba b5 3c 8d 2e c5 3b 46 2f 8e bb
       -0.024040382 0.02218383 0.006017512 -0.0043391315
0002f0 7b 40 d1 bc 53 88 a6 bc ba 1e 00 bc ab 35 ac 3b
       -0.025543442 -0.020328676 -0.007819826 0.005255421
000300 8d da 8b bc 9a b8 99 bc 6e e4 d5 bb eb 8c 0b bc
       -0.017071987 -0.018764783 -0.006527475 -0.008517484
000310 10 6c c3 bb 66 99 96 bc 40 93 f3 3c da 6a ea 39
       -0.00596381 -0.018383693 0.0297333 0.0004471157
000320 13 c2 a0 bb ce 80 ee bc a5 33 9e bc 8a ff 40 bc
       -0.004905948 -0.029114153 -0.019311735 -0.011779675
000330 b5 7b 3e bc d1 0a c5 bb 66 6c af ba c0 4c 87 3b
       -0.011626174 -0.0060132523 -0.0013383746 0.0041290224
000340 f8 6d 1f 3c 65 aa 65 ba 6b e2 06 3d d7 89 b4 bc
       0.009730808 -0.00087610475 0.032930773 -0.022038383
000350 60 28 d9 bc 9f a2 1e bb 2f a1 8a 3a 1d e8 84 3c
       -0.02650851 -0.0024205816 0.0010576601 0.016223961
000360 79 70 35 bc bc 26 8d bb 14 f9 3f bc aa 1e 31 bc
       -0.011074179 -0.004307596 -0.0117171 -0.010810534
000370 ef 96 f4 bb 4e ed 7d bc 26 cb 92 bb 1e 61 a9 bc
       -0.0074642817 -0.015498472 -0.0044797836 -0.020676192
000380 3a 8f cd bb f8 ff 80 bc 34 3b 7c bc 78 31 53 bc
       -0.0062731775 -0.015747055 -0.0153949745 -0.012890212
000390 79 93 5a bc 02 3a 88 3b ac 01 03 3c 1d 16 47 3c
       -0.013340824 0.0041573057 0.007996004 0.012151268
0003a0 31 ac d9 bb a8 da b5 ba b9 0e 9e bb 22 27 43 bc
       -0.0066428413 -0.0013874369 -0.0048235324 -0.011911185
0003b0 91 73 d7 bb 10 83 a1 3a a2 39 9a 3c 88 22 04 bc
       -0.006575056 0.0012322385 0.01882631 -0.0080648735
0003c0 8d 7c 2a bc aa 18 00 bc 67 6c 6a bc bb 2d b6 bc
       -0.010405672 -0.00781838 -0.014308072 -0.022238603
0003d0 ea 5b 6b bc 4b 29 69 bc 0a 5c 75 3b 99 48 83 bc
       -0.014365176 -0.014231036 0.0037438893 -0.016025828
0003e0 cc 53 d3 bc 77 c4 c5 bc 2f cc 60 bc 31 19 8b bc
       -0.025796793 -0.024141533 -0.013720556 -0.016979786
0003f0 3b e1 7e 3c f7 8a ca 3c 2f a0 43 bb c0 bc ca bc
       0.015556629 0.024724467 -0.0029850116 -0.024748206

bias f4 [40]
000000 6f 56 81 bc 83 8d e2 3c 8f 83 6b bb 1b 3a 23 3c
       -0.015788285 0.027655369 -0.003593657 0.009962584
000010 dc 1a c9 bd db b3 50 3c 02 b1 07 bd 95 28 3d bd
       -0.09819576 0.012738193 -0.033127792 -0.04618128
000020 ac 84 39 bc 14 03 f4 bb 92 ed b1 bd c9 71 7b bd
       -0.011323135 -0.007446656 -0.08687891 -0.06138781
000030 f0 28 df bb 41 97 01 ba a5 6d 9a bc b5 56 7b bd
       -0.0068103 -0.0004943498 -0.01885111 -0.061361987
000040 c5 8d 93 bd a3 c2 6a 3c f4 35 88 bd 59 17 0f be
       -0.07204775 0.014328632 -0.06650916 -0.1397375
000050 ad 89 8f 3d 77 9a 69 bd 62 f4 d6 bb 80 d9 1e bd
       0.070086814 -0.057032075 -0.0065598944 -0.038781643
000060 4d 77 09 bd 9a 7d 8b bd 22 e8 48 bd 24 b9 cb bd
       -0.03356104 -0.06811066 -0.049049504 -0.09947422
000070 d2 93 03 3d bb 90 11 be 7b 9e 99 bd 70 18 f4 bd
       0.032123394 -0.14215367 -0.07500931 -0.119187236
000080 a9 a4 82 bd e5 35 3d 3d d2 d2 8b bc 95 a0 c0 3c
       -0.06379063 0.046193976 -0.0170683 0.023514071
000090 1a 35 2d 3d 9b 80 d5 bd e7 5e 1b bd a7 b2 94 bd
       0.04228697 -0.1042492 -0.037932303 -0.07260638
