ode_net/code/output/2022-8-2(6;14)_G690genes_150samples_200epochs/final_model_alpha_comb.pt (torch, 277419 bytes, 1 tensors)

weight f4 [690, 100]
00000000: a080 9334 4a6a 9cb5 d5e9 43b5 f3b7 c7b5
00000010: 3cc3 2035 a074 d3b4 6e9f 3635 78bf 9bb3
00000020: c049 2534 0690 27b5 705e 4fb5 b0b7 4cb3
00000030: b01c f9b4 848b 5735 daa7 8d35 64bb 8db5
00000040: 28c1 9db5 6047 6735 600b 2cb4 086b 8135
00000050: dafc 7a35 8a5c 7c35 ae84 8eb4 2c96 2d35
00000060: 0e37 d8b4 ee4f 0f35 6279 6635 fa29 ae35
00000070: f2c8 52b4 3014 08b4 3da1 4b34 cdee e9b4
00000080: 08b8 d1b5 4a3b 9134 3ae3 31b5 d203 fd34
00000090: f0f6 57b4 2852 bb34 eed1 a6b5 503e 4235
000000a0: e67e 99b5 1cf7 5035 f8f1 0234 f0a0 46b3
000000b0: d0e0 7db3 8c42 deb4 0d5f 0db5 7523 4435
000000c0: ba21 c3b5 4198 8a34 74d9 88b5 b331 a9b5
000000d0: 36f5 43b5 989d a7b5 6677 9db5 e031 75b5
000000e0: b401 43b5 5842 73b5 552e 07b7 3f5c f0b5
000000f0: 7485 d4b5 bac4 40b5 d740 99b5 cc39 41b5
00000100: 50c4 b4b5 5f03 96b5 d71f b5b5 6c42 2ab5
00000110: 0fac abb5 a49f 51b5 4629 b4b5 85f0 9cb5
00000120: bd85 b2b5 48db 63b5 421d a7b5 94a5 8fb5
00000130: 7a70 d8b5 32ea 71b5 8d97 8bb5 19d8 9cb5
00000140: 42eb 78b5 29f8 d3b5 ec7f fcb5 14e7 3234
00000150: a497 9bb5 5c27 a7b5 0838 43b5 40bd c4b5
00000160: ad91 c9b5 baa0 48b5 8533 8eb5 2f42 87b5
00000170: 72b8 bdb5 c4f1 9cb5 93e3 a8b5 d085 c8b5
00000180: cfd4 9db5 a8f9 1c39 980c 3eb5 e55f 95b7
00000190: 8ed3 99b6 7b0d 27b8 c792 7737 79c3 85b7
000001a0: ae0f d0b7 f19e 39b8 c50f 0237 5869 9a37
000001b0: b8e0 b736 b2af 49b8 2c84 80b7 c863 0ab7
000001c0: e61d 19b8 1a05 b0b7 2851 3338 5e2a 89b7
000001d0: 0253 7f37 f5f4 a337 b4da 7437 0282 b336
000001e0: 8898 f837 2aa4 2b37 dad7 19b7 566a 10b7
000001f0: efba 7eb8 3a30 6636 0f05 12b8 47b0 5db6
00000200: 4038 52b5 8b6a 32b7 88df deb6 673a 6f38
00000210: 1a71 8137 3292 1a37 2856 0138 33a2 ecb6
00000220: cb73 f2b7 4261 a6b7 5659 0738 9292 bdb7
00000230: 0817 c8b7 20c2 9f37 96cc 51b7 b5b0 fc37
00000240: f3f6 6e37 bc61 ccb7 d3fa 3bb8 1d76 2cb7
00000250: f032 4f37 1736 aeb7 103b f836 568c 97b6
00000260: aa19 8036 2282 c637 68cd 8f37 4539 9835
00000270: c831 5c37 7b1b 50b7 13fc f7ba 21bb cfba
00000280: 1eb6 8e37 00fa edb6 c0c9 97b8 f9e7 7138
00000290: 6a97 60b8 2fb6 ba37 7a3e 00b6 d5cb 8836
000002a0: 1b64 23b8 0a6b fcb7 5261 b237 97c5 e6b8
000002b0: 72ce d2b6 ad6e dab7 e62f 3f37 a059 23b8
000002c0: 84ba 4cb9 ddd9 a537 9f2f eeb7 b26d 7f36
000002d0: 523e 29b7 c3e9 25b8 2adc a2b7 5153 52ba
000002e0: 2ff3 8eb7 3ce1 68b9 c6da e336 3c57 a837
000002f0: 1937 b0b7 6696 3b38 6219 3936 c550 5e38
00000300: 280e 1538 6861 71b7 6de0 53b8 25ad f8b7
00000310: c704 3a37 a260 013c 08c9 6437 c3c7 3b3c
00000320: 0625 31b6 1a09 fcb5 d010 ba33 548d ef36
00000330: c08f fe34 86a5 a337 9284 1037 601e 93b6
00000340: 487e bcb6 226c 2236 9cbd d135 7678 83b6
00000350: 6e3a 1ab7 ceb9 57b7 9b8b dbb7 52cc 8037
00000360: abca 8f37 b16e 06b7 6f26 22b7 88c1 6136
00000370: 19de 32b6 d440 9eb6 1eca 23b6 8f22 9935
00000380: 6c92 e734 622e 0a37 1b5d 19b7 e74b 72b7
00000390: fbbe f835 e56b 0a37 9c86 3136 8dda 6d37
000003a0: 883d 0238 38dc 5d37 b15f 9f36 a624 0ab7
000003b0: 9f69 9537 124d 0437 bc53 fc36 e555 4637
000003c0: 39bb 6937 52c5 7eb6 1a4d 0237 2992 04b7
000003d0: bb06 76b7 543e fab6 93df a2b6 02db 3035
000003e0: 0ac7 c637 b136 31b7 970a 9d35 66eb bab5
000003f0: 3c56 33b7 c947 2336 1e32 0bb6 edc8 7c36
2.747447e-07 -1.165384e-06 -7.298343e-07 -1.4880192e-06 5.988875e-07 -3.9386669e-07 6.8032284e-07 -7.252578e-08
1.5393653e-07 -6.242193e-07 -7.7250934e-07 -4.7664514e-08 -4.6400737e-07 8.0296763e-07 1.055417e-06 -1.0559856e-06
-1.1753627e-06 8.615807e-07 -1.6022886e-07 9.642399e-07 9.3500205e-07 9.401198e-07 -2.6546098e-07 6.466605e-07
-4.0273193e-07 5.3387964e-07 8.585831e-07 1.2976227e-06 -1.9630878e-07 -1.2673331e-07 1.8964506e-07 -4.3573382e-07
-1.5625274e-06 2.7051493e-07 -6.6268296e-07 4.7127702e-07 -2.011327e-07 3.489124e-07 -1.2429061e-06 7.236131e-07
-1.1436321e-06 7.784563e-07 1.2195221e-07 -4.624684e-08 -5.911062e-08 -4.1399142e-07 -5.266491e-07 7.3067287e-07
-1.4538448e-06 2.5815282e-07 -1.0196077e-06 -1.2605946e-06 -7.299999e-07 -1.2488335e-06 -1.1732161e-06 -9.134219e-07
-7.264564e-07 -9.0621097e-07 -8.057415e-06 -1.7908241e-06 -1.5834071e-06 -7.181185e-07 -1.1418259e-06 -7.198221e-07
-1.346818e-06 -1.1176852e-06 -1.3494817e-06 -6.342659e-07 -1.2790568e-06 -7.8090875e-07 -1.3423057e-06 -1.1692906e-06
-1.3300956e-06 -8.4883186e-07 -1.2450985e-06 -1.070252e-06 -1.6125989e-06 -9.0120295e-07 -1.0400414e-06 -1.1685798e-06
-9.2729545e-07 -1.5792949e-06 -1.8812693e-06 1.6661608e-07 -1.1592533e-06 -1.2453925e-06 -7.2724697e-07 -1.4658217e-06
-1.5018064e-06 -7.4739694e-07 -1.0594819e-06 -1.0077546e-06 -1.4135278e-06 -1.1693269e-06 -1.2583208e-06 -1.4940106e-06
-1.1759347e-06 0.00014970324 -7.079884e-07 -1.7806839e-05 -4.5843835e-06 -3.9828457e-05 1.47565215e-05 -1.594586e-05
-2.4802834e-05 -4.4255463e-05 7.752275e-06 1.8407285e-05 5.4799857e-06 -4.8085763e-05 -1.5320336e-05 -8.248673e-06
-3.6505888e-05 -2.098321e-05 4.275251e-05 -1.6351401e-05 1.5218511e-05 1.9545181e-05 1.4594454e-05 5.3497506e-06
2.9634932e-05 1.0230617e-05 -9.1697675e-06 -8.607827e-06 -6.0732415e-05 3.4300742e-06 -3.4813824e-05 -3.3034173e-06
-7.831295e-07 -1.0634433e-05 -6.642138e-06 5.7036432e-05 1.5430665e-05 9.213154e-06 3.0836236e-05 -7.0522306e-06
-2.8902568e-05 -1.9834031e-05 3.226971e-05 -2.2598808e-05 -2.3852583e-05 1.9044674e-05 -1.2505005e-05 3.0123027e-05
1.4243403e-05 -2.4364206e-05 -4.4817873e-05 -1.0279499e-05 1.2350021e-05 -2.0767604e-05 7.3978517e-06 -4.516488e-06
3.817685e-06 2.3664037e-05 1.7142578e-05 1.134155e-06 1.3124612e-05 -1.2404164e-05 -0.0018919728 -0.0015848615
1.7012524e-05 -7.0922542e-06 -7.23782e-05 5.767492e-05 -5.3546777e-05 2.2257764e-05 -1.9109852e-06 4.076845e-06
-3.895546e-05 -3.0090585e-05 2.1264572e-05 -0.000110040586 -6.282521e-06 -2.6039163e-05 1.1395639e-05 -3.8945698e-05
-0.00019524439 1.9770983e-05 -2.8393986e-05 3.8061812e-06 -1.0087695e-05 -3.9556773e-05 -1.9414427e-05 -0.00080232794
-1.704096e-05 -0.0002220915 6.7905958e-06 2.0067782e-05 -2.1006492e-05 4.4724344e-05 2.7581923e-06 5.3004147e-05
3.5537552e-05 -1.4387399e-05 -5.0515333e-05 -2.964453e-05 1.1087576e-05 0.007896574 1.3636665e-05 0.011461201
-2.6396606e-06 -1.8778112e-06 8.664358e-08 7.139208e-06 4.741578e-07 1.9508192e-05 8.613935e-06 -4.3844775e-06
-5.6175377e-06 2.4202823e-06 1.5626897e-06 -3.9181277e-06 -9.1927195e-06 -1.285826e-05 -2.6171843e-05 1.5353933e-05
1.7141303e-05 -8.012795e-06 -9.664901e-06 3.3640263e-06 -2.6653345e-06 -4.716314e-06 -2.440654e-06 1.1409446e-06
4.313364e-07 8.23624e-06 -9.1411885e-06 -1.4441996e-05 1.8533023e-06 8.250562e-06 2.6453408e-06 1.4177186e-05
3.105172e-05 1.32239e-05 4.749709e-06 -8.233974e-06 1.7811368e-05 7.885757e-06 7.519933e-06 1.18217185e-05
1.3931473e-05 -3.7963805e-06 7.766555e-06 -7.901844e-06 -1.466431e-05 -7.4578365e-06 -4.8540037e-06 6.588381e-07
2.3696124e-05 -1.0562756e-05 1.1700494e-06 -1.392659e-06 -1.0689309e-05 2.4330677e-06 -2.0741786e-06 3.766788e-06
