all_manuscript_models/sim690/phoenix/noise_0.4/best_val_model_sums.pt (torch, 140007 bytes, 2 tensors)

weight f4 [50, 690]
00000000: 0b2d 813d ba3c 2b3d 8af6 f4bc 114d 853c
00000010: 628c 41bb fa94 ddbb 68c4 edbb 30f5 d53d
00000020: c0f8 693b e225 933c 8e19 a0bc 45a9 ae3d
00000030: af57 cbbc dc60 c9bd 5cd6 033d 51b7 97bb
00000040: 1c63 95bb 3d18 c6bd 4f10 d53c 64c9 ce3c
00000050: b4fd cfbc 246a c63d 2953 40bd 2654 cabc
00000060: d0c6 663d c17b 72bd 5b92 88bc 696c 753d
00000070: d143 1f3b f9ab 4cbd b7d6 82bd adce 56bd
00000080: c7da 473d 8bbe 8a3c 02a6 d03d f7b3 3b3d
00000090: 1477 7abd 620c e93c 3274 b73c a0f9 c23c
000000a0: 5c4b a83c d3cc 803b 8ba1 a73d 3d1c aebd
000000b0: 9317 cbbc 5cf4 aa3d 97b5 83bd a9f2 c53c
000000c0: 47d6 1ebc a6b8 9a3c 7cd0 fb3c be9e 4fbc
000000d0: 2633 e83b 0235 5b3d 18a8 983c 7dd3 22bb
000000e0: 6bea d43c 6b0f 27bd ca4a e9bc 195e 4fbb
000000f0: 671e 84bd a70b adbb 5266 caba 8dc9 00bd
00000100: 5a99 473c ac37 fdbd 2764 9fbc ea3e 40bd
00000110: 44fe a6bc f086 113d f84f e03d 7cc4 fdbc
00000120: 4028 283c 5389 eb3b 5213 7cbc 46ec 63bd
00000130: 1ac5 42bd 2cc0 723d 00cc 0a3d f4e0 39bd
00000140: 2e52 de3d 1511 c53c 763e 5e3d ad38 04bd
00000150: 1b4d 7b3c cfb6 6abc f1ba 6fbc 67c3 013c
00000160: 44ce 99bd ed01 4a3c 2119 2fbd ef55 3dbd
00000170: 54eb e5bb 3e87 ec3c 831a f53c d54f 933c
00000180: 5729 10bd b07f 1d3d 6f51 883d 6997 e33c
00000190: ac58 d0bb 76c0 003d f8f5 8fbc 6742 133d
000001a0: 461d a63c 4f00 ee3c ea80 72bd 5d34 ab3c
000001b0: f22d 27bd 456e c43a 75b4 a73c 226e d63c
000001c0: fb93 423d 2341 a0ba 1e87 b4bc 9da6 afbc
000001d0: 9a3d 9fbb 64a7 53bc ad2e 1cbd c0bc 13b7
000001e0: 9020 933d c394 ff3b 12d4 a23c 0262 49be
000001f0: 4d95 9d3c 05b4 95bc ed3a 00bd 9281 a13b
00000200: e060 48bd f3c9 793d 4693 4b3d 0307 1c3c
00000210: a760 4c3c 0f92 3bbd 1f29 c6bc e2bb 31bc
00000220: c801 033d 21e9 053d 0ea7 c4bc 6f42 d33b
00000230: 79b3 5c3a 07a6 943c 4b4b 853d 6cba f5ba
00000240: 8636 a73b 689d 00bb 76e4 8abc 1247 bdbb
00000250: 1c70 1a3c c6f3 a63c eb99 b1bb ce70 b63d
00000260: d14e eebb 72bf b13c 9fad 8a3c 4d3f 29bc
00000270: 4984 ad3b 24c4 703b 248d c7bd 68a1 1f3c
00000280: 37cf dbbb ff7e 693c e00b cf3c dbe6 af3d
00000290: 9a58 5c3d 8fc4 1e3d 7f84 103d 551b c53b
000002a0: 89b6 a63c 2887 3e3c ef0f c6bb 7567 ffbb
000002b0: a61a b13c 72e6 d3bb 4c54 f8bc 9cf9 1e3c
000002c0: 6720 2b3b 4ffa 143c 65a7 813d 5a5c 01bd
000002d0: 72f1 66bd ab4c a03c 5396 12bd cb83 9b3d
000002e0: 38cf b6bd 5743 8d3c 5c38 0e3d aa5a 82bd
000002f0: a2f4 7e3c c6c9 8e3c 6958 babc 5b94 603d
00000300: 9ae8 56bd 2904 19bb a6ff 373d a3e6 b1bd
00000310: 7684 f73c 9322 e83c 8a6d 043d 1cd2 9bbc
00000320: 7260 9f3c fd5d c73b b33f 3cbd 5a66 76bd
00000330: e551 b0bd 4913 6d3c eb11 9e3b a7d9 663c
00000340: 74bc 323c 774e cf3c e0c8 55bc 78e8 ca3a
00000350: 86a1 efba d34f 2abd 5104 0fbc c1ca c53c
00000360: 68f3 7cbc b965 303c 58aa 523d 851e 3d3c
00000370: d8b4 0abd be3b 503d 64ef 6a39 21e3 c43c
00000380: ddfc 8b3c fab6 063e 643f 523c f63e b03c
00000390: f34b 443c 2798 83bc 7bf0 7abc 6546 943c
000003a0: abf2 49bd 4f88 0f3e 5657 13bd 2ed3 383d
000003b0: 0e6e de3d 204d 293c 53f2 8e3c 9527 bdbb
000003c0: 1905 ec3c a9b3 05bd ee13 fb3c c774 e2bb
000003d0: 98fe 753b b33c 72bc 8a68 ef3c 7ce6 fcbd
000003e0: 9ae8 243c da3b 373c 6ccb 983c eb4a 8f3c
000003f0: 36ea 4c3d 7ad2 1e3d 1aa8 f13a 4d70 d1bb
0.063074194 0.04180596 -0.029902715 0.0162721 -0.0029533138 -0.006762144 -0.0072560795 0.104471564
0.0035701245 0.0179624 -0.019543435 0.08528379 -0.024822084 -0.098329276 0.03218685 -0.0046300073
-0.004558934 -0.09672592 0.026008753 0.025242515 -0.02538953 0.096882135 -0.046954308 -0.024698328
0.056341946 -0.059200052 -0.01667135 0.05991784 0.0024301896 -0.049968693 -0.0638861 -0.052443195
0.048792627 0.016936561 0.101879135 0.045825925 -0.061148718 0.028448287 0.022394273 0.023800671
0.020543747 0.003930667 0.08185109 -0.0850148 -0.024791515 0.08347389 -0.0643112 0.024163561
-0.009694642 0.018886875 0.030739062 -0.012672124 0.0070861755 0.05351735 0.01863484 -0.0024845295
0.025990685 -0.040786188 -0.028478045 -0.003164178 -0.06451111 -0.00528093 -0.0015441871 -0.031442214
0.012182558 -0.12364134 -0.019456936 -0.046935 -0.020384915 0.035529077 0.10952753 -0.03097748
0.010263503 0.007188001 -0.015385466 -0.05564525 -0.047551252 0.0592653 0.033885956 -0.045380548
0.10855518 0.024055997 0.054258786 -0.032280613 0.015338208 -0.0143258115 -0.014631973 0.007920123
-0.07510045 0.012329561 -0.042748574 -0.04622453 -0.0070165787 0.028873082 0.029919868 0.017982403
-0.035195675 0.03845185 0.06656157 0.027782159 -0.0063582268 0.031433545 -0.017573342 0.035951998
0.02027763 0.029052882 -0.059204973 0.020898992 -0.0408153 0.0014986476 0.02047179 0.026175562
0.047504406 -0.0012226444 -0.022037085 -0.021441752 -0.0048596384 -0.012918327 -0.03813045 -8.80583e-06
0.07183945 0.007799716 0.019876514 -0.19666293 0.019236231 -0.018274317 -0.031306196 0.004928776
-0.048920512 0.06098361 0.049700998 0.009523156 0.012474216 -0.04579359 -0.02418953 -0.010848017
0.03198412 0.032693032 -0.02400544 0.0064471285 0.00084190775 0.018145574 0.065085016 -0.0018747575
0.0051029352 -0.0019625071 -0.016954642 -0.0057762945 0.009426143 0.020379912 -0.00541996 0.089082345
-0.0072725792 0.021697734 0.016928492 -0.0103300335 0.0052953106 0.0036738003 -0.09743717 0.009743072
-0.0067080515 0.01425147 0.025274217 0.08588954 0.053795435 0.03876167 0.035282608 0.006015221
0.020350711 0.011628903 -0.00604438 -0.0077943155 0.021619152 -0.00646668 -0.030313633 0.009703066
0.0026111843 0.009092881 0.06330756 -0.031582214 -0.056382604 0.019567808 -0.03578789 0.07593497
-0.089262426 0.017244024 0.034721717 -0.06364949 0.015561255 0.017430197 -0.022747235 0.054828983
-0.05246792 -0.0023348427 0.04492154 -0.086865686 0.03021453 0.028336799 0.032331027 -0.019021086
0.019455168 0.0060842023 -0.045959186 -0.060156204 -0.0860937 0.01446993 0.0048239133 0.014089978
0.010909189 0.02530597 -0.013048381 0.0015480658 -0.0018282391 -0.041580033 -0.008729056 0.024144532
-0.015438892 0.01076644 0.051431984 0.011542921 -0.033863872 0.050838225 0.00022405159 0.024034085
0.017088348 0.13155738 0.012832496 0.021514397 0.011980998 -0.016063763 -0.015316124 0.018099973
-0.04930369 0.14016841 -0.035971962 0.04512327 0.10860835 0.010333329 0.017449534 -0.005772541
0.028811025 -0.03264204 0.030649152 -0.0069108936 0.0037535783 -0.01478498 0.029224653 -0.12348649
0.010065222 0.011183703 0.018651687 0.017491778 0.05002805 0.038774945 0.0018436939 -0.006391561

bias f4 [50]
00000000: de4f 2abb 3df4 0a3d 612d 193d a7e6 db3b
00000010: 6f79 8a3c 22eb b2bc f54c 30bc 05c8 11bc
00000020: a2cf e53c 6b1b aabb 30ec 90bd 2e87 9dbc
00000030: 3ec0 e83b dc47 86bc e9d5 a4bb 7183 203d
00000040: 8747 cb3c 2e8b 78bd c301 a7bc f33a 19bd
00000050: d85f 8ebc 7508 9dbc da29 473d 51d5 76bc
00000060: ed38 2b3b 2fd4 063d 6735 50bc 9e42 b9bc
00000070: ec1d 473c 1d5b e0bc f486 0e3d 324f 9bbc
00000080: 26fc 5dbd 09b0 e23b 5c14 b1bc 84af 05bd
00000090: 9edc 723c a0ca 0ebc 1b19 983c b88f 243d
000000a0: 9035 643d 8540 673c c45b c33b 089a 763a
000000b0: 3442 8bbc 27ca c8bc b17c c23c 5945 d3bc
000000c0: ca63 87bc 1f89 863c
-0.0025987546 0.03392433 0.037396792 0.0067108455 0.016903607 -0.021840636 -0.0107605355 -0.008897786
0.028053109 -0.0051912568 -0.07076299 -0.019229498 0.007102995 -0.016391687 -0.005030383 0.039187852
0.02481438 -0.060679607 -0.020386582 -0.037409734 -0.017379686 -0.019169072 0.048623897 -0.015065507
0.002612646 0.032917198 -0.012708045 -0.022614773 0.01215313 -0.027387196 0.03479667 -0.018958662
-0.054195546 0.0069179577 -0.021616153 -0.032638088 0.014823107 -0.008715302 0.018566659 0.040176123
0.055715144 0.014114504 0.005961867 0.0009407108 -0.016999342 -0.024510456 0.023741098 -0.025789903
-0.016527075 0.016422806
