all_manuscript_models/sim350/phoenix_noprior/_first_submission/noise_0/best_val_model_prods.pt (torch_old, 63008 bytes, 2 tensors)

weight f4 [40, 350]
0.19412738 0.060859077 -0.15159729 0.14853308 0.08359145 -0.119007766 -0.020319449 0.024563126
0.017611686 0.038666256 -0.0014207956 0.18174808 0.12351327 0.10875653 0.030373326 0.015686827
0.21787606 0.027761033 -0.048623946 0.04391982 0.12217409 -0.06916213 0.5460874 -0.07120903
-0.21329659 -0.108100966 -0.118405156 0.11911709 -0.09809314 -0.12940054 0.13324106 0.028781874
-0.021394974 -0.016644726 0.506526 0.09852292 0.09324043 0.024973638 0.28301 -0.3667077
-0.21026307 -0.110027544 -0.03622877 -0.256601 -0.0783459 0.009763903 -0.084271 -0.05548215
0.05957477 -0.14367005 -0.002394424 0.045722436 0.03786256 -0.05862828 0.06739102 -0.038637523
0.04597632 0.20063737 0.040972117 0.1659865 0.22268753 -0.022447662 0.2548365 0.11099221
0.059020843 0.17099719 -0.27862352 0.047242798 -0.18632671 -0.13654383 -0.14638418 -0.07355606
-0.11422655 -0.076199755 -0.03531188 -0.09709011 0.020682216 -0.086136386 -0.047283947 0.024803085
0.042545866 -0.110117264 0.007923031 -0.15181345 0.080063485 0.3963187 -0.008466561 0.18589126
-0.12997043 0.042502396 0.28480256 -0.09224612 -0.024579192 -0.09691723 0.16002779 -0.038093474
0.28247663 -0.0022339234 -0.061175533 0.0101018995 -0.02582895 -0.05092384 0.05647017 0.050022244
-0.12481519 -0.008018668 -0.062172458 0.007491206 -0.04831085 -0.0652377 0.04416776 0.045370106
0.011131155 -0.024543323 0.0022852048 -0.042796362 -0.08941871 0.015025703 -0.089878984 0.020674601
0.04246509 0.03940875 0.032641895 0.021142052 0.06084303 0.05948513 0.06005445 0.004622464
0.0020287302 0.039648436 0.025527997 0.018360708 0.02229913 -0.058504123 -0.06905434 -0.020926178
0.003748489 -0.017869702 -0.073625565 0.019521244 -0.08544419 0.09890798 -0.047253557 -0.04168735
-0.061124694 0.06219904 0.030862648 -0.14296915 0.015589131 0.027347563 -0.055652395 0.0059225853
-0.076828845 0.021079818 -0.12215685 -0.020311648 -0.01536462 0.037597727 -0.03497261 -0.08933474
-0.023846487 0.021603255 0.03042966 0.0487894 -0.013057356 0.022408333 0.05872538 0.01293362
-0.081819534 0.0069798934 0.028258443 -0.080002934 -0.0961998 0.014421811 -0.055921905 0.030347213
-0.16236715 0.030305084 0.007975488 0.06639164 0.0875752 0.050459445 0.051658563 -0.071336806
-0.10436789 -0.004538631 0.078675464 -0.052028712 -0.038000114 0.053757537 -0.019293953 0.061992988
-0.056282453 -0.114466496 -0.016652238 -0.060595986 -0.08982005 -0.02305045 0.016536394 0.055850636
0.11436984 -0.095351584 0.03343407 0.00498847 0.042773783 -0.049428456 0.009757401 -0.02331396
-0.09181854 -0.05977164 0.11640675 -0.04162275 -0.037490793 -0.07084158 0.027875282 0.07245502
-0.023557318 -0.043994486 -0.04922506 -0.038212627 -0.11225422 0.007067931 -0.029475233 -0.0315908
-0.09348512 -0.025090815 -0.008744383 -0.011944859 0.03152164 0.02466187 0.06814338 -0.012617346
-0.04838543 0.014843759 0.026393246 -0.059261266 0.010539727 0.058657125 0.018208677 0.033851523
-0.02157686 -0.025478026 0.091694616 0.023716725 -0.07405838 0.0062916144 0.07659501 -0.031477615
0.032578915 -0.025391903 -0.19440985 -0.10248361 0.013258924 -0.034610756 0.04093666 -0.014270457
00000000: 54c9 463e 5e47 793d 523c 1bbe 0e19 183e
00000010: fe31 ab3d 58ba f3bd f974 a6bc 9c38 c93c
00000020: 6246 903c 8260 1e3d fd39 baba 2b1c 3a3e
00000030: 86f4 fc3d bebb de3d 7bd1 f83c a981 803c
00000040: e71a 5f3e 1b6b e33c e729 47bd 45e5 333d
00000050: 6936 fa3d e0a4 8dbd 62cc 0b3f 0ad6 91bd
00000060: 6c6a 5abe 0a64 ddbd 677e f2bd a9f3 f33d
00000070: 0ee5 c8bd 9381 04be 5870 083e f7c7 eb3c
00000080: 8344 afbc 855a 88bc b0ab 013f 62c6 c93d
00000090: d7f4 be3d 8495 cc3c b0e6 903e 1dc1 bbbe
000000a0: 344f 57be 1f56 e1bd 9e64 14bd 3561 83be
000000b0: d173 a0bd c7f8 1f3c 4696 acbd 4041 63bd
000000c0: ad04 743d 3e1e 13be c5eb 1cbb 7347 3b3d
000000d0: c615 1b3d 3524 70bd 4e04 8a3d 6142 1ebd
000000e0: aa51 3c3d e273 4d3e 61d2 273d 5df8 293e
000000f0: 3308 643e 29e4 b7bc ee79 823e e24f e33d
00000100: d7bf 713d e319 2f3e bea7 8ebe aa81 413d
00000110: 6ecc 3ebe 25d2 0bbe bce5 15be 8fa4 96bd
00000120: 9cef e9bd 9e0e 9cbd 31a3 10bd 2ed7 c6bd
00000130: c06d a93c 4668 b0bd d0ac 41bd d72f cb3c
00000140: 9344 2e3d 2985 e1bd 9acf 013c fc74 1bbe
00000150: 53f8 a33d 49ea ca3e 55b7 0abc 475a 3e3e
00000160: f816 05be fe16 2e3d a4d1 913e 89eb bcbd
00000170: 4d5a c9bc 8a7c c6bd 53de 233e e707 1cbd
00000180: c7a0 903e 0467 12bb 3293 7abd 7082 253c
00000190: 3c97 d3bc 8495 50bd 444d 673d 20e4 4c3d
000001a0: 1b9f ffbd bb60 03bc 8ca8 7ebd ca78 f53b
000001b0: 99e1 45bd 589b 85bd 41e9 343d 01d6 393d
000001c0: 735f 363c 140f c9bc 60c3 153b 3d4b 2fbd
000001d0: 2821 b7bd 5e2e 763c 7912 b8bd c85d a93c
000001e0: e0ef 2d3d 126b 213d 82b3 053d 1932 ad3c
000001f0: 8b36 793d aea6 733d a8fb 753d 0a78 973b
00000200: 72f4 043b 6666 223d 1720 d13c 3269 963c
00000210: aaac b63c 05a2 6fbd 5d6c 8dbd 606d abbc
00000220: 36a9 753b 7b63 92bc 00c9 96bd 04eb 9f3c
00000230: 5dfd aebd 4490 ca3d f28c 41bd 5bc0 2abd
00000240: e35d 7abd 6cc4 7e3d aad3 fc3c 8166 12be
00000250: 8e69 7f3c ff07 e03c c4f3 63bd 3f12 c23b
00000260: 7158 9dbd 95af ac3c 5f2d fabd 9d64 a6bc
00000270: e3bb 7bbc 1300 1a3d 713f 0fbd 22f5 b6bd
00000280: b559 c3bc 4ff9 b03c 9f47 f93c 65d7 473d
00000290: 85ee 55bc ae91 b73c 068a 703d 89e7 533c
000002a0: 0091 a7bd 97b7 e43b 407e e73c 94d8 a3bd
000002b0: 6704 c5bd 7649 6c3c 5e0e 65bd b89a f83c
000002c0: 9343 26be 5e42 f83c 9fab 023c 57f8 873d
000002d0: a05a b33d 90ae 4e3d ee97 533d 0819 92bd
000002e0: d5be d5bd ccb8 94bb 9a20 a13d 0f1c 55bd
000002f0: 02a6 1bbd dd30 5c3d 5a0e 9ebc 5cec 7d3d
00000300: 6e88 66bd 696d eabd 466a 88bc 7f33 78bd
00000310: 93f3 b7bd 4cd4 bcbc 5577 873c a3c3 643d
00000320: bc3a ea3d b147 c3bd 2af2 083d 5276 a33b
00000330: 9033 2f3d 7e75 4abd 82dd 1f3c ebfc bebc
00000340: 5c0b bcbd 1bd3 74bd aa66 ee3d 9e7c 2abd
00000350: f28f 19bd 6415 91bd b45a e43c 4c63 943d
00000360: 47fb c0bc 9033 34bd 37a0 49bd d884 1cbd
00000370: 8ae5 e5bd 1a9a e73b 0b76 f1bc 5b65 01bd
00000380: 2075 bfbd 418b cdbc 9a44 0fbc 5fb4 43bc
00000390: d61c 013d b107 ca3c c28e 8b3d fcb8 4ebc
000003a0: cd2f 46bd 3d33 733c a636 d83c f1bb 72bd
000003b0: d2ae 2c3c 7442 703d 5d2a 953c e5a7 0a3d
000003c0: f5c1 b0bc 4bb7 d0bc 63ca bb3d 9449 c23c
000003d0: ecab 97bd e329 ce3b d8dd 9c3d acee 00bd
000003e0: 7871 053d ae02 d0bc 6013 47be ede2 d1bd
000003f0: f53b 593c 02c4 0dbd 33ad 273d a3ce 69bc

bias f4 [40]
-0.031995773 -0.04021634 -0.072690085 -0.040988233 -0.14077269 -0.07263155 -0.07735414 -0.004562529
-0.10267149 -0.055600822 -0.113806516 -0.041382235 -0.06826197 -0.039107557 -0.017491179 -0.047183897
-0.12654291 -0.038836658 -0.062934324 -0.08184048 -0.062357657 -0.036269777 -0.10954945 -0.068109185
-0.06364285 -0.06849133 -0.085247174 -0.040328246 -0.062320467 -0.093866445 -0.011057473 -0.01740226
-0.04363262 -0.06621735 -0.014626827 -0.10669146 -0.06157484 -0.09196725 -0.02025243 -0.095543146
00000000: 000e 03bd e4b9 24bd 8ade 94bd 47e3 27bd
00000010: b726 10be dabf 94bd d96b 9ebd 4481 95bb
00000020: 6e45 d2bd b0bd 63bd 6413 e9bd 6b80 29bd
00000030: efcc 8bbd 3f2f 20bd a949 8fbc e743 41bd
00000040: 7794 01be 3013 1fbd b6e3 80bd fb9b a7bd
00000050: be6a 7fbd 9e8f 14bd 765b e0bd d47c 8bbd
00000060: 2f57 82bd 2f45 8cbd 1296 aebd 3b2f 25bd
00000070: bf43 7fbd 0d3d c0bd 672a 35bc 2f8f 8ebc
00000080: 1eb8 32bd f69c 87bd 5ca5 6fbc 0d81 dabd
00000090: e635 7cbd 5359 bcbd 6de8 a5bc 20ac c3bd
